L96P10/results/nets/net_mytrainedmodelSignatureKernel.pth (torch, 45902 bytes, 12 tensors)

net.gru.weight_ih_l0 f4 [96, 8]
-0.034970824 -0.1764989 -0.057328925 -0.013578747 0.13896637 -0.008057974 -0.106223196 -0.15518543
-0.11998543 0.21107064 0.028107457 -0.078169115 -0.13399816 -0.12906519 -0.08974494 0.18475236
0.021359144 -0.028304214 0.08619239 0.08838083 0.08690623 0.14683561 0.21472651 0.064297795
-0.26883444 -0.15324149 0.08025032 0.05113756 0.043778736 -0.10653149 0.17159484 -0.092764534
0.04633752 0.0013105002 0.066793345 -0.044288967 0.10051464 0.2172926 0.109960526 0.0392338
0.063225664 0.09589836 0.03181447 0.19908047 0.17979859 0.00019975766 -0.0533793 0.102321476
0.04587242 -0.064529814 0.048395663 0.029599436 0.04802351 0.18959501 -0.049559608 0.096120395
-0.003390987 -0.059942175 -0.007967332 -0.0179941 0.18507639 0.16827099 -0.21916498 0.086030684
0.061142698 0.14288649 0.0006684924 0.08957186 0.022382246 -0.10611411 0.109324925 0.006560879
0.10706188 0.07005951 0.0030261436 0.11428221 0.04967584 0.076678716 0.17808686 0.16166386
-0.082040034 0.052298207 -0.016569901 0.058486823 0.16066712 -0.05275487 -0.06479014 0.052478295
0.008733361 0.06245075 -0.10609826 -0.111820646 0.088754065 0.18631333 -0.14722505 -0.0288438
-0.156062 -0.07905598 0.11806265 -0.014397215 0.09912839 -0.04767197 -0.1941321 -0.08041391
-0.0693191 -0.14691472 -0.15430689 -0.13397907 -0.025642153 -0.09708743 -0.07894036 -0.05465275
0.1810591 -0.10094288 -0.0017097197 -0.057871796 -0.011103114 0.15775982 0.088625014 -0.04095701
-0.040873166 0.06082308 -0.073421344 -0.089381225 -0.10641215 -0.10447264 -0.0028845652 0.01547824
0.072096914 -0.108960114 -0.084027916 0.16894566 0.10422215 -0.11116697 0.3859941 0.012711725
-0.005925076 -0.09364112 0.155165 -0.06910834 -0.05680305 0.015416834 0.07978097 -0.090727486
0.08930282 0.11918582 -0.0027940606 -0.33261117 0.051017612 0.16988818 0.07390458 0.12627153
0.07725011 0.08911956 0.10239333 0.09696731 0.16920225 0.23349015 0.09094371 0.09612727
-0.085894935 0.111448355 0.04302436 -0.06367886 0.06470451 0.24560682 -0.05973628 0.26715362
-0.0037308412 -0.16830675 -0.18378344 -0.15820406 -0.17812762 -0.15421353 0.06768959 0.12691757
0.13697721 0.081855595 0.20045249 0.25408334 0.07952755 0.10266847 -0.14669774 0.003842735
0.020544156 0.12530088 0.019562643 0.18295503 0.2032444 0.1098677 -0.18861495 0.20702422
-0.10438227 -0.1115582 -0.20877309 -0.2157445 -0.09588136 0.052454937 -0.016081853 -0.09592379
0.10243796 -0.0031358905 0.13016033 0.29716995 0.054404944 0.030047022 0.028117947 -0.09119146
-0.07945711 0.086458825 0.0115634445 0.020135479 -0.17513748 0.066352315 -0.16227296 0.123645686
0.12274385 -0.036199022 0.14074665 -0.07541634 -0.031804495 0.0503655 0.093766384 -0.016521458
-0.036780912 -0.074068144 -0.08739259 -0.13195007 0.1052456 -0.086691126 0.14577883 -0.1028135
0.2162012 0.16201149 0.040829126 0.023897639 0.090637416 -0.011685174 -0.14424168 0.097539246
-0.13384612 -0.15424094 0.06635995 -0.12578602 -0.16635157 0.11593895 -0.015750056 -0.006413976
-0.019284517 0.22031984 0.18146221 0.13167441 -0.044074573 0.09235754 0.0979397 -0.04425982
00000000: 913d 0fbd 21bc 34be bcd1 6abd 6579 5ebc
00000010: 334d 0e3e 9805 04bc 8c8b d9bd eee8 1ebe
00000020: ecba f5bd e722 583e 9c41 e63c 2117 a0bd
00000030: d036 09be aa29 04be 32cc b7bd b92f 3d3e
00000040: 5ff9 ae3c 3dde e7bc a385 b03d 0201 b53d
00000050: e5fb b13d 135c 163e 44e1 5b3e 90ae 833d
00000060: aba4 89be 56eb 1cbe 485a a43d 9e75 513d
00000070: 5551 333d 2f2d dabd 8fb6 2f3e 55fb bdbd
00000080: 69cc 3d3d 17c5 ab3a f3ca 883d 5968 35bd
00000090: 9fda cd3d f481 5e3e fc32 e13d 9fb3 203d
000000a0: 757c 813d 5c66 c43d e44f 023d c0db 4b3e
000000b0: 1f1d 383e 0a76 5139 41a4 5abd ec8d d13d
000000c0: b8e4 3b3d 3528 84bd 883a 463d 847a f23c
000000d0: 4db4 443d 3225 423e 04ff 4abd c5da c43d
000000e0: 523b 5ebb ed85 75bd 6a89 02bc 5d68 93bc
000000f0: aa84 3d3e 3b4f 2c3e c96c 60be db30 b03d
00000100: c470 7a3d d650 123e c43d 2f3a 7471 b73d
00000110: f95a b73c 5b52 d9bd bfe5 df3d a4fc d63b
00000120: 4243 db3d 5c7b 8f3d 4452 463b cb0c ea3d
00000130: e578 4b3d bb09 9d3d 675c 363e 368b 253e
00000140: 9b04 a8bd a536 563d 9abd 87bc e18f 6f3d
00000150: ec85 243e 7e15 58bd b1b0 84bd 7bf3 563d
00000160: 5f16 0f3c 5ccc 7f3d 0b4a d9bd 3902 e5bd
00000170: b1c4 b53d ecc8 3e3e 2ac2 16be d549 ecbc
00000180: b8ce 1fbe 1ae8 a1bd d5ca f13d 4ce2 6bbc
00000190: d303 cb3d af43 43bd 91ca 46be 0cb0 a4bd
000001a0: 2cf7 8dbd d070 16be a002 1ebe cf31 09be
000001b0: 7e0f d2bc c6d5 c6bd 7cab a1bd 90db 5fbd
000001c0: 8f67 393e 24bb cebd ac18 e0ba fa0a 6dbd
000001d0: d6e9 35bc ca8b 213e 0881 b53d 8ac2 27bd
000001e0: 9f6a 27bd 9f21 793d ee5d 96bd 810d b7bd
000001f0: 9dee d9bd c0f5 d5bd f90a 3dbb 7298 7d3c
00000200: 8ca7 933d 7b26 dfbd d416 acbd 1700 2d3e
00000210: 6c72 d53d 82ab e3bd 05a1 c53e d744 503c
00000220: 2427 c2bb eac6 bfbd 93e3 1e3e ac88 8dbd
00000230: 51aa 68bd e396 7c3c 3564 a33d 55cf b9bd
00000240: 66e4 b63d b217 f43d 8f1c 37bb 034c aabe
00000250: d8f7 503d 2bf7 2d3e 495b 973d 534d 013e
00000260: 4e35 9e3d 5184 b63d 98b3 d13d cc96 c63d
00000270: 5b43 2d3e 0b18 6f3e b240 ba3d 60de c43d
00000280: afe9 afbd 093f e43d 503a 303d 106a 82bd
00000290: cc83 843d 5b80 7b3e 08ae 74bd 5cc8 883e
000002a0: 2181 74bb 9b58 2cbe ba31 3cbe 3f00 22be
000002b0: 1667 36be 27ea 1dbe d7a0 8a3d aef6 013e
000002c0: c143 0c3e e8a3 a73d 6b43 4d3e 3617 823e
000002d0: 57df a23d d943 d23d ef37 16be 65d6 7b3b
000002e0: 384c a83c e04e 003e d641 a03c 9058 3b3e
000002f0: 4d1f 503e 5102 e13d 4724 41be 28fe 533e
00000300: 5fc6 d5bd a078 e4bd 9dc8 55be 20ec 5cbe
00000310: 725d c4bd fdda 563d 17be 83bc b173 c4bd
00000320: feca d13d 8383 4dbb c048 053e a926 983e
00000330: b8d7 5e3d 2c25 f63c 9c57 e63c 97c2 babd
00000340: 69ba a2bd 5311 b13d 9a74 3d3c 29f3 a43c
00000350: 3d57 33be b9e3 873d e22a 26be f339 fd3d
00000360: 2161 fb3d 6d45 14bd e41f 103e e273 9abd
00000370: 6e45 02bd 0e4c 4e3d 9708 c03d 0258 87bc
00000380: 95a7 16bd 0ab1 97bd e3fa b2bd eb1d 07be
00000390: 018b d73d 1e8b b1bd 0c47 153e e28f d2bd
000003a0: d963 5d3e 57e6 253e 713c 273d fbc4 c33c
000003b0: 1ca0 b93d 2c73 3fbc 17b4 13be a8c2 c73d
000003c0: f50e 09be 56f1 1dbe bae7 873d 0dce 00be
000003d0: 1158 2abe 6671 ed3d 4306 81bc 552c d2bb
000003e0: 90fa 9dbc 869b 613e 3bd1 393e a8d5 063e
000003f0: 8a87 34bd f325 bd3d 9c94 c83d c949 35bd

net.gru.weight_hh_l0 f4 [96, 32]
0.14514197 0.12679735 0.09381238 -0.04365579 -0.15408507 0.14886044 -0.1544086 0.105709925
-0.0047021485 0.086935885 0.1652834 -0.035616387 0.2364015 -0.018396161 0.108632386 0.11104332
-0.028770702 0.011090645 -0.0029641525 0.044845145 0.1916947 -0.017608551 -0.09993998 -0.060028393
0.2332353 -0.18555266 0.2055656 0.16314588 0.09799696 -0.196758 0.105269425 -0.08579445
-0.06527585 -0.08996857 -0.17427799 -0.08753562 0.15539928 0.16100132 0.08581591 0.19860573
0.0035709473 -0.008940989 -0.16225359 0.048938517 -0.18792103 0.24491152 -0.023833347 0.07037695
-0.23691563 0.03571937 0.0071628373 -0.25164917 -0.04281323 -0.24176976 -0.1662593 0.0433733
0.1988263 -0.07306485 0.16451941 -0.024859324 -0.22471951 -0.20466629 0.034501653 -0.14567184
0.06911647 0.02493578 -0.2553031 0.19985314 -0.098247886 -0.017159207 0.019448677 -0.011164095
-0.016220462 -0.116644084 -0.15349926 -0.21684745 0.049008887 0.013922488 -0.041232415 -0.20115153
0.08684838 -0.036829736 -0.22404133 0.091841094 0.031659424 -0.095985614 0.15804027 0.112408005
0.00798637 -0.0029737484 0.037001166 0.07514473 0.08741133 0.1405114 -0.067441605 0.14854825
0.16069253 0.24942711 0.08635163 0.14506844 -0.09439536 -0.04807754 0.15985501 0.009858345
-0.024956157 0.060023617 -0.10910086 0.09827179 0.2122507 -0.05333385 -0.04984723 -0.1494052
-0.09204462 -0.12600532 -0.18041086 0.020521464 0.06771768 -0.13918409 -0.08942585 0.05728307
0.014820598 0.12091742 -0.12925756 0.10928551 0.111325994 -0.15509711 0.0841326 -0.116517864
-0.14073882 -0.08507648 -0.27968237 0.08175348 -0.11459054 -0.0016192346 -0.05192237 0.010011537
0.052968748 -0.11211901 0.038680445 -0.18017755 -0.08855506 0.07680017 0.07194813 -0.33954248
-0.2754309 0.044607397 -0.16580701 -0.14925782 0.029594027 -0.09485029 0.15569526 0.20565163
0.03129201 -0.006216979 -0.03714118 0.1789822 -0.21502124 -0.16614838 -0.08884981 0.06643577
-0.06784364 -0.11793385 0.032280847 0.013946867 -0.025039596 0.01609546 0.02124203 -0.06103566
0.032887038 -0.059601285 0.015424676 0.052931376 0.040422548 -0.07776468 -0.11992215 -0.051634107
-0.13058758 -0.044899125 0.035164423 -0.2213144 -0.24826097 0.017282955 -0.09820465 -0.05550832
0.110713154 -0.103252016 0.141005 -0.019137327 0.1550144 -0.034799226 0.22194159 -0.03762323
0.21249925 -0.13742077 0.08078765 -0.07724601 -0.18621013 -0.04437121 -0.12197049 -0.1508683
-0.16492552 -0.054750185 -0.039435115 -0.0021717595 0.20625128 -0.14243181 0.030071696 -0.14760023
-0.0023984336 -0.12496004 -0.061342083 0.13600424 -0.31996098 -0.17618944 0.08554015 -0.20142037
-0.12889747 -0.12627374 0.13697498 -0.0077826353 -0.20220275 -0.04688594 0.11225377 0.25604466
-0.037198275 -0.25760353 -0.080444336 -0.076084785 0.11529596 -0.05550373 -0.17227858 0.058295038
-0.07977243 -0.0068468517 -0.020508155 0.16730107 0.14305493 0.09730905 0.09509303 0.013749768
0.08613622 0.06541589 0.02473519 0.001557917 -0.1272973 -0.07051174 -0.06113854 0.030482475
0.003258961 -0.015737098 -0.11108106 -0.06418421 -0.072971135 -0.08859457 0.06121846 0.10250769
00000000: 19a0 143e 2ad7 013e b520 c03d 6ad0 32bd
00000010: 7ac8 1dbe df6e 183e 4a1d 1ebe 727e d83d
00000020: 7b14 9abb 710b b23d 0d40 293e 7de2 11bd
00000030: 3c13 723e 8cb3 96bc a87a de3d ae6a e33d
00000040: 89b0 ebbc 89b5 353c 3a42 42bb 8baf 373d
00000050: 9e4b 443e cf3f 90bc 55ad ccbd 55e0 75bd
00000060: 3cd5 6e3e 8401 3ebe ca7f 523e b70f 273e
00000070: a1b2 c83d ee7a 49be 7f97 d73d 00b5 afbd
00000080: 58af 85bd 7141 b8bd ee75 32be e045 b3bd
00000090: fd20 1f3e 88dd 243e 40c0 af3d 4d5f 4b3e
000000a0: 8e06 6a3b 3a7d 12bc ce25 26be c173 483d
000000b0: 5f6e 40be 16ca 7a3e 273e c3bc ca21 903d
000000c0: 039a 72be 794e 123d 3cb6 ea3b 29d8 80be
000000d0: ed5c 2fbd 7e92 77be e13f 2abe 34a8 313d
000000e0: 1f99 4b3e 06a3 95bd c777 283e c8a5 cbbc
000000f0: df1c 66be 0a94 51be 9b51 0d3d 002b 15be
00000100: f08c 8d3d 1f46 cc3c 17b7 82be 4da6 4c3e
00000110: 3036 c9bd 7791 8cbc d552 9f3c 9ce9 36bc
00000120: c6e0 84bc 18e3 eebd e92e 1dbe 420d 5ebe
00000130: 8bbd 483d 261b 643c 52e3 28bd abfa 4dbe
00000140: 90dd b13d c7da 16bd 176b 65be 2f17 bc3d
00000150: 50ad 013d 1b94 c4bd 4fd5 213e 2b36 e63d
00000160: 43d9 023c 38e3 42bb 898e 173d 7be5 993d
00000170: b604 b33d 38e2 0f3e d31e 8abd 081d 183e
00000180: 958c 243e d269 7f3e 20d9 b03d d28c 143e
00000190: 5b52 c1bd f4ec 44bd 08b1 233e e584 213c
000001a0: db70 ccbc 53db 753d 4670 dfbd b842 c93d
000001b0: 3f58 593e 9874 5abd 9c2c 4cbd adfd 18be
000001c0: e481 bcbd 8a07 01be a0bd 38be a11c a83c
000001d0: 91af 8a3d 4686 0ebe e624 b7bd a7a1 6a3d
000001e0: 18d2 723c 8da3 f73d 185c 04be 15d1 df3d
000001f0: e2fe e33d c7d1 1ebe b64d ac3d eba0 eebd
00000200: d61d 10be 943c aebd 8732 8fbe 5e6e a73d
00000210: 72ae eabd 7f3c d4ba 8dac 54bd 6e07 243c
00000220: c2f5 583d a79e e5bd 636f 1e3d 7780 38be
00000230: 5b5c b5bd 6849 9d3d 8b59 933d 83d8 adbe
00000240: 4705 8dbe 3fb6 363d 50c9 29be 0bd7 18be
00000250: 2c6f f23c de40 c2bd 946e 1f3e 5796 523e
00000260: 0d2c 003d cdb7 cbbb 5a21 18bd 1c47 373e
00000270: 872e 5cbe cd22 2abe e4f6 b5bd 7a0f 883d
00000280: 9bf1 8abd 4d87 f1bd ec38 043d 6681 643c
00000290: d71f cdbc a0da 833c c403 ae3c 8700 7abd
000002a0: 8fb4 063d 7a20 74bd c8b7 7c3c 92ce 583d
000002b0: 1d92 253d 1743 9fbd bf99 f5bd 497e 53bd
000002c0: c0b8 05be 25e8 37bd 9208 103d 3ea0 62be
000002d0: 2038 7ebe fc94 8d3c 851f c9bd b15c 63bd
000002e0: 94bd e23d cb75 d3bd 9d63 103e e2c5 9cbc
000002f0: 18bc 1e3e a289 0ebd a844 633e d11a 1abd
00000300: 6799 593e 08b8 0cbe ff73 a53d 2833 9ebd
00000310: dead 3ebe 96be 35bd aacb f9bd 387d 1abe
00000320: 3ce2 28be bb41 60bd b786 21bd 1454 0ebb
00000330: 8933 533e a5d9 11be eb58 f63c 8424 17be
00000340: 0a2f 1dbb 0deb ffbd d641 7bbd b244 0b3e
00000350: edd1 a3be 016b 34be ad2f af3d 2441 4ebe
00000360: b3fd 03be e74d 01be 2b43 0c3e 7a05 ffbb
00000370: 3d0e 4fbe 790b 40bd 4ee5 e53d 4918 833e
00000380: 385d 18bd 9ce4 83be 00c0 a4bd 57d2 9bbd
00000390: 4a20 ec3d e157 63bd cc69 30be c7c6 6e3d
000003a0: ba5f a3bd 8e5b e0bb b800 a8bc f950 2b3e
000003b0: fe7c 123e f849 c73d 22c0 c23d b546 613c
000003c0: 3068 b03d c4f8 853d 74a1 ca3c 0533 cc3a
000003d0: 395a 02be 7668 90bd 686c 7abd 62b6 f93c
000003e0: 4b94 553b 16eb 80bc 777e e3bd 0373 83bd
000003f0: e471 95bd 1271 b5bd 35c0 7a3d 8def d13d

net.gru.bias_ih_l0 f4 [96]
0.086957924 0.08503897 0.012148222 0.20053026 0.2675942 0.08629342 0.2217731 -0.19685948
0.19627853 0.1428871 0.14154947 0.08205009 -0.023399523 -0.050964117 0.09160035 0.05235968
-0.15855652 0.19759703 -0.04056643 0.10399781 0.16617994 -0.08915078 -0.052772883 -0.15738703
-0.28435016 -0.040888827 -0.08169388 0.100324735 0.0877119 0.07158913 0.13289712 0.15443695
-0.13836075 0.019575782 0.037883077 -0.015937133 -0.00042422238 -0.023884708 0.03188387 0.140598
-0.13957903 -0.24336904 -0.0672141 0.110446565 -0.2787111 -0.1362502 -0.030160686 0.0111408485
-0.10400752 -0.2038408 -0.15067239 -0.13836333 -0.061598532 -0.27964312 -0.054759294 -0.20328766
0.0036254323 -0.28501385 0.035802897 -0.049009696 0.14380437 0.019306963 -0.08484511 0.11746531
0.16716573 -0.21040614 0.06897902 -0.06293884 -0.01743193 -0.16927598 0.02154935 -0.0924574
-0.037217874 -0.16354217 0.21138027 0.12522373 0.03999004 0.2078266 0.22327647 0.1915112
-0.22044396 0.105989136 0.07009877 0.09465312 0.033044416 -0.03294919 -0.14659236 0.08091365
0.14014055 -0.11413651 0.1888065 -0.20443466 -0.10275223 -0.18000086 0.05558464 -0.01751803
00000000: ff16 b23d e928 ae3d 5609 473c ce57 4d3e
00000010: 1b02 893e 9bba b03d 7d18 633e 8895 49be
00000020: 3dfd 483e ff50 123e 58f2 103e e109 a83d
00000030: 5bb0 bfbc c0bf 50bd f798 bb3d 1b77 563d
00000040: a45c 22be e056 4a3e fc28 26bd cefc d43d
00000050: 132b 2a3e af94 b6bd 6128 58bd 112a 21be
00000060: 5896 91be 0b7b 27bd 1f4f a7bd 0e77 cd3d
00000070: 4ca2 b33d 529d 923d 2f16 083e b824 1e3e
00000080: 71ae 0dbe 645d a03c 492b 1b3d 978e 82bc
00000090: 2a6a deb9 dda9 c3bc a998 023d ecf8 0f3e
000000a0: ceed 0ebe bc35 79be 8ca7 89bd cf31 e23d
000000b0: 39b3 8ebe 2c85 0bbe 8b13 f7bc 1b88 363c
000000c0: e501 d5bd a5bb 50be dd49 1abe 1eaf 0dbe
000000d0: be4e 7cbd 622d 8fbe 484b 60bd a42a 50be
000000e0: a998 6d3b 56ed 91be 0fa6 123d 64be 48bd
000000f0: 7441 133e a329 9e3c 46c3 adbd a791 f03d
00000100: 7e2d 2b3e b574 57be df44 8d3d 14e6 80bd
00000110: 68cd 8ebc af56 2dbe 4388 b03c 4e5a bdbd
00000120: c571 18bd 9977 27be 1274 583e a63a 003e
00000130: 99cc 233d 7fd0 543e 96a2 643e 831b 443e
00000140: 10bc 61be d510 d93d f28f 8f3d 7fd9 c13d
00000150: 9559 073d bbf5 06bd 4f1c 16be 0eb6 a53d
00000160: 0181 0f3e 67c0 e9bd 7e56 413e 5257 51be
00000170: c36f d2bd 2552 38be b8ac 633d f981 8fbc

net.gru.bias_hh_l0 f4 [96]
0.17618996 -0.07141263 -0.1768641 -0.13588227 0.02625832 -0.008460833 0.21871564 -0.14530858
0.20012353 0.0057246103 0.21772726 -0.026956178 0.13908476 0.15236539 0.07904623 -0.081935465
0.11031973 0.14354855 0.13120289 -0.16055244 -0.05025828 -0.019515978 -0.055826638 0.11043584
-0.25501403 0.13571765 0.12188355 -0.059432194 0.071736075 0.016956136 -0.14479196 -0.029113594
0.12087997 0.1505736 0.10906277 0.15094972 -0.20349045 0.12421388 0.01638159 0.062128093
0.08365506 -0.0296739 0.16816185 -0.061825078 -0.2526033 -0.021119306 -0.14255862 0.15536815
0.0084979 -0.041543946 -0.18445554 -0.044835035 -0.1885981 -0.23986584 -0.13585512 -0.05014664
0.09262 0.012493799 0.09350169 0.15564726 0.21666957 0.07990309 -0.07290794 0.11934427
0.1911106 -0.004407645 -0.065389074 -0.12841478 -0.1142706 0.1501966 0.086020455 -0.12129104
-0.09897099 -0.086332984 0.14781347 -0.0142541425 0.05037648 0.045947358 0.16028133 -0.023214368
-0.1370979 -0.049271915 0.06293776 -0.12607735 0.027070668 -0.101822846 -0.23542912 0.09338515
0.11831892 -0.08491232 0.20919676 0.080956325 -0.21525192 -0.24287203 0.043369554 0.19524148
00000000: 246b 343e c940 92bd dd1b 35be b924 0bbe
00000010: b01b d73c 4e9f 0abc fef6 5f3e c6cb 14be
00000020: 2fed 4c3e 8395 bb3b e5f3 5e3e 34d3 dcbc
00000030: 3c6c 0e3e ac05 1c3e fde2 a13d c8cd a7bd
00000040: 50ef e13d 64fe 123e 0d5a 063e dc67 24be
00000050: a0db 4dbd f9df 9fbc 79aa 64bd 302c e23d
00000060: 3391 82be 91f9 0a3e 159e f93d 2c6f 73bd
00000070: 5dea 923d 98e7 8a3c 5844 14be a27f eebc
00000080: eb8f f73d f72f 1a3e 4d5c df3d 9092 1a3e
00000090: cd5f 50be d963 fe3d af32 863c 077a 7e3d
000000a0: 5853 ab3d ae16 f3bc 9f32 2c3e 4b3c 7dbd
000000b0: 3855 81be 6502 adbc e3fa 11be d418 1f3e
000000c0: c73a 0b3c fc29 2abd eae1 3cbe f1a4 37bd
000000d0: dc1f 41be 649f 75be 9b1d 0bbe 9066 4dbd
000000e0: 8eaf bd3d cbb2 4c3c d07d bf3d ff61 1f3e
000000f0: a1de 5d3e 3ba4 a33d c250 95bd c56a f43d
00000100: 7fb2 433e 026e 90bb b5ea 85bd 2a7f 03be
00000110: b406 eabd 23cd 193e 7e2b b03d 7067 f8bd
00000120: 4db1 cabd 59cf b0bd 6a5c 173e 358a 69bc
00000130: 9157 4e3d 4c33 3c3d ca20 243e 0f2c bebc
00000140: 6463 0cbe 59d1 49bd 83e5 803d 6c1a 01be
00000150: 4ec3 dd3c 7f88 d0bd 5514 71be b740 bf3d
00000160: 3151 f23d 83e6 adbd ad37 563e 6ecc a53d
00000170: 006b 5cbe 72b3 78be 46a4 313d 62ed 473e

net.fc_nn.fc_in.weight f4 [49, 33]
0.033821043 -0.11385871 0.19497833 -0.018714108 -0.21157247 0.093260184 -0.14914559 -0.15170905
-0.10265244 -0.034035217 0.11780231 0.084403545 0.17713721 -0.2586867 -0.19085181 0.18552364
0.0035628946 0.1413337 -0.22212264 -0.07192169 0.10356071 -0.091650195 0.041619916 -0.07234806
-0.21054809 0.19799905 -0.04533303 0.058699626 0.059726648 0.13705733 -0.03677726 0.07984496
0.09285899 0.016350405 0.072616264 -0.034521207 0.008667632 -0.06657136 -0.087543674 0.055813536
0.16526097 -0.16600648 -0.21200746 0.112912945 0.14703295 -0.16443352 -0.09839149 -0.06899772
0.039818864 0.015039106 -0.048255626 0.022236213 0.061429746 -0.18197344 0.050566472 -0.10759979
0.051602345 0.037108112 0.06945419 0.24528998 0.017894968 -0.2164346 -0.14181274 0.035997692
-0.095757715 -0.14260602 -0.09760904 0.08798501 -0.03182091 -0.07754447 0.0111435065 -0.11525931
-0.07447451 0.06091609 -0.17286377 -0.06324362 -0.063590705 -0.108788624 -0.092197016 -0.025820559
-0.032685082 0.1454643 0.1822063 0.034700822 0.09279457 -0.18473573 -0.031260785 -0.17757788
0.11156155 -0.10427028 0.043020543 -0.05462521 0.056085266 -0.029371697 -0.09490362 0.091768205
-0.11506011 0.17808025 -0.04063442 0.1336176 -0.16280961 0.027225709 -0.005902062 0.09810546
0.02438935 -0.034635156 0.019418418 0.14074823 -0.04593362 0.14564686 -0.05614348 0.1463595
0.104595326 0.10343233 -0.08069582 0.09028618 -0.015694218 -0.12204452 -0.082951516 -0.108797714
0.0044127153 -0.010607663 0.02493315 0.07329905 -0.11254117 0.08902428 -0.0990284 -0.003926336
-0.19571635 0.090789445 0.100792594 -0.16628516 -0.06913655 0.08380153 0.013852829 0.043966424
-0.064555004 -0.08946857 0.13961715 -0.048547156 0.048266303 -0.14779021 0.15803438 0.13148303
-0.10732358 0.17890891 0.08153073 -0.05668447 -0.181928 0.10288839 0.13284367 0.016262904
0.0463101 -0.12455138 -0.20956133 0.040248018 -0.11744701 -0.13348006 0.20042995 -0.0044308794
-0.23030798 -0.21692845 0.0031545206 0.084972195 -0.24689135 0.04277245 0.2138248 0.14937325
0.11397325 -0.22424008 0.016065037 -0.025384841 -0.13953777 -0.13761938 0.15261725 -0.13427812
-0.03855173 0.19975795 -0.045399234 0.077744074 -0.021485608 0.04115047 0.19242261 -0.07793328
-0.06225261 0.051732652 0.18225905 0.026064761 0.0060667046 0.050476104 -0.023076432 0.019155866
0.06557023 -0.12702006 0.000111581045 0.21455353 0.04017246 0.19789608 0.03197628 -0.18662493
0.004846746 -0.112740315 0.09106217 -0.014519964 -0.16714656 -0.012584245 0.07074202 -0.09815909
0.15102112 -0.04763858 -0.05515377 0.06631253 -0.031927347 -0.012680753 -0.20548892 0.03834739
-0.0012731184 0.04408617 0.29453322 -0.06362774 0.085081704 0.24979135 -0.028824037 -0.06439963
0.18836991 -0.18849681 -0.108823195 -0.22967516 -0.1600941 -0.15137833 0.06856034 -0.04156644
-0.22982983 -0.16076134 -0.017923752 -0.14905639 0.04903825 -0.09138035 -0.13870572 0.26437038
0.068438336 -0.082368575 -0.10636495 -0.3636021 0.26450455 0.12866236 -0.25773287 -0.21171914
-0.13037156 0.07142514 -0.20049348 -0.032992575 0.05904665 0.24153216 0.0017133763 -0.005791845
00000000: ef87 0a3d c12e e9bd 66a8 473e 544e 99bc
00000010: 74a6 58be 32ff be3d 9fb9 18be 9e59 1bbe
00000020: 713b d2bd 8368 0bbd 5642 f13d c4db ac3d
00000030: 7563 353e 9572 84be a86e 43be e9f9 3d3e
00000040: 747f 693b c8b9 103e 1e74 63be ae4b 93bd
00000050: a317 d43d 19b3 bbbd a579 2a3d 382b 94bd
00000060: eb99 57be 43c0 4a3e 21af 39bd 056f 703d
00000070: eea3 743d c258 0c3e c1a3 16bd c185 a33d
00000080: db2c be3d 49f1 853c d6b7 943d 1c66 0dbd
00000090: af02 0e3c 9156 88bd 194a b3bd bc9c 643d
000000a0: 2c3a 293e 9afd 29be 7c18 59be e73e e73d
000000b0: ce8f 163e 4361 28be 7a81 c9bd ad4e 8dbd
000000c0: 1b19 233d 9566 763c b1a7 45bd b828 b63c
000000d0: c29d 7b3d 3f57 3abe ca1e 4f3d 475d dcbd
000000e0: fb5c 533d adfe 173d 003e 8e3d 4c2d 7b3e
000000f0: 7898 923c 08a1 5dbe 5c37 11be 5172 133d
00000100: 9f1c c4bd 5007 12be 40e7 c7bd 7c31 b43d
00000110: a456 02bd a3cf 9ebd 4193 363c 130d ecbd
00000120: 1886 98bd 2683 793d 3303 31be df85 81bd
00000130: d83b 82bd 92cc debd cad1 bcbd a385 d3bc
00000140: cbe0 05bd 98f4 143e 4a94 3a3e 7322 0e3d
00000150: 140b be3d 5d2b 3dbe 4f0b 00bd fad6 35be
00000160: 627a e43d a88b d5bd 4f36 303d afbe 5fbd
00000170: aab9 653d ea9c f0bc d45c c2bd f8f0 bb3d
00000180: a3a4 ebbd ab5a 363e 4770 26bd 0dd3 083e
00000190: 90b7 26be 7308 df3c 1666 c1bb 84eb c83d
000001a0: 2dcc c73c 98dd 0dbd 6013 9f3c 4e20 103e
000001b0: e424 3cbd 7324 153e b5f6 65bd 44df 153e
000001c0: 1336 d63d 54d4 d33d da43 a5bd f6e7 b83d
000001d0: 2991 80bc 7af2 f9bd 7ce2 a9bd 56d1 debd
000001e0: 8a98 903b c3cb 2dbc 9b40 cc3c d01d 963d
000001f0: fc7b e6bd 5d52 b63d 67cf cabd 7ea8 80bb
00000200: de69 48be d1ef b93d 596c ce3d a846 2abe
00000210: 7797 8dbd 23a0 ab3d faf6 623c 2316 343d
00000220: 6a35 84bd 4c3b b7bd ccf7 0e3e 62d9 46bd
00000230: e3b2 453d 5156 17be c4d3 213e 7da3 063e
00000240: 77cc dbbd e633 373e 95f9 a63d fa2d 68bd
00000250: 554b 3abe 26b7 d23d 2c08 083e c839 853c
00000260: a9af 3d3d cb14 ffbd 3f97 56be 1bdb 243d
00000270: 0f88 f0bd ffae 08be 823d 4d3e e930 91bb
00000280: dbd5 6bbe 7e22 5ebe 13bc 4e3b e705 ae3d
00000290: 16d1 7cbe 2a32 2f3d e3f4 5a3e 4df5 183e
000002a0: cf6a e93d 319f 65be d39a 833c dff3 cfbc
000002b0: fde2 0ebe 18ec 0cbe b247 1c3e 3480 09be
000002c0: 6be8 1dbd 598d 4c3e 8cf4 39bd 4938 9f3d
000002d0: 9602 b0bc 658d 283d 6f0a 453e 7c9b 9fbd
000002e0: 98fc 7ebd 9ee5 533d 1ea2 3a3e c485 d53c
000002f0: 35cb c63b 08c0 4e3d c90a bdbc c3ec 9c3c
00000300: af49 863d 8c11 02be 9e00 ea38 ecb3 5b3e
00000310: e18b 243d 45a5 4a3e 8ff9 023d 9b1a 3fbe
00000320: 74d1 9e3b 65e4 e6bd ce7e ba3d 25e5 6dbc
00000330: 7828 2bbe 262e 4ebc 31e1 903d a207 c9bd
00000340: 48a5 1a3e ac20 43bd ebe8 61bd ddce 873d
00000350: 40c6 02bd efc2 4fbc b06b 52be 2712 1d3d
00000360: c4de a6ba b393 343d 0fcd 963e 434f 82bd
00000370: 513f ae3d 4ec9 7f3e 6320 ecbc f4e3 83bd
00000380: 0be4 403e 4f05 41be b2de debd f72f 6bbe
00000390: b5ef 23be ec02 1bbe 5d69 8c3d 9241 2abd
000003a0: 8358 6bbe 9f9e 24be d5d4 92bc 3da2 18be
000003b0: 55dc 483d 9f25 bbbd df08 0ebe 8e5b 873e
000003c0: 6629 8c3d dbb0 a8bd ded5 d9bd 0e2a babe
000003d0: 246d 873e 11c0 033e 90f5 83be e7cc 58be
000003e0: 1f80 05be 5847 923d 2a4e 4dbe 3923 07bd
000003f0: e6da 713d 3554 773e 5e93 e03a 84c9 bdbb

net.fc_nn.fc_in.bias f4 [49]
-0.099413015 0.054741543 0.025868567 0.25905827 -0.06681127 -0.017000074 0.030379891 -0.11363287
-0.14846621 0.07676899 0.0475427 0.15338334 -0.10150678 -0.14922936 0.1373735 0.17332622
0.034978583 -0.14847799 -0.24685296 -0.12726544 0.28528303 0.2286505 -0.08720284 0.073917456
0.1313599 0.021522319 0.25544882 -0.10351403 -0.07308442 0.10093119 0.08831974 -0.0927422
-0.20865262 0.16415215 0.22462277 -0.040858828 0.053903244 0.21137394 0.11414277 -0.1916949
0.24707086 0.23154676 -0.13957189 0.08458791 0.07717605 0.081255525 0.1486963 -0.016293716
0.15549874
00000000: 0d99 cbbd ab38 603d 51ea d33c 49a3 843e
00000010: 59d4 88bd bd43 8bbc 40df f83c 5ab8 e8bd
00000020: 8707 18be 0f39 9d3d 22bc 423d 8610 1d3e
00000030: c9e2 cfbd 95cf 18be a4ab 0c3e 6e7c 313e
00000040: b445 0f3d 9d0a 18be 06c7 7cbe df51 02be
00000050: 9e10 923e 5b23 6a3e 6797 b2bd 0962 973d
00000060: 3683 063e 934f b03c 30ca 823e 2aff d3bd
00000070: 49ad 95bd 03b5 ce3d fbe0 b43d 9fef bdbd
00000080: 08a9 55be 8017 283e 8303 663e 965b 27bd
00000090: a6c9 5c3d 6972 583e afc3 e93d ab4b 44be
000000a0: 2500 7d3e 981a 6d3e efeb 0ebe 6d3c ad3d
000000b0: 7a0e 9e3d 4c69 a63d d843 183e 667a 85bc
000000c0: 103b 1f3e

net.fc_nn.fc_hidden.0.weight f4 [48, 49]
-0.20309545 -0.11514934 0.22660013 -0.0056019225 -0.09632993 -0.026365407 0.119798444 0.07181584
0.062252633 -0.18689343 -0.15235156 0.0819228 -0.082983755 -0.2589715 0.07468031 -0.043005023
0.02570821 0.09514293 -0.19778758 -0.010555661 0.124538034 0.07625155 0.03565629 0.12206708
0.22127078 -0.02365727 0.011070588 0.12650098 0.19394056 0.12647644 -0.055943083 -0.01340079
-0.21125653 0.094478786 0.32049125 -0.057084948 0.022935612 0.080419384 -0.060902547 -0.14412352
-0.016645111 0.05289299 0.11711103 -0.050048023 -0.104265444 0.08806406 0.047426607 0.09401877
0.0013856575 -0.04557694 -0.090062805 0.22581019 -0.0601789 -0.014831937 0.07961606 0.12530753
0.17777286 0.28056112 0.084531166 -0.21062116 -0.07595363 0.004006053 -0.08241483 0.09854694
-0.023173777 -0.13236503 0.03742917 0.07521881 -0.054219685 0.022631299 -0.124747574 -0.00301416
-0.08627313 0.13796827 0.097071834 0.116411746 -0.039978042 0.060633287 0.11849745 -0.0013624274
0.04372515 -0.08263202 -0.13885884 -0.07917493 0.020315249 -0.02247347 0.02764164 0.042980954
-0.051007714 -0.034768786 -0.029462444 -0.088762656 0.13734543 -0.11361206 0.12176106 0.0586927
0.039380353 0.1750067 0.060502537 -0.046335854 0.01176214 0.042303484 -0.13009973 0.06621467
-0.06901568 -0.09132985 -0.050228328 0.17395096 0.25591713 -0.0950014 0.13199525 0.06977887
-0.09572468 -0.006715226 0.22092368 -0.19356443 0.07551237 0.0866812 0.09703644 -0.1896137
-0.06325798 0.15272725 0.08423709 -0.3314689 0.023409229 -0.11374582 -0.30379283 0.00029561936
0.2827736 -0.03465665 -0.12464197 -0.10598989 -0.0023944872 0.08098345 0.17070545 -0.019772766
-0.09231211 -0.0263659 0.0510091 -0.0082906345 0.072427414 -0.14830622 0.19506969 0.06574938
0.008970285 -0.23742548 0.15667585 -0.051157538 0.011310951 0.094569094 -0.014572437 -0.06872326
-0.22264753 0.13414557 0.05269344 0.25105911 0.000110506124 -0.18477714 0.021390593 0.15088567
-0.16044192 -0.006544252 0.044542737 0.10134383 0.18417093 -0.033493467 0.01973947 0.030867923
0.090897106 -0.14845103 0.12350481 0.04773795 0.006828402 -0.08365683 0.13446195 0.11992669
-0.10331116 -0.021931436 -0.0037744574 -0.12976015 0.06435948 0.08007645 -0.041917086 -0.036207072
0.01673112 -0.06588616 -0.032011695 0.13489535 0.074675225 0.03682335 0.14555585 -0.17926174
-0.07778845 0.14696904 0.087180294 0.20847659 0.06981384 -0.06632313 0.0988178 -0.06309252
0.09866172 -0.24468298 0.13685682 0.1932344 0.29417202 -0.051975563 -0.15085052 0.009540966
0.060526643 -0.13966168 0.1597207 0.03722838 0.044565946 0.08819976 -0.06781112 0.07053911
0.040119562 0.086550646 -0.06679292 -0.09693833 0.100696445 -0.027750269 0.123924136 -0.08185672
0.13552064 -0.069633566 -0.017848313 0.1447461 -0.2613443 -0.028051263 0.10327175 -0.2398337
-0.15634535 0.065855496 0.038773812 0.0795423 0.08396832 0.1622988 0.11588827 0.051790264
-0.19126007 0.031296574 0.1409465 -0.051342856 -0.0054039042 -0.10365818 -0.14659713 -0.0131108165
-0.18873285 0.107881725 -0.07298177 0.122646354 -0.008269384 0.19069973 -0.161177 -0.17252587
00000000: 41f8 4fbe 6bd3 ebbd dd09 683e 5590 b7bb
00000010: a048 c5bd 44fc d7bc e358 f53d 2f14 933d
00000020: 9efc 7e3d fe60 3fbe 0c02 1cbe 24c7 a73d
00000030: 63f3 a9bd ea97 84be fef1 983d 0926 30bd
00000040: 069a d23c 4cda c23d d488 4abe a7f1 2cbc
00000050: cc0d ff3d c629 9c3d 540c 123d 4efe f93d
00000060: cf94 623e e4cc c1bc 6961 353c 7989 013e
00000070: 5b98 463e 0a83 013e 9324 65bd fd8e 5bbc
00000080: a253 58be 187e c13d 6e17 a43e e8d1 69bd
00000090: 77e3 bb3c ebb2 a43d f374 79bd 1e95 13be
000000a0: 545b 88bc 52a6 583d e8d7 ef3d 28ff 4cbd
000000b0: 1f89 d5bd ee5a b43d 6742 423d ea8c c03d
000000c0: f39e b53a e3ae 3abd d972 b8bd c93a 673e
000000d0: 267e 76bd a701 73bc bf0d a33d 9e50 003e
000000e0: 170a 363e b5a5 8f3e ad1e ad3d 13ad 57be
000000f0: 948d 9bbd 3545 833b 1bc9 a8bd fad2 c93d
00000100: efd6 bdbc b38a 07be 544f 193d 520c 9a3d
00000110: 7615 5ebd 4665 b93c a87b ffbd 3789 45bb
00000120: f7af b0bd 8e47 0d3e 99cd c63d 4869 ee3d
00000130: 04c0 23bd 9c5a 783d cbae f23d 7a93 b2ba
00000140: 2519 333d fa3a a9bd 0331 0ebe 7726 a2bd
00000150: 2a6c a63c 481a b8bc b870 e23c cc0c 303d
00000160: 77ed 50bd b769 0ebd 395b f1bc 32c9 b5bd
00000170: 48a4 0c3e 71ad e8bd dd5d f93d c267 703d
00000180: 4b4d 213d f534 333e 82d1 773d aaca 3dbd
00000190: feb5 403c 6b46 2d3d dd38 05be 8f9b 873d
000001a0: 1858 8dbd 250b bbbd 38bc 4dbd 3320 323e
000001b0: 9207 833e 1890 c2bd c329 073e 39e8 8e3d
000001c0: 4d0b c4bd 660b dcbb d139 623e c135 46be
000001d0: 3ba6 9a3d ea85 b13d 0bbb c63d 182a 42be
000001e0: 668d 81bd 8864 1c3e 7f84 ac3d 4bb6 a9be
000001f0: b6c4 bf3c 92f3 e8bd bc8a 9bbe 5cfd 9a39
00000200: b4c7 903e 22f4 0dbd 4a44 ffbd 3a11 d9bd
00000210: d4ec 1cbb a7da a53d 69cd 2e3e 7ffa a1bc
00000220: 220e bdbd 4dfd d7bc ebee 503d 71d5 07bc
00000230: d354 943d 96dd 17be 59c0 473e 9ca7 863d
00000240: 1af8 123c aa1f 73be a26f 203e 918a 51bd
00000250: 9151 393c 71ad c13d 3bc1 6ebc c8be 8cbd
00000260: b7fd 63be 755d 093e 14d5 573d d28a 803e
00000270: 86bf e738 3836 3dbe 533b af3c c681 1a3e
00000280: e34a 24be 2a71 d6bb 7272 363d 5b8d cf3d
00000290: 4e97 3c3e 7230 09bd abb4 a13c bade fc3c
000002a0: 4328 ba3d 8c03 18be 17f0 fc3d de88 433d
000002b0: cac0 df3b 4654 abbd 65b0 093e 209c f53d
000002c0: cd94 d3bd 8ea9 b3bc e35c 77bb d8df 04be
000002d0: e7ce 833d 1fff a33d 40b1 2bbd de4d 14bd
000002e0: b40f 893c 53ef 86bd b21e 03bd 0222 0a3e
000002f0: 53ef 983d 15d4 163d 980c 153e 6490 37be
00000300: 8d4f 9fbd 0d7f 163e 958b b23d e37a 553e
00000310: 8ffa 8e3d 6cd4 87bd fd60 ca3d a736 81bd
00000320: 280f ca3d 2d8e 7abe 3224 0c3e 3ddf 453e
00000330: b79d 963e 54e4 54bd 8f78 1abe b651 1c3c
00000340: c9ea 773d 7903 0fbe d38d 233e c97c 183d
00000350: c88a 363d 13a2 b43d 8ee0 8abd cf76 903d
00000360: 6954 243d 7741 b13d baca 88bd 9a87 c6bd
00000370: f039 ce3d 8854 e3bc f0cb fd3d 7fa4 a7bd
00000380: ecc5 0a3e 0b9c 8ebd a036 92bc 5238 143e
00000390: ecce 85be c3cb e5bc 2480 d33d f796 75be
000003a0: ff18 20be 3fdf 863d 4ad1 1e3d 13e7 a23d
000003b0: 95f7 ab3d a831 263e d456 ed3d 0722 543d
000003c0: aed9 43be d630 003d 4754 103e e34c 52bd
000003d0: 3c13 b1bb bd4a d4bd 8f1d 16be c0ce 56bc
000003e0: 2f43 41be 18f1 dc3d 7777 95bd 032e fb3d
000003f0: 4f7c 07bc ca46 433e 950b 25be 9faa 30be

net.fc_nn.fc_hidden.0.bias f4 [48]
0.057554543 0.121068 0.121520825 0.14558274 0.09620007 -0.13047272 0.051904723 0.18247525
-0.12999946 0.0032062146 0.06949752 -0.10940808 -0.0012446021 0.071978346 0.09579135 0.23654948
0.17421354 0.2287947 0.21494474 0.29245973 0.14843507 0.07833256 0.0045298864 -0.008770391
-0.28617936 -0.07115552 0.14935704 -0.03744915 -0.009709468 0.14783236 0.10197 0.21256714
0.08994394 0.17171775 0.16171005 0.030735597 -0.12969942 -0.15371782 0.22782664 0.16738848
0.14682296 -0.08496201 0.013172967 0.09213231 -0.090920076 -0.00040517552 0.12186257 -0.015383297
00000000: 50be 6b3d 80f2 f73d e9df f83d a413 153e
00000010: 8b04 c53d a49a 05be 0c9a 543d cbda 3a3e
00000020: 941e 05be 5b1f 523b b754 8e3d 5811 e0bd
00000030: eb21 a3ba 6269 933d 412e c43d 073a 723e
00000040: 0965 323e 2849 6a3e 791a 5c3e 48bd 953e
00000050: 5dff 173e d26c a03d 716f 943b b0b1 0fbc
00000060: 1a86 92be fcb9 91bd 0df1 183e 4864 19bd
00000070: 7614 1fbc 5e61 173e a6d5 d03d 33ab 593e
00000080: 8734 b83d c7d6 2f3e 5297 253e 38c9 fb3c
00000090: edcf 04be 3468 1dbe 634b 693e e367 2b3e
000000a0: c258 163e 9000 aebd 6ed3 573c ddaf bc3d
000000b0: 4e34 babd bd6d d4b9 1593 f93d 390a 7cbc

net.fc_nn.fc_hidden.1.weight f4 [40, 48]
0.11461217 0.07890012 -0.033080313 -0.12534463 0.003452114 -0.03613554 -0.002963697 -0.11175953
0.029187849 -0.07628444 -0.14672285 -0.15168928 -0.17842956 -0.106235646 -0.16696896 0.0498199
0.091011494 -0.19378203 -0.12023711 -0.09979593 -0.04430964 0.038823683 0.2555526 -0.03053278
-0.08505666 -0.023021434 -0.026545968 -0.012157395 0.16934094 0.07187376 0.20414147 0.032065555
0.08241323 -0.03887366 -0.074490614 0.058711503 -0.10526122 0.071959704 -0.07151687 0.0897821
-0.23995696 0.051351354 0.1847651 -0.038027238 0.17197096 0.1910836 -0.2770843 -0.06956647
0.0735327 0.23218928 0.08539114 -0.014990558 0.10749477 -0.010735237 0.17674288 -0.091511734
-0.019771878 -0.06378523 -0.09861765 0.06145973 -0.07824543 -0.21401316 -0.22874658 -0.02578998
0.0955647 -0.045632355 0.002940781 -0.11265082 -0.4269503 0.040049963 0.29557675 0.17924087
0.08446604 0.20317788 -0.0015444948 0.0071251737 0.12668909 -0.08064653 0.10498617 -0.05831185
0.18061745 0.030108206 -0.0400903 0.0854427 0.11007439 -0.24038845 -0.0981181 0.06462772
-0.17961003 0.12745573 0.087610215 0.050956372 0.21332704 0.1718569 -0.17807242 -0.049535852
0.16338217 -0.041918114 -0.013042502 -0.033192977 0.025546018 0.11580464 -0.15026464 0.0797435
-0.1951283 -0.03234398 0.065748975 0.0715848 0.08077966 0.022553682 0.10004223 0.076930456
-0.077603124 0.13379386 0.020243546 -0.06762608 0.0024430891 -0.09237941 -0.16264609 -0.10410819
-0.1033127 -0.16121963 0.01574549 0.026557522 -0.21927033 -0.060575563 -0.11013693 -0.090043016
0.046021037 0.059998114 -0.0066495743 -0.02098036 0.015136365 0.0499948 -0.050796144 0.15335168
0.122775786 -0.17329141 -0.18457468 0.075850114 0.036542244 -0.025718218 0.12344772 -0.04758196
0.11009135 0.13888595 -0.04743902 0.033232074 0.055303097 -0.104156666 0.11187666 -0.07476982
-0.008955228 -0.18332124 -0.22339654 0.12393922 0.07802616 -0.17070338 0.05555242 0.15253313
-0.057754155 -0.20845218 -0.16661835 0.1151667 -0.13157372 -0.121173695 0.25360218 0.18683377
-0.15601581 0.22515492 0.08838729 -0.13168383 0.09108878 -0.09139129 0.10269914 0.043623965
0.0013902028 0.09247687 -0.071870655 0.18531941 0.039793294 -0.05795141 -0.031336185 0.13989727
0.00053885335 0.22322719 0.19927315 -0.04324513 0.051810984 -0.071678035 -0.10986919 0.11201309
0.029266467 0.17493233 -0.0012255502 0.040986046 -0.1545482 -0.038567808 0.017839417 0.0969184
0.040678978 0.08821402 -0.15301947 0.04276693 -0.069292985 -0.1853786 -0.20943195 -0.06675911
0.023945091 -0.041719574 -0.0073286537 0.031304624 -0.05270962 -0.047376294 0.2638274 0.05607039
-0.15363117 0.22954234 -0.057911705 -0.21513969 0.058000498 0.06372413 0.0071423706 -0.041113745
0.110455684 -0.087389864 -0.30918783 0.19664162 0.10427773 0.118374 -0.20565458 -0.045201898
-0.08937067 0.06282449 0.15042163 -0.14136715 0.22666568 0.043715354 -0.16842394 -0.056809958
0.12923008 -0.023777917 -0.2357357 -0.0036283985 0.18104598 0.06054021 -0.2323446 0.16062911
-0.20419373 0.030094003 0.103218965 0.16653769 0.030569078 -0.13961388 -0.020574389 0.15806451
00000000: c9b9 ea3d 6396 a13d 397f 07bd 585a 00be
00000010: dd3c 623b dc02 14bd 963a 42bb 2ee2 e4bd
00000020: 5b1b ef3c 043b 9cbd 843e 16be 6f54 1bbe
00000030: 3db6 36be 1392 d9bd e9f9 2abe f40f 4c3d
00000040: 3c64 ba3d cc6e 46be e03e f6bd cf61 ccbd
00000050: 067e 35bd 9505 1f3d cad7 823e e11f fabc
00000060: 3032 aebd 7297 bcbc ee76 d9bc cf2f 47bc
00000070: b667 2d3e 8d32 933d 760a 513e 2c57 033d
00000080: 44c8 a83d fd39 1fbd 898e 98bd 797b 703d
00000090: 3293 d7bd 9c5f 933d 7077 92bd addf b73d
000000a0: 47b7 75be cc55 523d 1033 3d3e 73c2 1bbd
000000b0: 2819 303e 6bab 433e fedd 8dbe de78 8ebd
000000c0: 5098 963d 07c3 6d3e 8de1 ae3d f59a 75bc
000000d0: 3826 dc3d d9e2 2fbc 16fc 343e 816a bbbd
000000e0: a2f8 a1bc d5a1 82bd 0df8 c9bd 33bd 7b3d
000000f0: 243f a0bd 4426 5bbe 8b3c 6abe 8245 d3bc
00000100: 6db7 c33d fee8 3abd 1eba 403b 79b5 e6bd
00000110: 3b99 dabe 6e0b 243d d655 973e eb8a 373e
00000120: 88fc ac3d dd0d 503e a570 caba 4a7a e93b
00000130: c9ba 013e 022a a5bd fd02 d73d 68d8 6ebd
00000140: c8f3 383e 7ca5 f63c ba35 24bd 95fc ae3d
00000150: af6e e13d 6428 76be 24f2 c8bd 8a5b 843d
00000160: b1eb 37be c183 023e fc6c b33d a1b7 503d
00000170: 6772 5a3e 41fb 2f3e 9e58 36be 1be6 4abd
00000180: a84d 273e 54b2 2bbd 38b0 55bc 5cf5 07bd
00000190: e245 d13c fc2a ed3d f9de 19be 8f50 a33d
000001a0: b7cf 47be 1f7b 04bd 66a7 863d 0d9b 923d
000001b0: ce6f a53d 80c2 b83c f1e2 cc3d b78d 9d3d
000001c0: 63ee 9ebd 4201 093e cbd5 a53c 8b7f 8abd
000001d0: 3c1c 203b 6b31 bdbd b28c 26be ad36 d5bd
000001e0: 9c95 d3bd c216 25be b0fc 803c 298f d93c
000001f0: 6788 60be 151e 78bd 798f e1bd 7968 b8bd
00000200: 8e80 3c3d 95c0 753d ace4 d9bb 01df abbc
00000210: 84fe 773c 59c7 4c3d 9e0f 50bd 3908 1d3e
00000220: df71 fb3d 4e73 31be 2501 3dbe 4e57 9b3d
00000230: 52ad 153d 03af d2bc 29d2 fc3d 4de5 42bd
00000240: 9377 e13d 1e38 0e3e 6b4f 42bd 5b1e 083d
00000250: 8085 623d 1750 d5bd 971f e53d eb20 99bd
00000260: f3b8 12bc 90b8 3bbe 10c2 64be d9d3 fd3d
00000270: 2ecc 9f3d decc 2ebe ef8a 633d a531 1c3e
00000280: 9f8f 6cbd 7d74 55be 009e 2abe 85dc eb3d
00000290: 43bb 06be ea29 f8bd 25d8 813e 5a51 3f3e
000002a0: 9cc2 1fbe 038f 663e 6504 b53d 20d8 06be
000002b0: c18c ba3d 5b2b bbbd ed53 d23d 0baf 323d
000002c0: 7737 b63a 8364 bd3d ec30 93bd 5fc4 3d3e
000002d0: 4bfe 223d 755e 6dbd 5f5a 00bd 3b41 0f3e
000002e0: d641 0d3a ab95 643e 430e 4c3e ce21 31bd
000002f0: c137 543d efcb 92bd 1903 e1bd 1e67 e53d
00000300: 3bc0 ef3c 7621 333e a4a2 a0ba fce0 273d
00000310: e241 1ebe 47f9 1dbd f823 923c 277d c63d
00000320: 009f 263d 8da9 b43d 23b1 1cbe 602c 2f3d
00000330: 7be9 8dbd e3d3 3dbe 5475 56be 00b9 88bd
00000340: 7f28 c43c 25e2 2abd 3425 f0bb 4739 003d
00000350: 0be6 57bd a50d 42bd 6314 873e 11aa 653d
00000360: 7d51 1dbe 260d 6b3e d334 6dbd 944d 5cbe
00000370: ee91 6d3d cc81 823d 8c0a ea3b e366 28bd
00000380: 9736 e23d 75f9 b2bd de4d 9ebe 6c5c 493e
00000390: 908f d53d 116e f23d 1d97 52be a025 39bd
000003a0: f807 b7bd 20aa 803d 2108 1a3e 8dc2 10be
000003b0: 0c1b 683e df0e 333d 5377 2cbe 8fb1 68bd
000003c0: e454 043e e8c9 c2bc b364 71be 6dca 6dbb
000003d0: 1e64 393e 03f9 773d beeb 6dbe f57b 243e
000003e0: 2918 51be b387 f63c 7764 d33d db88 2a3e
000003f0: 016c fa3c f1f6 0ebe 9f8b a8bc aadb 213e

net.fc_nn.fc_hidden.1.bias f4 [40]
-0.014731399 -0.11782325 -0.08118877 0.107197195 0.031742945 -0.08564929 0.09624571 0.048375238
-0.058572188 0.14199837 0.11996096 0.17400402 0.15263328 0.024762815 -0.23084258 -0.1016188
-0.07832731 0.11279562 0.28475654 0.04835363 0.041566387 0.1776313 -0.03636511 0.095807165
0.15481853 0.17173971 0.13760985 0.1314901 0.043600146 0.004798771 -0.13508813 -0.11221651
0.119708285 0.069135666 -0.023731643 -0.12990887 0.054806612 -0.015678467 0.122224145 0.11650759
00000000: f75b 71bc 514d f1bd 4c46 a6bd 348a db3d
00000010: e404 023d e568 afbd 791c c53d 1d25 463d
00000020: 64e9 6fbd 0568 113e 17ae f53d 1c2e 323e
00000030: e64b 1c3e 63db ca3c ff61 6cbe 841d d0bd
00000040: 126a a0bd 6401 e73d 9ccb 913e 750e 463d
00000050: 8441 2a3d fbe4 353e 95f3 14bd 8c36 c43d
00000060: c088 1e3e 89dc 2f3e 99e9 0c3e 57a5 063e
00000070: 1196 323d 023f 9d3b 8b54 0abe c5d1 e5bd
00000080: 9e29 f53d 0097 8d3d dd68 c2bc d506 05be
00000090: e67c 603d 2170 80bc a750 fa3d 889b ee3d

net.fc_nn.fc_out.weight f4 [8, 40]
0.22781701 0.14064024 -0.109452195 0.0043242136 0.09103259 0.13256955 0.08310765 0.06211976
-0.05575803 -0.03407372 -0.24333003 0.022072945 0.042121973 -0.06094388 0.07500641 -0.16285887
-0.09777031 0.10406244 -0.19114125 -0.074194096 -0.11168648 -0.111254804 -0.09315542 -0.061533026
0.055955112 0.011064281 0.10069906 -0.0736886 0.07483237 -0.06917481 0.035135604 -0.13320366
0.046727505 -0.11754549 0.12695752 -0.023230707 0.0008350731 0.0071879723 0.011691286 -0.14930704
-0.111831635 0.0478029 -0.06631617 0.037778135 -0.12543322 0.060142703 0.16244617 -0.119476214
-0.046461347 0.14939594 -0.16974434 0.08274371 0.05027983 -0.027812531 0.178299 -0.094649784
0.11640291 0.017957237 -0.041602284 0.10690047 0.1328833 0.08535126 0.0701447 0.09973419
-0.080502965 -0.14170885 -0.015937768 -0.06351034 0.17052718 -0.0077527985 -0.030879147 -0.24108969
0.11509127 -0.10984229 0.05335501 -0.18658552 -0.020335877 -0.1169644 0.1491286 -0.1603691
-0.29643422 -0.28834397 0.24588199 -0.37561667 -0.3442909 0.2389601 0.39005104 -0.48261943
-0.3852868 0.39109436 0.076804906 0.42757207 0.32582 0.42729422 0.13201723 -0.4198222
0.31897798 -0.2959509 0.41420057 0.38903835 0.40849465 0.464676 -0.41289958 -0.28943235
-0.34931543 0.4362594 -0.4003743 -0.39451757 0.30139673 -0.379109 -0.37554213 -0.42119306
0.38816807 -0.3044906 0.346968 -0.4549989 -0.3553172 -0.36138695 0.41842508 -0.31461015
-0.0037853457 -0.06543811 0.053905737 -0.15947461 2.6810814e-05 0.010235806 0.022414355 0.07590779
-0.14714551 0.16993594 -0.29487705 -0.040021196 0.14154764 -0.058643743 0.19674487 -0.25216535
0.01776494 -0.15246853 -0.06288747 0.16961558 0.17569299 -0.06955396 0.035166666 -0.116182685
-0.13529764 0.05853903 -0.0284412 -0.10455813 0.111824505 0.026698798 0.028615007 -0.24167721
-0.011226832 -0.028925007 -0.04919932 -0.023507597 0.08675202 -0.2432381 0.18103564 0.026088178
-0.08120028 -0.050145984 0.08516313 -0.008221229 0.17154665 0.107859105 0.14843757 -0.14059742
-0.08617114 -0.03460207 -0.14181712 0.18625231 0.09013941 0.16004705 0.34230912 -0.14020748
0.19892065 0.05509348 -0.043233942 -0.006949782 -0.08100315 -0.061370693 0.032350935 -0.0688646
-0.13377231 -0.09860348 0.12331075 -0.06871994 -0.044708833 -0.12509504 0.017843265 -0.0063129254
-0.0060083885 -0.09756259 -0.060699906 -0.08603705 0.01866556 0.07723016 0.013527619 -0.0998032
-0.092426196 -0.11111805 0.20244382 -0.21384992 -0.19045922 0.17162111 0.14322749 -0.26168504
-0.21982671 0.26805896 -0.13380185 0.07893573 0.09851713 -0.043316986 0.18570152 -0.1721259
0.26679185 -0.13929981 0.08198939 0.23399681 0.23759785 0.1638965 -0.035505436 -0.17515521
0.04179491 0.20285378 0.018140161 -0.25172827 0.18306486 -0.084635206 -0.16554527 -0.31252316
0.14558285 -0.21533021 0.19419019 -0.11994904 -0.032408986 -0.38385984 0.156768 -0.12782139
0.031378403 0.18461244 0.111393705 0.056037296 0.059518307 0.16376112 -0.19435771 -0.03740739
0.15476432 -0.22107244 -0.013656051 -0.1261662 -0.21516463 -0.041310165 -0.05973223 0.096603304
00000000: dd48 693e ff03 103e 7928 e0bd 22b2 8d3b
00000010: 4b6f ba3d 50c0 073e 5834 aa3d 4a71 7e3d
00000020: 8862 64bd e390 0bbd 822b 79be 52d2 b43c
00000030: 1788 2c3d 4aa0 79bd f69c 993d 7ac4 26be
00000040: cd3b c8bd b01e d53d 88ba 43be 13f3 97bd
00000050: e2bb e4bd 8fd9 e3bd 45c8 bebd 0e0a 7cbd
00000060: 3031 653d f546 353c 4f3b ce3d 0cea 96bd
00000070: b741 993d 86ab 8dbd 5aea 0f3d 8a66 08be
00000080: 5765 3f3d b1bb f0bd 2701 023e 534e bebc
00000090: cfe8 5a3a 1589 eb3b cf8c 3f3c f2e3 18be
000000a0: fc07 e5bd f9cc 433d c6d0 87bd 3fbd 1a3d
000000b0: 9171 00be 3258 763d 4a58 263e f2af f4bd
000000c0: 414e 3ebd 40fb 183e 76d1 2dbe 8975 a93d
000000d0: 39f2 4d3d 1bd7 e3bc 0394 363e bfd7 c1bd
000000e0: a664 ee3d 0e1b 933c 2867 2abd a2ee da3d
000000f0: 8f12 083e a4cc ae3d 06a8 8f3d 7041 cc3d
00000100: bdde a4bd 201c 11be ec8f 82bc b611 82bd
00000110: ad9e 2e3e 300b febb 44f6 fcbc 37e0 76be
00000120: f9b4 eb3d fff4 e0bd c88a 5a3d 4610 3fbe
00000130: 6d97 a6bc 088b efbd 2bb5 183e cc37 24be
00000140: 3ac6 97be d2a1 93be 7dc8 7b3e d450 c0be
00000150: e646 b0be f5b1 743e c5b4 c73e e519 f7be
00000160: 5044 c5be 853d c83e e44b 9d3d baea da3e
00000170: e1d1 a63e 4fc6 da3e 862f 073e eff2 d6be
00000180: 1551 a33e e086 97be 1912 d43e 0930 c73e
00000190: 3626 d13e 03ea ed3e 9367 d3be 7a30 94be
000001a0: 79d9 b2be 645d df3e dcfd ccbe 35fe c9be
000001b0: ac50 9a3e 931a c2be 0f47 c0be 9ea6 d7be
000001c0: f7bd c63e 31e6 9bbe caa5 b13e 9ef5 e8be
000001d0: 23ec b5be b607 b9be d03b d63e 9514 a1be
000001e0: 9013 78bb 6a04 86bd 43cc 5c3d 504d 23be
000001f0: c9e7 e037 15b4 273c 4f9e b73c 8b75 9b3d
00000200: 50ad 16be b003 2e3e 20fa 96be 44ed 23bd
00000210: ddf1 103e 6c34 70bd 7d77 493e d11b 81be
00000220: c887 913c b620 1cbe 25cb 80bd b5af 2d3e
00000230: dde8 333e 4e72 8ebd ec0a 103d 30f1 edbd
00000240: 778b 0abe 9fc6 6f3d 85fd e8bc 9322 d6bd
00000250: 3f04 e53d 70b7 da3c 056a ea3c 3b7a 77be
00000260: bff0 37bc 23f4 ecbc 3a85 49bd 0193 c0bc
00000270: 0bab b13d 6913 79be 6861 393e e0b6 d53c
00000280: 554c a6bd e065 4dbd 026a ae3d 55b2 06bc
00000290: eda9 2f3e 3ce5 dc3d 0500 183e c5f8 0fbe
000002a0: 7f7a b0bd e6ba 0dbd 8238 11be edb8 3e3e
000002b0: 039b b83d 60e3 233e 2443 af3e 8d92 0fbe
000002c0: dbb1 4b3e b3a9 613d 1316 31bd ffba e3bb
000002d0: fbe4 a5bd d65f 7bbd 6a82 043d e208 8dbd
000002e0: 9cfb 08be 9ff0 c9bd 598a fc3d 0abd 8cbd
000002f0: 9c20 37bd ea18 00be 0a2c 923c a8dc cebb
00000300: 04e2 c4bb e5ce c7bd 77a0 78bd 3134 b0bd
00000310: 84e8 983c d92a 9e3d f2a2 5d3c 9f65 ccbd
00000320: f249 bdbd dc91 e3bd 6f4d 4f3e 79fb 5abe
00000330: be07 43be 72bd 2f3e 3aaa 123e 95fb 85be
00000340: 411a 61be 063f 893e 5a03 09be 0ea9 a13d
00000350: 59c3 c93d 276d 31bd 8a28 3e3e c641 30be
00000360: f198 883e 9ca4 0ebe 0eea a73d dc9c 6f3e
00000370: da4c 733e 7cd4 273e 266e 11bd e35b 33be
00000380: 2431 2b3d e7b8 4f3e ad9a 943c 87e2 80be
00000390: 5b75 3b3e 3955 adbd b384 29be 0903 a0be
000003a0: ac13 153e 867f 5cbe cbd9 463e d8a7 f5bd
000003b0: 49bf 04bd 4789 c4be ca87 203e 9ce3 02be
000003c0: a486 003d 0b0b 3d3e 6222 e43d 5d87 653d
000003d0: 78c9 733d ffb0 273e b505 47be 7e38 19bd
000003e0: 8a7a 1e3e d060 62be a1bd 5fbc b631 01be
000003f0: 1e54 5cbe d934 29bd c8a9 74bd f4d7 c53d

net.fc_nn.fc_out.bias f4 [8]
-0.26687154 -0.27710658 0.3940117 -0.1227994 -0.26907334 -0.14921343 -0.027263869 -0.5418127
00000000: 63a3 88be eae0 8dbe e7bb c93e 407e fbbd
00000010: fbc3 89be 68cb 18be 7a58 dfbc 3db4 0abf
