L96P10/results/nets/net_mytrainedmodelEnergyScore.pth (torch, 45850 bytes, 12 tensors)

net.gru.weight_ih_l0 f4 [96, 8]
00000000: a137 e63e 733d 093e 7ca6 9d3d d488 d43e
00000010: e925 043f 3698 b33e cafa 5d3e 86b4 783e
00000020: cf77 04bf 9ca2 4dbf b6e7 8cbd ad40 153d
00000030: 04d3 1bbf a04a f8be 9c2b df3c 7380 46be
00000040: e34b b3be 3549 08bf 944c 4e3f 205d 833d
00000050: 49c0 8abe c797 073e 78f7 063f f829 143e
00000060: f6f3 96bb 844e 0cbd 9cab fb3e ce4c 6b3e
00000070: 34ad 023e a154 9c3e 9e94 393e 7db7 9e3e
00000080: 2c24 c8be 7acc 943e de1f febc 31fe d0be
00000090: 5d78 57bf fd03 90be b410 11be ff30 72be
000000a0: 04a9 95be c294 fabd 4af8 babe 3a6b 71be
000000b0: 069c 26bd 074d 043e 3bb3 f2bd 8c52 32bf
000000c0: 2848 2fbe 6dc1 e5be 4410 b7be 9ec3 16bf
000000d0: 924d d33c 0be1 17bf d050 5bbe 45e9 8abe
000000e0: 205f d83e 2bf3 7a3e 3d61 f4bd 0a4c 113e
000000f0: dff3 8f3e 7bb8 71bd f9ce afbe 1d40 54be
00000100: 4ccf 263e b823 d93b a343 0b3f d10f d53e
00000110: f3e0 703e 3da5 bc3e 1457 093f 9c19 083f
00000120: e993 7a3e 770b e03e d50f 53bc 9bea b13e
00000130: 9f8f 6d3e 39b3 55bd 63c0 473e 3f4f a43e
00000140: 1cae e5be fb3a f0be 40c2 2ebe a0d5 ec3e
00000150: 849e 7d3e af6f 17be 28fe 47bc 8c5d 463e
00000160: b1ff 26be ae62 5e3e 38ab 0a3c ae62 75bd
00000170: b422 fe3d 5221 9abe f500 52bf 39e2 81bd
00000180: 8a42 c33e 1df8 e9be 5d8a 79bd 17da 563f
00000190: de1e 533e e719 15bf cdf4 3fbf 5808 ea3e
000001a0: 58c6 96be f2db 533e bf96 adbf 89fa 3fbf
000001b0: 5651 56bf 0cbe 063f b98a 0cbf 8d5a 57bf
000001c0: 3827 f0be 7c01 dbbe 2961 a3be 5a6f 78be
000001d0: a365 a9be 21a1 9ebe 2f03 65bd 0167 413d
000001e0: ea87 57be dd84 0e3f 56a0 853e 209b 8cbf
000001f0: 4212 dcbe 9a7f 5fbd 4a7b ee3e 5ddb 25bf
00000200: 9dbf 043f 2355 123f 11ce 363e a1a8 143e
00000210: 737b 2a3e eba1 853e 90de 553e d091 923e
00000220: 5951 c1be 8025 f1bc 73ec 5bbe 1132 d6be
00000230: dbf1 89be c3c5 763c f0fa dabe 5b18 febe
00000240: a241 2fbe 3903 893f 0b36 d2be b0ca 6dbf
00000250: c12a cebe 6b3e 4d3e 17f8 3cbf 88c8 25bf
00000260: 2d3a b63e c8fe 1c3d 74d7 c13e 687e e53d
00000270: 0642 a63e 8cf6 323e 8550 093e a5d0 a23e
00000280: 739e 97be 5543 7ebb 3676 2c3d f6a6 883d
00000290: baf8 063e 5879 ae3d 9e48 913e 7188 453e
000002a0: ae2b 963e e828 3dbe 7f4f a53e a74b eabc
000002b0: 3d94 603d a2f3 98bd c533 be3d 07e0 83bd
000002c0: 4e12 e6bd 48e4 afbe 08e1 9a3d 9c68 943d
000002d0: 0742 1d3e 5293 77bd 461d 1bbe c50f 813e
000002e0: b67d 00bf beef c53d 9feb 253f b202 893f
000002f0: a67c b3be a1ee cf3e 4c62 893f 3681 bc3e
00000300: 49b8 23bf 2111 10bf 2c01 a3bd ffa2 023f
00000310: aa38 1cbe 1338 cdbe 8a11 8f3e 16e4 c23e
00000320: fe87 e63e d2a1 143e 834e 4e3e f475 0c3f
00000330: e37e 103f cc6a 893e 8e34 f43e 96d2 0f3f
00000340: 84ce ffbe 4e05 ec3e fd3a 773f 7261 2b3f
00000350: eca8 5c3e d0d9 c6bd d55c a5be 1d0d 73bf
00000360: d351 ed3d 78cd bbbd 7c85 8f3e 07a7 2a3f
00000370: c4d3 dc3e 40c8 283e b947 c3bc 1e83 e43d
00000380: d99a 04be c113 3bbe b20f 61bd 239c 9bbe
00000390: d23e b0be 836c 87be 8e5f 07bf 6e65 41bd
000003a0: ec06 3abd 56fc 3bbd 6302 203e e39c 763e
000003b0: 261a 0bbe 75ed 8bbe e0e8 6ebe 9e1a e43d
000003c0: f244 eb3e 7f74 973d 07a3 42bf acb0 70be
000003d0: 8e17 1e3d 29d4 863d e9c8 a03e 56ad 1abf
000003e0: 7dcb f63e f1f6 fa3d 18a4 0c3d 4bc8 32be
000003f0: 89f8 663e 240f 64bd 635b 6dbe 93b5 d2be
0.44964316 0.13402347 0.0769777 0.41510642 0.51620346 0.35077065 0.216777 0.24287614
-0.51745313 -0.8032625 -0.06880133 0.036438633 -0.6086886 -0.48494434 0.027242474 -0.19384937
-0.35018834 -0.53236705 0.805856 0.064142466 -0.27099827 0.13241492 0.5272136 0.14469135
-0.004606719 -0.034254566 0.49154365 0.22978517 0.12761384 0.30533317 0.18123099 0.30999365
-0.39090097 0.29062253 -0.031021055 -0.40818933 -0.84168035 -0.28128043 -0.14166528 -0.23651503
-0.2923051 -0.122354046 -0.36517555 -0.2357606 -0.04067614 0.12920009 -0.11850592 -0.69657207
-0.17117369 -0.44874135 -0.35754597 -0.5889224 0.025793824 -0.59327763 -0.21417546 -0.27131096
0.42260075 0.24506824 -0.11932609 0.14189163 0.28115746 -0.059013825 -0.34337595 -0.20727582
0.16290015 0.0066265725 0.5440008 0.4161363 0.23523311 0.36844817 0.53648496 0.53164077
0.24470486 0.43758747 -0.012882193 0.34749302 0.23199318 -0.052172873 0.19506983 0.3209171
-0.44859397 -0.4692 -0.17066288 0.46256733 0.247675 -0.14788698 -0.012206592 0.19371623
-0.16308476 0.21717331 0.008463673 -0.05990856 0.12408963 -0.30103546 -0.8203271 -0.06341977
0.38136703 -0.45697108 -0.06092297 0.8392653 0.20617244 -0.5824265 -0.7498291 0.4570949
-0.294482 0.20689371 -1.3561629 -0.7499166 -0.8371786 0.5263374 -0.54899174 -0.84122545
-0.46904922 -0.4277457 -0.31910065 -0.24261227 -0.33085355 -0.30982307 -0.05591124 0.047217373
-0.21047941 0.55671483 0.2609889 -1.098484 -0.4298268 -0.05456505 0.46578437 -0.64787847
0.5185488 0.5716116 0.17852046 0.14517452 0.16648655 0.26100096 0.20885682 0.2862687
-0.37757376 -0.029436827 -0.21476917 -0.41835073 -0.26942334 0.0150617985 -0.42769575 -0.49627957
-0.1711488 1.0704108 -0.41056857 -0.928874 -0.40266994 0.20043342 -0.73816055 -0.6475911
0.3559126 0.038328916 0.3785969 0.11205751 0.32472247 0.17476863 0.13409622 0.31799808
-0.29613075 -0.0038797457 0.042104922 0.0667247 0.13180819 0.08519238 0.28375715 0.1929033
0.293302 -0.18472636 0.32287213 -0.028600527 0.05482887 -0.07468344 0.09287218 -0.06439214
-0.1123396 -0.34353852 0.075624526 0.07246515 0.15357219 -0.06044323 -0.15147886 0.25207344
-0.5019182 0.09664868 0.64812654 1.0703948 -0.35056037 0.40611747 1.0733123 0.3681733
-0.6395307 -0.56276137 -0.07959208 0.5102996 -0.1525599 -0.40081844 0.2794307 0.3806464
0.4502563 0.14514855 0.20147137 0.5486748 0.56443614 0.26839292 0.47696346 0.56180704
-0.49962246 0.46097797 0.96574384 0.66945565 0.21548814 -0.09709513 -0.32297388 -0.94941884
0.11587872 -0.091700494 0.28031528 0.66661114 0.43130314 0.1648264 -0.023837911 0.11157821
-0.12949695 -0.18269254 -0.05494661 -0.3039256 -0.34422928 -0.26449975 -0.5288018 -0.04721587
-0.045416757 -0.045894943 0.1562591 0.24083285 -0.13584194 -0.27329603 -0.23331022 0.11137889
0.4595104 0.07395267 -0.7603001 -0.23504895 0.038596682 0.06583435 0.31403282 -0.6042074
0.48202124 0.122541316 0.03433618 -0.17459218 0.22555746 -0.0556785 -0.23179393 -0.41154155

net.gru.weight_hh_l0 f4 [96, 32]
00000000: bc2a 053f f558 833e cff1 ccbe c318 00bf
00000010: 5f64 2f3e 61a5 e0be 3d86 8d3e 42a7 7d3e
00000020: 84e6 933e 0ce4 ba3e 9199 f9be 29cb 0b3e
00000030: a031 dab9 0a8e 01bf 80dc d2bd 34b9 48bd
00000040: 2a0c b83e 8e18 5d3f 632b ecbe 7d7a 6cbe
00000050: df93 41be 116f de3e 157d 65bd 6275 85bd
00000060: 7651 3bbe 631b 29be 468c 743e b4b0 a9bd
00000070: f9d4 a6bd 5a72 b23d c2ec b93e 6e00 a9be
00000080: a91b 15be 4990 61be 2819 bfbc f6b2 f2bd
00000090: 6f4c dabe 988c f1be 62d1 d23e 7810 e1be
000000a0: 7777 49bf d51c 40be 7b26 093f 7387 45be
000000b0: d999 0a3e 5fff 1bbf 5b57 8d3e 4661 0f3f
000000c0: 2249 c8be d62d d8be a53b 843e a682 a5be
000000d0: 0512 e93d 0362 0cbc ea3a f93e 0914 023e
000000e0: 6b38 853d 04a4 26bf f564 94be be46 283f
000000f0: 63c7 893e 61cd fabc 8955 8a3f c682 e53e
00000100: 5e4d 04bf c40a b7be d41c 183f 55d0 61bd
00000110: 9664 243e 45fb 7d3e 3672 a83e 5f11 8dbc
00000120: 82ae 82bd feab ee3d 171b ef3e 4c43 da3e
00000130: 4aa3 463e 0c12 1bbe 49e3 dabe 37d0 02bf
00000140: 7273 333e 3526 7fbd 3c0e dd3e 7933 a2be
00000150: 033d 3ebe 737f 923e 071b 0abf 0014 c03d
00000160: c9ec 58be 40b8 a9be 457f 823e cac9 edbd
00000170: 9766 a03d c6d7 13be 2a95 b83e 87aa b0be
00000180: 3848 ae3d ba5d 493e 10a0 033f ff16 2fbf
00000190: 63bc 9b3d 2c37 9bbe 37b1 113f 3443 58be
000001a0: 289d ba3d eeb4 903e 6744 7dbf 5a5d 1a3f
000001b0: 719e 52bd 500b 73be b5c6 f2be 8552 0bbf
000001c0: ebf4 013f 3092 ac3c 8a9d 5ebf 9f81 22bf
000001d0: 81fd 983f 3f9f 1e3e 6198 45be 0e98 c73d
000001e0: 9b81 ff3e 73d0 1dbf 393e 9b3e a265 d13d
000001f0: 4a32 353e 4c8b 1d3f 8b21 c2bd 16b6 323e
00000200: 5435 ecbd 43ab 363e 849b 61bd fcac 61bf
00000210: da3c 833e c870 b23e 148e fa3e 0687 c03d
00000220: 3b20 ad3e 65eb b9bd af31 3d3e 8e00 853d
00000230: 01bf 833e 2e4f d43d 219f 833c 8cc6 4c3e
00000240: 1b4b 603e cbac 943e 3710 c3be 2279 94be
00000250: fd2e 153e 2774 fe3e 2c4a 33be 9247 913e
00000260: 50e9 043f bca5 26bf ba0a 063f 8dd1 d0bd
00000270: 9391 8f3e 453d 83be 333d af3c f5b0 06bf
00000280: 82a4 103f 17b1 ee3e 9f40 34bf 4491 e1be
00000290: e6af 30bf c2c6 a5be 92f5 ea3e a93d f33d
000002a0: 36ee bfbd 4a03 a7be b0e9 8dbe 5c9a 89be
000002b0: df2d febd 4de0 ef3e 23ee b63d 53c5 f5bd
000002c0: 8dba 3dbf e1e3 1abe f297 1a3d bf90 d53e
000002d0: 922c b23d 6a28 143f 26f7 bd3e 2522 0dbf
000002e0: c97f c23d 843e afbe 7ef4 873f 4271 98bc
000002f0: 2ec2 c3bc 78a9 55bf 6d2e d43b 2862 383e
00000300: 7958 ce3b 99e9 e93e 9b0d f8bc 8ee7 b8be
00000310: 7ce9 d0be 3392 3d3e 67f8 6f3d 48ed f33c
00000320: a02a abbe 0b3b 07bf 8b5e 953e 923c 35be
00000330: 53e3 6cbe 94eb 943e 45db ad3e 0868 94bd
00000340: 1fef 9dbe 379c c0be 0c87 b93e cee4 edbe
00000350: 5b1a 25be 3c71 07bf cfab 1a3f dbe2 e4be
00000360: 6b9c a8be 2908 80be 83bf b7be 7030 86be
00000370: e2fa d83e e772 c2bd 1198 1c3e b2e1 e23e
00000380: afb3 f5bc c21b 253e e6c6 ae3d e806 56be
00000390: 596d 92be 3af2 153e acee eb3d 2451 673e
000003a0: b518 39bd 4b46 113e 2373 fa3d 075b e1bb
000003b0: 0e23 ed3c 7ec8 013e 0a5c 7f3e 29d1 503f
000003c0: 45ef f9be 8352 aebe e4eb 4ebf 3528 b93e
000003d0: dc1e 04be 359e 093e 5f86 f03e 575e c13e
000003e0: c967 923e dd67 c63d 3d62 fe3e 0148 acbe
000003f0: aa77 05be 1f24 57be 1d19 abbd db77 9c3e
0.5201833 0.25653806 -0.40028235 -0.50037783 0.17128132 -0.43876174 0.27641478 0.24770835
0.28886807 0.3650211 -0.48749974 0.13651718 -0.00041617174 -0.5060736 -0.10295963 -0.04900475
0.3594678 0.8636559 -0.4612685 -0.230936 -0.18904065 0.43444112 -0.05602749 -0.065165296
-0.18292794 -0.16514353 0.23881635 -0.082856566 -0.0814609 0.08713217 0.36313444 -0.3300814
-0.14561333 -0.22027697 -0.023327425 -0.1185054 -0.4263644 -0.47177577 0.4117537 -0.43957877
-0.78697914 -0.18760999 0.5357434 -0.19289951 0.1353525 -0.6093654 0.2760571 0.560078
-0.39118296 -0.4222247 0.25826755 -0.3232624 0.1138039 -0.00856829 0.4867776 0.12702955
0.065049015 -0.6509402 -0.28983274 0.65732944 0.26909932 -0.03061551 1.0807353 0.44826335
-0.5168055 -0.357504 0.5941899 -0.05513032 0.16053995 0.24802883 0.32899636 -0.017220197
-0.06380941 0.11653899 0.46700355 0.42629468 0.19398227 -0.15143603 -0.4275153 -0.5109896
0.17524508 -0.062292296 0.43174922 -0.31679896 -0.18577962 0.2861286 -0.5394749 0.09378815
-0.21184076 -0.33148384 0.25487724 -0.11610754 0.078320675 -0.1443778 0.36051303 -0.34505102
0.085098684 0.1966466 0.5141611 -0.68394464 0.07604291 -0.3031553 0.56911033 -0.21119386
0.091120064 0.28263038 -0.989325 0.60298693 -0.051420633 -0.23734784 -0.47417226 -0.5442279
0.5076434 0.021065801 -0.86959136 -0.63479036 1.1952363 0.15490435 -0.19296409 0.09745799
0.4990357 -0.61646193 0.3032091 0.10224463 0.17694965 0.61540675 -0.09479054 0.17452273
-0.11533609 0.17838769 -0.055079952 -0.8815458 0.25632364 0.3485167 0.48936522 0.09400754
0.33813652 -0.09078101 0.18475984 0.064942464 0.25731662 0.10366665 0.01606709 0.19997615
0.2190365 0.2903808 -0.38098308 -0.28998667 0.14568706 0.49697992 -0.17508763 0.28374916
0.51918507 -0.6509664 0.5236012 -0.10196219 0.28040752 -0.25632682 0.021391487 -0.52613765
0.5650102 0.46619484 -0.70411104 -0.4405614 -0.690184 -0.32378203 0.4589048 0.11876995
-0.09371607 -0.32619697 -0.27717352 -0.2687558 -0.12411093 0.46850815 0.0893214 -0.12000527
-0.7411278 -0.15125991 0.037742563 0.41711995 0.08699907 0.57874167 0.37102622 -0.55130225
0.09497029 -0.34227383 1.0621488 -0.018608693 -0.023896303 -0.83461714 0.006475261 0.18006194
0.006297168 0.45686033 -0.030279925 -0.36114162 -0.40803134 0.18512802 0.058586504 0.02977623
-0.33430958 -0.5282447 0.29173693 -0.17698887 -0.23133592 0.29085982 0.33956352 -0.07246405
-0.30846497 -0.37619182 0.36235845 -0.46463627 -0.16123335 -0.52907157 0.6041841 -0.44704327
-0.32931837 -0.25006226 -0.358883 -0.2620883 0.42378908 -0.09494572 0.15292384 0.44312817
-0.029992906 0.1612387 0.085340306 -0.20901072 -0.2859905 0.14643183 0.115201324 0.22589546
-0.045189578 0.14186971 0.12228992 -0.0068773064 0.02894738 0.12674138 0.24937454 0.81569153
-0.4881536 -0.34047326 -0.8082869 0.36163488 -0.12902397 0.13439257 0.46977517 0.37767288
0.28594807 0.09687779 0.49684325 -0.33648685 -0.1303393 -0.21009873 -0.08354399 0.30560192

net.gru.bias_ih_l0 f4 [96]
00000000: cc99 b4bc 8d9d d53e 95ea b73e 6e52 f13e
00000010: 501f 803e 455c 64bf 5a2e 323e 9896 cebd
00000020: 32f9 3c3d c5a9 7f3f add3 ca3c 4072 96be
00000030: cc4a 9ebd 5887 5abe 1185 9d3d 74ec 01bf
00000040: 8b52 0b3e fce5 fd3d dac2 273c 4f53 0ebd
00000050: 5e11 a03e 2aea 323d 8cd6 0dbe 5773 0d3f
00000060: 383b a2bc 1de5 a4bd 8892 ba3e 7751 323e
00000070: d854 4bbe 5391 143f 6673 7e3f 12bb 69be
00000080: b812 ed3d 1e10 053e d4be 293f b88e dc3d
00000090: 05d3 18be 63d9 913e c703 5e3e 24a1 0fbe
000000a0: 7f0f 433f 3a17 89bf 5f48 d0be 8350 58bf
000000b0: e17a fa3d 7e61 0d3f c05d 4ebf a449 a3be
000000c0: 5382 7fbd 32a7 a93e c677 e2be fc32 ddbe
000000d0: d0e0 ed3e d5b9 163e 11aa 53be 18ff b1be
000000e0: 4848 693f 1f81 223f eef6 d73e aa3c 80be
000000f0: 33ca b33f 7610 83be 45d7 523e 66f8 a43e
00000100: 3e83 dcbd 34c8 47bf 9776 553e 4e9c b23e
00000110: fc83 763d 2e8b 4cbe 0d31 e0bd 9704 ed3d
00000120: 08c2 b0be 1f51 d13e c728 b7bd 8c9c 3d3f
00000130: 8adb 2abf c28a 73bf 2d58 07bf 3542 01be
00000140: 8198 40be 1f5d 0bbe 1de2 093e b93c 933e
00000150: b24e 1ebe 1219 2fbe 760a 68bf dcbb 10be
00000160: 9e3b f5be 3fbb 6c3e 8929 60be e68a 823e
00000170: 0482 f0be db6d 883d ecf6 343e df93 803e
-0.022045992 0.41721764 0.3592116 0.471332 0.2502389 -0.8920329 0.17400494 -0.10087317
0.04613609 0.9986842 0.024759138 -0.2938404 -0.0772911 -0.21340692 0.07691396 -0.50751424
0.13605706 0.12397382 0.010239327 -0.034747418 0.3126325 0.043680348 -0.13851374 0.5525412
-0.019803628 -0.080515124 0.3643992 0.17413889 -0.19856584 0.5803425 0.99394834 -0.22825268
0.11575836 0.1299443 0.66306806 0.10769409 -0.14924248 0.28486165 0.21681128 -0.14026314
0.7619552 -1.0710213 -0.40680215 -0.8449785 0.122304685 0.55226886 -0.806118 -0.3189212
-0.062380146 0.33135372 -0.44232005 -0.4320296 0.4646058 0.14719327 -0.20670344 -0.34764934
0.9112592 0.63478273 0.4218058 -0.25046283 1.4046081 -0.25598496 0.20589931 0.32220763
-0.1076722 -0.7803986 0.2084602 0.34884876 0.060184464 -0.19974968 -0.10946856 0.11573141
-0.34523034 0.40882203 -0.089433245 0.74066997 -0.6674124 -0.951336 -0.5286892 -0.12622912
-0.18808176 -0.13609742 0.13465162 0.28757265 -0.15459707 -0.17099407 -0.9064096 -0.14134163
-0.47897047 0.23118304 -0.21890844 0.25496596 -0.46974194 0.06661578 0.17672318 0.25112817

net.gru.bias_hh_l0 f4 [96]
00000000: 53da 47bc 98eb 2a3e 7730 9e3e 4b60 ab3e
00000010: b96b a53e 939e 60bf 534a 7dbd c996 debb
00000020: fb85 da3d 494a 7f3f fbaf 423d 7680 a1be
00000030: dcc0 b3bb d53b c2be 8391 60be 8477 9bbe
00000040: d554 813e 15aa e93d fa9c 363c bde8 343e
00000050: e688 943e 571b 45be 1087 13bd 23ae 8c3e
00000060: 8325 333e daaf 23be d6a4 e03e 62a3 653b
00000070: 650f 03be c6c9 063f 650c 893f cede f3be
00000080: 4904 223d b432 4f3e 80fb 483f 3af9 093e
00000090: 1a0b 75be 0247 3a3e 9b42 8e3e 8bcd 233e
000000a0: 8798 503f eac6 89bf 6766 e6be 9edc 40bf
000000b0: 4cb6 f3bd 58db 1c3f 4d2d 34bf d6ca 2fbe
000000c0: 9b3a 30be b5e6 ba3d 8b6d 18bf d3b2 0cbf
000000d0: 88b2 053f 37ef 8f3e 37e7 b3be e711 21bf
000000e0: 3cd8 593f ebfa d43e f825 c33e 16e3 9fbe
000000f0: 164b af3f 449b 93bd 4f4f 8d3d 2ecf 293f
00000100: 2b86 00be af80 d2be f5be 993b ada6 a53e
00000110: 3e7c bd3d a6a4 89be d944 b4be e89c c1be
00000120: 9b15 57ba 8ea0 963f 6ce6 393e 1fcb 143e
00000130: 1883 7abd 1f1c e0bd 0529 bcbe 52e3 e73d
00000140: 5edb 2cbe 9763 f93d d5aa a7bd f3d7 a13e
00000150: 1323 31bd 2bed 173e d5b6 543e 0919 ca3d
00000160: 8e1a acbe b374 0e3d 7928 df3e 5878 0a3f
00000170: 983a cebe 4678 783d 9089 6abe 63da 573e
-0.012198049 0.16691434 0.3089635 0.33471903 0.32308748 -0.87741965 -0.06183846 -0.0067928773
0.10670086 0.99722725 0.04753111 -0.3154332 -0.005485637 -0.37936273 -0.21930508 -0.3036462
0.25260034 0.11409394 0.011145825 0.17666908 0.29010695 -0.1924871 -0.036017478 0.27476606
0.17494778 -0.15985051 0.4387576 0.003504001 -0.12798841 0.5265163 1.0706908 -0.47630924
0.039554868 0.20234185 0.7850876 0.13473979 -0.23930016 0.1819115 0.2778519 0.15996377
0.8148274 -1.0763829 -0.45000002 -0.75336635 -0.11900005 0.6127219 -0.70381624 -0.1716722
-0.17209856 0.09126035 -0.5954215 -0.54960364 0.5222554 0.28112194 -0.3513734 -0.6291794
0.8509557 0.41597685 0.38114905 -0.3122794 1.369479 -0.07207349 0.068998925 0.66331756
-0.12551181 -0.41113803 0.0046919533 0.32353726 0.09252213 -0.2688343 -0.35208777 -0.37815022
-0.00082048186 1.1767747 0.18154305 0.1453061 -0.061160177 -0.10942864 -0.36750045 0.11322655
-0.16880557 0.121771984 -0.081868805 0.3161007 -0.04324634 0.14836566 0.2077287 0.09868056
-0.3361401 0.03477926 0.43585566 0.5408988 -0.40279078 0.060661577 -0.22904038 0.21079402

net.fc_nn.fc_in.weight f4 [49, 33]
00000000: 5c6b ee3c ffe0 a53e ea08 7dbd 0174 65bd
00000010: f5e2 953c ef06 523c e3bf 8bbd bfc3 943e
00000020: 1a87 c4bd e8c5 07bf 8587 833d dcc8 51bb
00000030: 3d1b 9ebd 5eaa 8ebe bbd6 8e3d 951a ba3e
00000040: 65c5 ab3d 05b6 8ebe eabf 373e ec0e 2abe
00000050: f294 a3be 0879 1a3e 2bfd c6be 8e3d 28be
00000060: f667 5c3d 79d4 cc3c e6c4 3f3d 338d 0cbd
00000070: 0110 083d 9a6d 2dbf 5f9b 843d c02c a4be
00000080: 8450 34bf 11af cc3e a621 10bd cd50 05be
00000090: 4460 3cbe 85ce b33d bd58 8cbe a0cd da3d
000000a0: 5630 563d ead9 59be c871 1c3e 7d2e e5be
000000b0: dd0d 503e bffd 54be 2d58 8bbe 49e3 7dbe
000000c0: b752 063c 4202 86bd 6464 80bd 9c0b 693d
000000d0: 5727 dbbd 9f2e bebb 0a05 263e 8bc4 babd
000000e0: 433d dbbe 4f14 c5bb cf81 8bbd 1c3e a63e
000000f0: 381d 8abd cf23 7c3d a1b4 3ebe 1153 833e
00000100: 43f4 2bbe df68 95bf 8804 9d3e 7bd0 bf3e
00000110: 59dd 85bd 729d 2e3d 05b0 28be 08f4 2abe
00000120: 52ce 273d 4805 c63d 8473 013d 517b 4bbe
00000130: 2869 963e 67ae e8bd 6f6c 96be aea0 00bb
00000140: 847e 823e 48ee d93e f043 9cbe dd51 753e
00000150: de72 84be 7d99 13bd 659c 5bbe 4376 e33c
00000160: fece 97b9 9288 b1be b7c1 bdbd 436b 98bc
00000170: bcb9 c93d 5945 c83e b91a 4ebd 27bb 91be
00000180: 7f39 333d 38e7 db3d 6416 2d3f cb02 22bd
00000190: d496 163f 428c 6c3e 9791 25bf 267b 853d
000001a0: 59cf c43d 498b 9c3e dfe1 063e 070e ad3e
000001b0: b2f5 bc3d 5e2f ea3e 7be4 babe abb7 14bd
000001c0: c9c0 ab3d 4c01 133e fc10 d53d 4be4 6b3e
000001d0: 8a2e 163f db51 54be 466c f4be 8ea2 063f
000001e0: 1493 20be e133 fc3d 529c df3e d198 293f
000001f0: 6c8f 263e c2dc 613e 999b 56be 6be1 f83e
00000200: 64af 423e aefa 1ebf e2cd a8be d542 423f
00000210: 52d0 c63d 215d 12bd 2271 053e ee03 5cbe
00000220: ccb8 3c3e 6b67 9cbe 244c 903d 09c9 073f
00000230: 1997 ab3d 271c b2bd 78d0 2abe 6904 83be
00000240: bbbc eebb 840b e33e 1051 e23e ef14 193e
00000250: 98b8 373e 846b 993e 33ec 24be 47ad 00bf
00000260: fc43 873c 7108 acbe 66fc 82be 306d a43d
00000270: 6482 87bd c789 a33d b64a 803d b369 d1be
00000280: 9b82 71bd a100 c6be f6c4 d9be b08c bbbd
00000290: b421 093f 0ffe e23d c70e b53e 6e1c e9be
000002a0: 1f25 aebd b99d 89be 22f7 11be dea9 edbe
000002b0: fd96 ee3d 91d6 67be 3e8b fabd d43c fcbe
000002c0: b79a 80be db16 b7bd e9e6 59bd b48a bf3c
000002d0: 5bda b3be 080b cdbd ffa1 c2be 42db 8abd
000002e0: 3ab0 2dbd 6248 c73e 62d1 db3d dd70 103e
000002f0: d57a b5be b119 5bbe b287 30bd 35d2 39bf
00000300: 02dc e5be 4f60 c03e 1c18 a13e 7009 78bd
00000310: cd7d c93e 5d1d 613f 3f8c 77be bd4d 183e
00000320: 79f4 65be 7b0b e03d 15b4 a73c 549c 5b3d
00000330: 5af6 453d c7c3 913d 4563 cf3d 2344 eebe
00000340: 3401 a53d 6015 033d a243 083e a2d8 da3d
00000350: e899 603e 1333 0b3f 0bea 543e 1848 273d
00000360: 820d 89bc ceb1 8cbc 0b2f 54bd 94b9 0d3c
00000370: a12d 583d 9cca 78bc a5d0 8ebd 0be5 783e
00000380: 4dc2 57be 6671 c13e 60b0 42be 90be aebe
00000390: 5473 aabd c951 9abe 25bd 2d3f 70e1 873e
000003a0: 529a 1a3f 3c81 b53c 4ee3 06bf 4684 443e
000003b0: 84d6 26be 7c6c 893e aff0 953e b781 9c3e
000003c0: f053 57bb 9646 a73d 0998 3cbd 573f ad3c
000003d0: 3b3f 533e 9827 b8bd 222d 2a3d 015a c4be
000003e0: 7ac2 20be 01d7 16be 7873 2abf 1646 6b3d
000003f0: a808 483e e598 3abe 1b69 1ebc 89ee 0c3f
0.029103927 0.3239822 -0.06177608 -0.056018833 0.018296698 0.012819036 -0.06823709 0.29055592
-0.09596081 -0.53036356 0.06422333 -0.003201059 -0.07720039 -0.27864355 0.0697455 0.36348405
0.083872594 -0.27873245 0.17944303 -0.16607255 -0.31949574 0.15085232 -0.38865027 -0.16429731
0.053810082 0.025003659 0.046818636 -0.034314346 0.033218388 -0.67745364 0.06474947 -0.32065392
-0.7043536 0.39977315 -0.03518834 -0.13019104 -0.18396097 0.08779625 -0.27411452 0.10683751
0.05229219 -0.21274534 0.15277779 -0.4476203 0.20317788 -0.20799921 -0.2721571 -0.24793734
0.008198432 -0.065433994 -0.06269148 0.056895837 -0.10700863 -0.0058038975 0.1621286 -0.09119519
-0.42820176 -0.006014384 -0.068118684 0.3246926 -0.06743854 0.061557587 -0.18623592 0.25649312
-0.16792397 -1.1672629 0.3066752 0.37463745 -0.06536359 0.04263062 -0.16473396 -0.16694653
0.040968247 0.09668976 0.031604305 -0.1987126 0.29377103 -0.113613896 -0.29379603 -0.0019627023
0.2548715 0.42564607 -0.30520582 0.2395701 -0.25868887 -0.03603505 -0.21446379 0.027766353
-0.00028955186 -0.34674507 -0.09265464 -0.018605834 0.09849879 0.39115408 -0.050318453 -0.28463098
0.043756004 0.10737461 0.6761229 -0.039553445 0.58823895 0.23100379 -0.6467528 0.06517629
0.09609861 0.30575016 0.131721 0.33799765 0.0922655 0.45739263 -0.36502442 -0.036307972
0.0838638 0.14355963 0.1040363 0.23036306 0.5866476 -0.2073435 -0.47738856 0.5259179
-0.15681106 0.123145826 0.4367395 0.66248804 0.16265649 0.22056869 -0.20957793 0.4860948
0.19012219 -0.62101257 -0.32969576 0.7588323 0.09707703 -0.035733346 0.13031438 -0.21485874
0.1842987 -0.30547652 0.07045773 0.5304113 0.08378429 -0.08696776 -0.16681087 -0.25589302
-0.007285682 0.44344723 0.4420247 0.14949392 0.1794151 0.2996484 -0.16105728 -0.502644
0.01651191 -0.3360019 -0.2558319 0.08028638 -0.06616667 0.07985263 0.0626425 -0.40900955
-0.058962446 -0.38672355 -0.42533082 -0.091576934 0.5356705 0.11083614 0.35362837 -0.45529503
-0.08503174 -0.26878145 -0.1425443 -0.4641866 0.116498925 -0.22640444 -0.122335896 -0.49265158
-0.25118038 -0.08939906 -0.05319873 0.023381568 -0.3512753 -0.1001187 -0.38014218 -0.06780101
-0.04240439 0.3892241 0.10733296 0.14105554 -0.35445276 -0.21396519 -0.04309816 -0.72586375
-0.44894415 0.37573478 0.31463706 -0.060555875 0.3935379 0.8793543 -0.24174593 0.14873405
-0.2245654 0.1093969 0.020471612 0.053615883 0.048330642 0.0711742 0.10126356 -0.4653636
0.0805687 0.032002807 0.1330705 0.10685851 0.2193371 0.5437481 0.20792405 0.04084024
-0.016730074 -0.017174628 -0.051802676 0.008650202 0.05277789 -0.015185025 -0.069733895 0.24306123
-0.21070214 0.3778183 -0.19012594 -0.34129763 -0.08322778 -0.30140522 0.67866737 0.26539183
0.60391724 0.02215635 -0.5269059 0.19191083 -0.16292769 0.2684058 0.2928519 0.30567715
-0.0032856427 0.0816776 -0.04604343 0.021148367 0.2062959 -0.08991927 0.04154695 -0.38349918
-0.15699187 -0.14730455 -0.6658244 0.057439886 0.19534552 -0.18222387 -0.009668614 0.55051476

net.fc_nn.fc_in.bias f4 [49]
00000000: 78e8 a7be ac7f d33d 0798 38be 28ee f03d
00000010: 7cab a0bd 8fd4 423e 08b8 2ebe 4ae4 133d
00000020: 54e5 ea3d 58c4 2cbe 49a0 63be aa8c cdbd
00000030: b877 553d a66b 87be 5d56 b43c 17c3 4e3d
00000040: baf2 b23c ba7d 1fbe 33a1 923d 5289 ff3d
00000050: ce2f 7ebe 5f37 13bf dd11 8fbd 10ec 8e3d
00000060: fce1 52bc 17df 25be de7d 873e 5e34 86be
00000070: 9459 afba 305e ebbd aa67 f2bd a380 00be
00000080: 81c7 503e 0461 bb3c 3196 5d3d ef1d 043d
00000090: f8dd 6f3c a1a1 c8b9 6748 afbd 8654 c6be
000000a0: 51ba e6bd 63f4 b13c 6398 48bd 2d86 133d
000000b0: f0d2 dabe ffe5 d6be 4d1a 52bd feb6 88be
000000c0: d7dd 76be
-0.32794547 0.10327086 -0.18026744 0.11764175 -0.07845208 0.19026397 -0.1706239 0.036106385
0.11469522 -0.16871774 -0.22229113 -0.10036595 0.052116126 -0.26449317 0.022013837 0.05047902
0.021844257 -0.15575305 0.071596526 0.12477364 -0.24822924 -0.57506365 -0.06985829 0.06978619
-0.012871262 -0.16198383 0.26463217 -0.26211828 -0.0013378137 -0.11492574 -0.118361786 -0.12549071
0.20388605 0.02287341 0.05409831 0.03225511 0.014640324 -0.00038267396 -0.085587315 -0.3873636
-0.11266006 0.021722978 -0.048973452 0.036016632 -0.42739058 -0.41972348 -0.051294614 -0.26702112
-0.24108063

net.fc_nn.fc_hidden.0.weight f4 [48, 49]
00000000: 292b 6dbe 31b2 ae3d 746f e5be f5e1 a3be
00000010: 5815 b6be 3103 babe eb5e 96be 405a 5fbe
00000020: fa8d 91bd 1447 aabe 5461 04bf a8d9 37bf
00000030: fc55 ea3d dffd 09bf a3d4 fe3b 9776 a5bd
00000040: c527 66bf aaf1 e1be 3f88 38be 3cdd 173c
00000050: 4238 15bf 392e 3f3e 5fe6 43be 0a9b 69bf
00000060: 7c17 32be 3cb4 e5be ffb4 083e 7a5b 5cbe
00000070: 0dd0 55bf 2b96 333e 2da3 c33d 11c7 21bd
00000080: e572 593e f608 36bf aa28 9bbe a168 2b3e
00000090: 7860 3dbf 7411 a7bd 6998 6ebe 78ac 79be
000000a0: 71d1 9dbd 55f4 bbbd 3f3c 5cbe 19e5 21bf
000000b0: 1451 593c ff3d 36bf b3a8 3e3e 0ecc 6e3d
000000c0: 8863 d83d ef6c fb3d d40e 82bd a632 ed3c
000000d0: fde9 89be baf9 b5be 40bc 23be f637 4fbd
000000e0: 0b77 37be c2f4 9cbc cb55 9bbd 9bcd d8bc
000000f0: 72dc aabe e207 583e 54f1 50be 85f0 d8bd
00000100: d4be 3e3e af38 06bf dc54 b8be fe8a a6bd
00000110: 65d6 95bd aa2b debe 43c4 0d3d 5a21 3cbd
00000120: f58b 18bf e99a efbe 4467 5fbe 2586 dfbb
00000130: add8 2dbe 5242 23bf 796a 593e f4d6 5c3c
00000140: 10cb afbd 16ea e03e a70e 4cbe b18d 38be
00000150: 583f eb3d 8f79 08bf 2b31 3e3e 9d59 b93c
00000160: f4b1 133d 72c4 bf3d edaa 443e 4aeb 98be
00000170: 89dc 01bf 8e61 d1bd 15ae a5be 2532 613e
00000180: fb12 bcbd 7c97 72be 5753 943d bbae 6bbd
00000190: 7010 5d3e 14d7 4c3d ce90 593d 391c 84bd
000001a0: 4103 8bbe de6a 3f3e 4745 b13e aaea b43e
000001b0: afa4 cbbd cfd8 613d 6fe7 1abf 34d3 ae3e
000001c0: e119 923e 9d77 9ebd 5441 d0bd 15a1 7a3e
000001d0: 048d 703e cd71 8bbe b329 82bd ca75 543e
000001e0: 1ab8 243e 456f ccbd eb38 023d 2d22 393e
000001f0: 17a4 8bbe 159f 0f3e 8845 25be 6c75 42be
00000200: eff5 0a3f f017 59be 0c37 5bbe d750 863d
00000210: e891 df3e 7158 cebd 4c1b 85be 21cf 923e
00000220: 7923 08be 4961 34be 4a3a 713e 0ed3 5abe
00000230: 4c51 b6bc 2fa0 e13d 2a3d a83e e18f 013f
00000240: 3940 9d3d 57c5 8f3b 0f6f acbd 33ac 02bf
00000250: 01f6 943e af85 83be 23f5 4e3e 47a4 0d3e
00000260: 1a34 2abe 2bd8 53be f676 c1bd 4306 0dbc
00000270: b9d6 0b3f 8871 a8bf 5d4b ec3e 8c77 ec3c
00000280: 195a a9be a4e9 903d 5367 98bd 60eb 2c3f
00000290: cab6 27bd 2e68 463f 0c48 053f 12b0 983e
000002a0: 505f ccbe 760c 403f 9fbd 0f3f b11c a33f
000002b0: d0fe 4f3d 7cc9 b3bd b47a 9dbf 1fca 403f
000002c0: 6596 35bf d805 893f 64e2 ea3d c7a3 80bf
000002d0: 0bf4 083d 0987 953d a56f d5be 7683 2b3f
000002e0: 43a1 1fbf 4766 b43c e242 163e 9e6c 46be
000002f0: c614 a9be c509 ff3e 1920 193f a2c2 03bd
00000300: 722c a73f 8cda 69bf de51 a83d a406 4dbe
00000310: c7c9 c03b 5acd a63d ab63 453f 159e 97be
00000320: 0f10 f43c 7e74 f7be f949 ff3d 8889 3e3e
00000330: 6398 573e 58ae 483e 9089 4d3e b2fe 43be
00000340: 1022 86be 58f9 373e 7ead 66bd 320f 373d
00000350: 7db4 d4bd c588 a6ba 350b 82bd 8f96 d8be
00000360: 9c34 943e 6dc4 bebe 2a9b a8be c6de 17be
00000370: 3f9f 68bd 28d9 49be a63a af3e afe5 62be
00000380: d70a efbe 6345 c2bd 1dc5 7fbe bda5 29bf
00000390: 247f 563d 5e75 863d 69a2 93bc 05bb e73d
000003a0: 56aa 79bd 80cf 2fbf 767a d83d fc8a d53e
000003b0: 6bd7 c53d d64d 693e 8b5e 99be c7df c3be
000003c0: 3af7 8b3d ad9b 513f 1d60 893c ca1f 923e
000003d0: f199 c43d 83f7 713b 4fdc 3cbe 68b7 2a3e
000003e0: e543 9e3c 9cd1 823e 6a7a 85bc b9bd 7bbe
000003f0: 9e85 513e 7646 983e 53eb 273e 0f00 143e
-0.23160996 0.08530081 -0.44811594 -0.3200833 -0.3556316 -0.3633056 -0.29369292 -0.21811771
-0.07107158 -0.33257353 -0.5171101 -0.7181649 0.114421815 -0.53903 0.007776813 -0.0807926
-0.89904433 -0.44129688 -0.18020724 0.009269055 -0.5828897 0.18669976 -0.19130848 -0.91252196
-0.17391771 -0.4486407 0.13350295 -0.2151927 -0.83520585 0.17537753 0.09552608 -0.039496485
0.21235235 -0.71107423 -0.30304462 0.16739132 -0.73975325 -0.08157626 -0.23300327 -0.24382198
-0.077059634 -0.09177462 -0.21507357 -0.632402 0.013263959 -0.7118835 0.18619041 0.05830007
0.10565859 0.12276637 -0.063504845 0.028954815 -0.2693633 -0.3554209 -0.1598978 -0.050590478
-0.17916505 -0.019159678 -0.07584723 -0.026465228 -0.3337131 0.21096757 -0.2040456 -0.105927505
0.18627483 -0.5243024 -0.36002243 -0.081319794 -0.07316283 -0.43392688 0.034610998 -0.045930244
-0.5958856 -0.46797875 -0.21816736 -0.006821411 -0.16977187 -0.6377307 0.21232022 0.013478983
-0.08583653 0.43928593 -0.19927464 -0.18022801 0.11486691 -0.53310484 0.18573444 0.022625739
0.03605838 0.09363641 0.19205828 -0.2986701 -0.50727135 -0.10223685 -0.32359377 0.21991785
-0.09183308 -0.23690599 0.07242458 -0.057539683 0.21588302 0.050009802 0.053116612 -0.064506955
-0.2715092 0.1869311 0.34623167 0.35335284 -0.0994352 0.055138405 -0.6050939 0.3414551
0.2853537 -0.07737658 -0.1016871 0.2447551 0.23491293 -0.2723526 -0.0635561 0.20748058
0.16085854 -0.099821605 0.031792562 0.18079443 -0.27273628 0.14025529 -0.16139805 -0.18990105
0.54281515 -0.21200538 -0.21407717 0.06558388 0.43666005 -0.100754626 -0.25997388 0.28673652
-0.13294782 -0.17615236 0.23557392 -0.21369573 -0.022255562 0.11016881 0.32859164 0.50610167
0.07678265 0.0043875384 -0.0841962 -0.51044005 0.29093936 -0.2568793 0.202107 0.13832198
-0.16621438 -0.2068793 -0.09446518 -0.00860745 0.54624516 -1.3159647 0.46151248 0.028865598
-0.33076552 0.070758134 -0.074415825 0.67546654 -0.040945806 0.77502716 0.5206306 0.2982183
-0.39916468 0.75019014 0.56148714 1.2743131 0.050780118 -0.087786645 -1.2303071 0.7530841
-0.7093261 1.0704908 0.11468962 -1.0049981 0.033435863 0.073011465 -0.4168674 0.6699747
-0.6235544 0.022021426 0.14673951 -0.19377372 -0.3302366 0.4981214 0.598146 -0.03216804
1.3060439 -0.913491 0.0821874 -0.20022064 0.0058834287 0.081446365 0.77105206 -0.29612795
0.029792814 -0.48331064 0.12465281 0.18607152 0.21054225 0.19597757 0.20072007 -0.19140127
-0.26197863 0.17966211 -0.0563178 0.044692226 -0.10385988 -0.0012705555 -0.06349794 -0.42302367
0.28946388 -0.37259236 -0.3293088 -0.14831075 -0.056792494 -0.19711745 0.34224433 -0.2215793
-0.46687958 -0.09485891 -0.24977536 -0.6626852 0.052367344 0.06565355 -0.01802178 0.11314968
-0.06095346 -0.68675995 0.105702326 0.417076 0.09660228 0.22783598 -0.29954943 -0.38256666
0.06834264 0.8187817 0.016769463 0.28539878 0.095996745 0.003692121 -0.18443416 0.16671526
0.019319484 0.25550544 -0.016293723 -0.24584092 0.20461127 0.29741257 0.16398363 0.14453147

net.fc_nn.fc_hidden.0.bias f4 [48]
00000000: 8fde efbe cb00 b8bd d24b 8cbd 12dc bd3e
00000010: 4904 01be 658f 3f3d 916a 3cbe 8a8d 203c
00000020: f347 bdbe c97f 0abe dab6 98be 5768 d73d
00000030: 894f 4a3e 49cc b5be b4a9 1fbe 895a ebbe
00000040: 4a02 4dbe 215e 3bbe e47b 86be 865b 1c3c
00000050: a8fa 5bbe 348c e0bd 487b 3b3d 6706 20bd
00000060: 5217 f7bc 7cc4 26be e65b a5be 6884 303e
00000070: 1c93 f7be b0d1 b13e d5ca 71be d19c 1dbe
00000080: 7e09 00bf 3301 2cbf da65 b5be 917c ffbc
00000090: f447 42be 4449 eebe fed5 f4be c7a3 01be
000000a0: ce8c d13c d464 a3bc e021 3fbc db22 023d
000000b0: 9408 52ba 2fd0 7cbc fdda a4bd 5c30 7bbe
-0.46849486 -0.08984526 -0.06850399 0.37081963 -0.12599291 0.04676761 -0.18400027 0.009799371
-0.36968955 -0.13525309 -0.29827005 0.10517948 0.19756903 -0.3550742 -0.1559208 -0.4596751
-0.20020404 -0.18297626 -0.26266396 0.009543305 -0.21482337 -0.109642416 0.045771867 -0.039068606
-0.030162487 -0.1628589 -0.32296675 0.17238009 -0.48354423 0.3473029 -0.2361253 -0.15391852
-0.50014484 -0.6718933 -0.3542927 -0.031187328 -0.1897276 -0.46540272 -0.47819513 -0.12660132
0.025579836 -0.01994554 -0.011665791 0.031771522 -0.00080121425 -0.015430494 -0.08049581 -0.24530166

net.fc_nn.fc_hidden.1.weight f4 [40, 48]
00000000: cad1 f0bd f47b c8be d5f8 88be a3da 813e
00000010: ecd7 e8be 0db0 78be ba06 ccbe c22e c1be
00000020: 57fe 803e e6b5 85be 5693 d9be da2f f3be
00000030: 9312 80bf 4339 843b ccf9 ffbb 6497 ae3d
00000040: c9de 72bd e255 a73d c9c4 ff3d c377 b7bd
00000050: c36d 1dbe 2c75 35be 7d0f d0be 9079 86be
00000060: 93c5 fe3e 8e67 c1bc 967c afbe be04 803e
00000070: 9164 28be 396f 783e 7913 8abe cf95 75be
00000080: cd69 94bd 8ca7 4fbe 7c22 d7bc 0aba 863e
00000090: 132d fdbd 9192 83be 6f82 10bd 7736 6ebe
000000a0: 71b6 e5be 41fe 0e3e b3fb 98be c57a 39bd
000000b0: cd26 10be d776 25bf 54d5 be3d c871 89be
000000c0: 70d7 a53d ca63 3abd dfb2 babd 458b 6dbe
000000d0: 8860 863c 2fdc 48bc ae60 0ebe f57e fabd
000000e0: 5612 e7bc 0183 14be 47c5 523c c219 8dbd
000000f0: 9867 0ebe 7964 8a3c 3425 6e3d a49f 2abe
00000100: 838c 44be b6ef ab3d 4765 89be 6a9c 2ebe
00000110: bcc3 abbc 4b3a d73d aa3d 323d 6f87 4a3e
00000120: 1d58 543e 2643 0cbf 1b6b 1fbd 61c8 0fbf
00000130: d278 9b3e 6d5d 06be 4c43 013e 584f 953a
00000140: 09cf 19be 4375 bd3d 6876 01bf a0ec 1ebf
00000150: 3bbe aabc 9de1 0e3e 27a0 993c b303 6e3d
00000160: 37bb b2bc 90ab f4be d098 81be 0fdd 4d3e
00000170: c9c5 14be 3b3b 8ebd df85 5fbe 9272 293e
00000180: be47 213e 58e9 8d3e 9035 b9be 3629 283c
00000190: 4cbc 26bf 2589 4fbe 2c5b c2be a293 57be
000001a0: 9d66 13be 1f4e a3be 0052 22bd ed27 4ebc
000001b0: f9bf e5be 918e 2d3c 51ec 393f 2a2f ca3e
000001c0: 2a88 ecbe 0295 893f 98af bf3e 480e 873e
000001d0: 8802 c83e 48ed 8e3d 8ae6 66be fdbd bebd
000001e0: ebbf ac3d 7380 8a3e 89c1 fabe a38c 963e
000001f0: 1c7e 1ebf 04bc 283f f367 61be 54b8 0d3f
00000200: fc7b 27bf 861b 8ebe 01dc febc 79ae 8d3e
00000210: ae9b 35be cb59 50be fef5 f2bd 3291 58bd
00000220: 5cb6 a7be 7496 273e d2e2 073d 8e0b a0be
00000230: 5283 2abe d845 65be 554b f63e 82e0 3cbe
00000240: 8600 33be 3e96 3abe 3d26 10be 56c4 bdbd
00000250: 0fe6 babd d590 ac3d af2d e0be e707 863d
00000260: 775d 363b 2304 4dbf 2f81 a13d 479e 69be
00000270: 1da6 8cbe 108b e43d 9c23 15be bf4f a1bd
00000280: c52e 57bd 18b0 0abe d6c5 c8bd 29fa dabe
00000290: 4b1e 68be ebf1 b2be 0128 5cbd 5df7 98bc
000002a0: 805d 003f 0634 04bf 78d6 f1bc db49 31bf
000002b0: cda6 213f 6eb5 0cbf d2c9 1e3e dfb9 89be
000002c0: bddb c53b a635 3a3f e4aa 31bf 511e 34bf
000002d0: 1304 cb3d 871c 1a3e 87d9 f9bd e6a4 98bc
000002e0: 5bce 6bbe e1a2 f4bd 4c81 19bd 66ad 233d
000002f0: 2c17 a53d 62de d7bd 6b6b 05be 4010 3bbe
00000300: f1d8 253d 8556 60be 738e dbbd d5a5 16bf
00000310: 4a4d 8cbe 99ac 12be 9ef0 6fbe d8ca 88be
00000320: 92ed a63e 7007 74bf 27bf 893d f830 c8be
00000330: bc3d edbe 4e1c be3e 21cb 3d3e 5d27 d1ba
00000340: 08ab 2fbe 16f9 983e 69bc 0e3e 916e cebe
00000350: 292f d33d 6380 66be da02 813e fcfd 2fbc
00000360: 6260 143e 4019 dcbe fb5b 02be d125 5cbf
00000370: 75bf 063f 25d4 85bf 0c55 55be 9784 a93d
00000380: 3651 45bd 99b9 e23e d3d5 21bf 6562 56bf
00000390: f424 b6bd c2ea 05be 9bd0 2abe 8dd1 42be
000003a0: 0dfc b2bd 0c44 2e3c c9fb 5ebd b0ac f53c
000003b0: 6bcf fbbd c5e6 1bbe af80 21be d48a 65bd
000003c0: 5a52 843e 41e9 513d 4390 853e 9655 48bf
000003d0: 65a1 5bbd f98c 393e 1ec3 f53c e2d5 c13e
000003e0: 90bb 283d d8d4 8cbe 0caf b33e 72ac 1a3f
000003f0: 321c fa3e cb48 33bf e19d af3e d661 063e
-0.11758764 -0.3915707 -0.26752344 0.2536212 -0.45477235 -0.24285908 -0.39848882 -0.37730986
0.25194046 -0.2611534 -0.4249522 -0.47497445 -1.0005668 0.0040351464 -0.0078117605 0.08524969
-0.059294496 0.08170678 0.12488706 -0.089583896 -0.15373902 -0.17720479 -0.40636817 -0.2626462
0.49760112 -0.023608949 -0.3427474 0.25003618 -0.16444613 0.24261178 -0.2696798 -0.23982929
-0.072467424 -0.20278758 -0.02626156 0.26313812 -0.12362113 -0.2569776 -0.03528064 -0.23262964
-0.44865754 0.13964178 -0.2987953 -0.045283098 -0.14077301 -0.6463446 0.09318033 -0.2684462
0.08097732 -0.045505323 -0.09116148 -0.23197658 0.016403452 -0.012259527 -0.13904068 -0.122312464
-0.028206985 -0.14503099 0.012864417 -0.068896785 -0.13906705 0.016893612 0.05814095 -0.1666246
-0.19194226 0.083953306 -0.2683508 -0.17051855 -0.020967357 0.105091654 0.04351584 0.19778226
0.20736738 -0.5478996 -0.038920503 -0.5616513 0.30365616 -0.13121577 0.12623328 0.0011391444
-0.15020384 0.092508815 -0.505713 -0.6207981 -0.020842662 0.13953252 0.018753124 0.058108997
-0.021817787 -0.47787142 -0.253119 0.20103858 -0.14528574 -0.06944891 -0.21828412 0.16547611
0.15750024 0.2771709 -0.36173677 0.010263732 -0.6513107 -0.2026716 -0.37960184 -0.21052411
-0.14394613 -0.3189554 -0.039628983 -0.012582761 -0.44873026 0.0105930725 0.72626215 0.39489108
-0.46197635 1.0748599 0.37438655 0.26378083 0.3906443 0.069788516 -0.22548881 -0.09313581
0.08435043 0.27051124 -0.4897578 0.29404172 -0.6191118 0.6591189 -0.2201231 0.5535939
-0.6542356 -0.27755374 -0.031110765 0.27672175 -0.17735168 -0.20346753 -0.118633255 -0.052872844
-0.32756317 0.16365987 0.033175297 -0.31258816 -0.16651657 -0.22389925 0.4810435 -0.18445018
-0.17480668 -0.18221375 -0.14077087 -0.09265964 -0.091259114 0.08426062 -0.43784854 0.06544476
0.0027826705 -0.8008444 0.07885968 -0.22814284 -0.27470484 0.111593366 -0.14564365 -0.078765385
-0.052534837 -0.13543737 -0.09803359 -0.42768982 -0.22667806 -0.34950194 -0.05374909 -0.01867264
0.5014267 -0.5164188 -0.029521212 -0.6925332 0.6314514 -0.5496434 0.15506676 -0.2689962
0.0060381577 0.7273811 -0.69401383 -0.7035876 0.099128865 0.15049945 -0.12199693 -0.018633317
-0.23027937 -0.11945129 -0.037476823 0.039960288 0.0806106 -0.10540463 -0.13029258 -0.18267918
0.040490095 -0.21908005 -0.107205294 -0.5884679 -0.27402717 -0.14323653 -0.23431632 -0.26717257
0.32603127 -0.9532385 0.067259125 -0.3909986 -0.46336162 0.3713097 0.18534519 -0.0015957166
-0.17155087 0.29877537 0.1393906 -0.4031873 0.103117295 -0.22509913 0.25197488 -0.010741707
0.14489892 -0.42988014 -0.127304 -0.85995203 0.5263589 -1.0455366 -0.20833224 0.08277243
-0.048173152 0.44282225 -0.63216895 -0.8374389 -0.08893767 -0.13077834 -0.16681139 -0.1902525
-0.08739481 0.010636341 -0.05443934 0.02998957 -0.12295421 -0.1522475 -0.15771745 -0.0560406
0.2584408 0.05124784 0.26086625 -0.78255594 -0.053620715 0.18120183 0.030000266 0.37858492
0.0411945 -0.27506137 0.35094488 0.6041938 0.48849636 -0.7003295 0.3430014 0.13123259

net.fc_nn.fc_hidden.1.bias f4 [40]
00000000: 584c 513d d1bb eabc 53a2 f73d 7fd0 1abe
00000010: ebde abbe af58 c83d ffdc 8a3d 6d1e 69bf
00000020: 868f 1a3e 3e12 de3d fe80 7fbd 40cc 8fbe
00000030: d352 a83c a94a 2fbd 1087 8b3e 8799 0d3d
00000040: 37e1 3dbe bd48 d23d de6d 973d bd08 c6be
00000050: 3053 74bd 9a17 a13d 6022 33bf 6772 4ebe
00000060: 1077 7d3e 1cba 8cbe f357 bcbe b29e 6abe
00000070: ec34 83be 6d79 ca3b 1861 b4be 66d0 6ebd
00000080: cd01 79bd f5de dbbd 2c96 58bc 58fe 0cbf
00000090: fbe3 bdbe 59e8 233e 0732 aebd 2156 9bbd
0.051098198 -0.028654011 0.12091508 -0.15118597 -0.3356851 0.0978254 0.06780433 -0.9106205
0.15093812 0.10843323 -0.062378876 -0.28085518 0.020547306 -0.04279581 0.27251482 0.034570243
-0.18542944 0.1026778 0.073940024 -0.38678542 -0.059649646 0.0786583 -0.6997433 -0.20160829
0.2475245 -0.2748574 -0.3678585 -0.229121 -0.25626314 0.006179026 -0.35230327 -0.058304213
-0.060792733 -0.10735885 -0.0132193975 -0.550756 -0.37087998 0.16006602 -0.08505636 -0.07584787

net.fc_nn.fc_out.weight f4 [8, 40]
00000000: a8eb 9fbe ff77 9b3e aa6c 6dbf 9128 813e
00000010: 9026 d33e 6b3b 37bf 9c1f fcbe 8167 c8be
00000020: 4c06 153f af62 69bf 1f61 e13e 8803 f83e
00000030: a638 9d3e 4f20 243f 3652 093d 32fe dc3e
00000040: 587e 933e 51c0 7abe e5b6 033e 20c1 0fbe
00000050: 6655 4a3e d138 883e 38bd a0be 0a41 a9be
00000060: 02e3 1fbf d065 43be 400a 0140 6ffb 1c3e
00000070: 8ae8 28be b467 763e b264 8b3f 3477 66be
00000080: 46ff acbe aecb 0e3f c7cf 113e d336 c1be
00000090: f99b bfbe eef7 b93d 1b53 803d 398a 573d
000000a0: 28a0 adbe b322 2d3e 68e7 30bf a77e 673e
000000b0: 23ce 25bd 6b57 06be a2a5 f0be a92a 053e
000000c0: 4fa8 383f 4bd5 06bf 623e 353c 1955 7c3e
000000d0: d6ba 8b3e 95e2 653e e715 57be f297 6b3e
000000e0: bd38 a43e 4dc0 233e 85da 933b d502 c6bd
000000f0: e372 443e 5ed1 2a3e 49cb cabc 44e7 8f3b
00000100: 7a03 0ebf ede5 70be 5212 703f f425 6d3e
00000110: cc83 cdbd ffbe 9dbe 4778 203f 9d12 043f
00000120: 35b4 2dbf 205b 3a3e 5b26 3e3e 57d4 083d
00000130: c768 72bd fc5d 033d c7d7 8d3d 3706 50bd
00000140: d19a 523e e047 493d c58c 813d 6e59 843e
00000150: a272 d83c a18f 5cbe ca1c ad3e 3b82 b73e
00000160: 43ee 90bd 35cc 373e 93e3 c33e 0375 853e
00000170: a771 d23d bc18 62bc 3350 f43e a0ff d5be
00000180: 77ae e63e f0c1 b03e f3ed 723e fe9f c83e
00000190: ac45 2f3e 04f9 4c3e aa1a 933e 95d8 e33d
000001a0: b85c 923e 18d7 bd3e 2de5 66bd badc e23b
000001b0: 4eef 98be 19ab 42be 8847 36bd 35dc 213e
000001c0: 4812 af3e 06eb 973e e551 383e 4f88 32bc
000001d0: 42d8 433e be83 803e d843 b33e 5f94 3d3e
000001e0: 4121 053e c771 013e 4b6c 803d 426c d7bb
000001f0: 0021 143e 6ebc a4be a310 f13d a319 8dbe
00000200: 93d1 08bf aa1b c13c 920b a53d 1450 bbbc
00000210: cb1d 1b3e e89c 8abb 6f0c e83e 7053 c6bd
00000220: fcaa b13d ff61 7a3e 11db 06be 6fc9 6abd
00000230: f5bd d93d 18bf e7bd dc62 3dbe 0de2 703d
00000240: ad1d b53d 402d 32be 8d70 d33e 2388 853b
00000250: bcba aabb da5e 453e 8441 8abd 65b1 333e
00000260: 2b0b 4d3e 7737 3b3e 7031 c8bc 3ac0 b4bd
00000270: f028 a03d 045b c53c fb3a 403e c038 8e3d
00000280: 2cb5 0ebf 1a9a 853e 83b4 01bf 9b32 c43d
00000290: 3dc3 503e 94fa 54bf 0601 f2be 5af9 bd3e
000002a0: 3602 dd3e 3b18 22bf a23c c03e 328c a93e
000002b0: 5a82 4c3e 06a0 f93e 4fd7 813e fa57 a83c
000002c0: 804e dd3e 8b51 a53e 0714 5b3e a2ab a83e
000002d0: 504e 043e e4d9 e53c cca8 4d3d f67a f0be
000002e0: 7ab8 30bf f50d 8d3e 1c93 f73f 20df 4b3e
000002f0: a77e b7be 1dd7 513d 55e6 d63e 109c 9cbd
00000300: c287 abbe f1c2 053f 7b32 f93c 261d 73be
00000310: ff7b b7be 2ac1 593e 3151 8c3e 2e5a 683e
00000320: bc13 8abe bd7c c33d 0f97 e4be 5a62 c63e
00000330: 79f1 4f3e 8b78 acbe e79f a53d 51b1 073f
00000340: 9a97 d13e 1e71 b8be 9903 e73e 9b9c a73e
00000350: 4dcc b23e 0d55 843e 1cbb 973e 3fc2 6cbe
00000360: 512c f93e 62d1 9c3e 115e 363e 3e7f b43e
00000370: c313 bd3e 6ef2 6d3e 4564 203f 5053 94bd
00000380: 4f49 c5be 568c 313d 19a0 163f 41f3 553d
00000390: da5c f8bd 77c1 a5be 611c 6abb 4046 873e
000003a0: 06dd e7bd 8a05 e53e c03a 723e 2bd2 b13d
000003b0: 4f9e c63d 68b0 973e 49d2 9c3e 4841 1a3e
000003c0: 9ef6 e83d 6dc4 bc3c e33e 883c 8f2d 72bd
000003d0: 8d2a 35bd f08d a0be 1122 e6bc 19c8 663e
000003e0: 7839 07be 09ed 92bd 8e7d 01bd 3496 343d
000003f0: 3de7 783d 6ced 2abe fccc 613f 1c9f 2fbd
-0.3123448 0.30364987 -0.92743933 0.25226262 0.41240358 -0.7157504 -0.49242866 -0.39141467
0.58212733 -0.91166204 0.4401941 0.48440194 0.30707282 0.641118 0.033525668 0.43162686
0.2880733 -0.24487425 0.12862737 -0.14038515 0.1975914 0.26605847 -0.31394362 -0.33057433
-0.6245576 -0.19081807 2.0162506 0.1533029 -0.16494957 0.24062997 1.0890105 -0.2250641
-0.33788508 0.5577954 0.14239417 -0.3773714 -0.37423685 0.09080492 0.06265851 0.052622054
-0.33911252 0.16907768 -0.691031 0.22606908 -0.04047979 -0.13119285 -0.47001368 0.13004555
0.7213182 -0.5266921 0.0110622365 0.24641837 0.27290982 0.22449715 -0.21004449 0.23007181
0.32074538 0.15991326 0.0045121335 -0.09668509 0.19184451 0.1668143 -0.024755137 0.0043915827
-0.55474055 -0.2352521 0.93777955 0.23159009 -0.10034904 -0.3080978 0.6268353 0.515909
-0.678531 0.18198824 0.18569319 0.033405628 -0.059181955 0.032072052 0.06925922 -0.050787177
0.2056687 0.04914081 0.06325678 0.2584948 0.026421849 -0.21539165 0.33811027 0.35841545
-0.07076695 0.17948993 0.38259563 0.26065835 0.10275584 -0.013799842 0.47717437 -0.4179659
0.4505498 0.34522963 0.23723583 0.39184564 0.17116421 0.20016867 0.2873128 0.11125294
0.28586364 0.37078166 -0.056370903 0.0069232853 -0.29870075 -0.19010581 -0.04450181 0.15806659
0.34193635 0.29671496 0.1799999 -0.010896756 0.19125465 0.2510051 0.35012698 0.1851363
0.13000967 0.12641059 0.06270655 -0.0065741846 0.14465714 -0.3217501 0.11770751 -0.27558622
-0.53444785 0.023572762 0.080588475 -0.022865333 0.15148084 -0.0042301305 0.45321986 -0.09683883
0.08675191 0.24451445 -0.13169505 -0.05732101 0.106319346 -0.11315745 -0.18494743 0.05880933
0.08843551 -0.17400074 0.41296807 0.0040750667 -0.0052102488 0.19274464 -0.06750777 0.1754814
0.20023791 0.18282877 -0.024437636 -0.08825727 0.07820308 0.024091251 0.187725 0.06944418
-0.55745196 0.26094133 -0.50666064 0.09579965 0.20386977 -0.8319485 -0.47266406 0.37104303
0.4316575 -0.6331822 0.3754626 0.33114773 0.199716 0.487549 0.2535958 0.020549763
0.43223953 0.32288775 0.21394359 0.32943445 0.12920499 0.028058 0.050209805 -0.46968812
-0.6903149 0.2754971 1.9341769 0.19909334 -0.35838816 0.05123054 0.41972604 -0.07646954
-0.33502012 0.5225058 0.030419579 -0.23741588 -0.3583679 0.21265092 0.27405694 0.22690651
-0.2696818 0.09545276 -0.446465 0.3874691 0.20306958 -0.33685717 0.080871396 0.5300494
0.40935975 -0.36023802 0.45119932 0.32736668 0.34921494 0.2584614 0.2963494 -0.23120974
0.48666623 0.30628496 0.17809321 0.35253328 0.3692914 0.23237011 0.62653 -0.07242453
-0.38532493 0.043346725 0.5883804 0.052233938 -0.12127085 -0.32374164 -0.0035722482 0.26420784
-0.11321454 0.44730788 0.23655224 0.086826645 0.09698164 0.29626775 0.30629185 0.15063965
0.113751635 0.023042882 0.01663155 -0.05912548 -0.044230033 -0.3135829 -0.028092416 0.22537269
-0.13205516 -0.07174117 -0.03161388 0.044088557 0.0607674 -0.16692132 0.88203406 -0.042876348

net.fc_nn.fc_out.bias f4 [8]
00000000: ab76 99bd 29dd 3ebd c53d 873c f346 c33e
00000010: 9bd2 abbe ff55 babe 0fdc 8a3d 6a0e 053f
-0.07493337 -0.046597634 0.016508946 0.38140067 -0.33559117 -0.36393735 0.06780254 0.5197512
