L96P5/results/nets/net_mytrainedmodelEnergyScore.pth (torch, 45850 bytes, 12 tensors)

net.gru.weight_ih_l0 f4 [96, 8]
00000000: 9e68 b23e 30ce 293f 328e 1fbe 44a1 08bf
00000010: ab14 b7be de8b b5be 9607 66bf f4d2 03be
00000020: aad3 12bf fd18 2ebf 343d 0f3f 647c 173f
00000030: 0eab 3fbe 68a1 c1be 0e98 873e b8de 46bc
00000040: d1ba c6ba ec0f f13d 845f e6be 57bf f3be
00000050: 2efe 183c d9d9 a6bd 5d0c e5be f540 44bf
00000060: 02e2 4d3e 46bd 43be 9574 30bd ab1e b6bd
00000070: 8d98 d83e 862b f13e ed06 06be a1b8 e9be
00000080: 728b 993e de16 e2be 9bc4 953e 5e8d d53d
00000090: 74a7 853e f764 7bbd 781a 463f 10bf 8c3e
000000a0: ad42 9d3b 3300 a43e 5441 e4be dca5 0f3d
000000b0: 9c7d a5be 7fc1 eabd 898c f8be e60d 4bbe
000000c0: 0439 933e a61c ce3e 13e8 903c 55b2 47be
000000d0: c7f9 133f 72b1 af3e 8f9e 703e b6ff 90be
000000e0: 544e 0c3e 39f0 dcbe 4fb1 a43d a1ed 0c3e
000000f0: c28f 483e 8ffe d9bc b530 7c3e 7477 1dbc
00000100: f855 153e 38da 273f 83f0 3bbe 3fb0 acbe
00000110: b316 323f 808a 8a3e 0c9f ab3e d820 b9bd
00000120: 7298 113e dc18 a5bc b2f5 9dbe 5645 db3b
00000130: 6126 7d3c 5cfd b13c 50ff eb3d 8e54 943e
00000140: 9baf d83d 4dc8 9fbe b695 3ebf cf1b c5be
00000150: 7b42 a83e 72c9 a53e a7f0 ca3e c76d 58be
00000160: 68a0 b4be ab54 903c bdbf f9bd da52 a8be
00000170: b3c1 27bf efa7 1a3e 7806 9abf 0ee6 60bf
00000180: ccc8 d53d c37e 173e d476 ce3e 00d6 363d
00000190: 486c 0abe a7f1 65be 4a49 a2be c611 e8be
000001a0: ade0 1e3f 700b e1be c8f3 35bf b239 53bf
000001b0: d408 a23e ed56 9abe 28a7 4fbe e9b1 313e
000001c0: 8500 f13e f0bc 50bd 4617 ebbe 1378 efbe
000001d0: 0bcb 0abe 7e52 47be b653 e6be 948d fb3d
000001e0: 90d8 e13e 92e7 44bd 8b52 e1bd 7b79 aabe
000001f0: f181 84be 203f 2dbf 1163 99be eb13 0abe
00000200: b139 2239 cc05 933e e97d 9c3e bc31 0d3f
00000210: 848d 0b3f 7951 903e 1fec c23e c57a 2c3e
00000220: 29cc c1bb 7f49 10bf 46ff 70be b012 87be
00000230: 62d6 96be 5101 39bf 1377 19bf f088 79be
00000240: a42a d73a 53f1 84bd 5a49 133e 44f3 f43d
00000250: 4ce1 e23e 125c 903e 6c13 bf3d e52f 183e
00000260: 4932 953e 66e4 f33e a448 c63e 432a 943c
00000270: 9c42 3c3e f62a e73e 07e7 e33e c8f0 623e
00000280: 4084 da3e c9ba 81be 5908 463e 6083 323f
00000290: 9a72 b13f a805 7abd 51e7 7bbe 0e37 c2be
000002a0: a47d 7b3e a618 e03e cff6 b43e 3567 b43e
000002b0: 32a3 673e a35f 8a3e 4f60 443e cc43 06be
000002c0: 3f24 a43e bcf7 913e 0aec e9bd 67ef 61be
000002d0: 6046 39bc e59a 083e 5d2d a0bd c89b 27be
000002e0: 83e6 7a3f 54a0 263f 9f8f 62bd 7eff 5b3b
000002f0: b976 613f 3852 cf3e dea4 0dbe 4048 173e
00000300: 8d1b 113e 2c0a 11bf e7e5 c9bc 80f6 45be
00000310: 5df5 513f 867e 0bbf 9d10 21bf 8ec2 31bf
00000320: a7d6 283f bf12 d33e cea2 8dbd 2a7b b13e
00000330: 681e c03e ad20 7d3d 6ca7 923d 143e 153f
00000340: 41d2 c7bc 7ad8 173d c9b1 3c3e 0f66 39bc
00000350: f106 e1be 8eff 59be af5c a9bd c649 503e
00000360: 7c0f 86be efef 82be 67c8 90bd 6669 f5be
00000370: a419 e4be 0c97 44bf 78cd c0be 8088 cdbc
00000380: fdd5 103f 951c 063f 46ef 203e 2e9f e2bc
00000390: fa04 8dbd 2bd9 173f b918 c0be d5ba 89be
000003a0: 64b8 c73f 7759 e43e 6f51 91be ea4d aabe
000003b0: 8687 83bf 1c63 00be cc2e cf3d bae6 893e
000003c0: 540e 9bbd 79a0 163d 5038 14bf 9dd3 b2bd
000003d0: 85cc 913e 65cd 69be 5af5 783e db1f 5b3e
000003e0: db8e dc3e 5a27 a13e 5a27 babd 9387 883c
000003f0: 93a3 11bd d99c 563e 7790 3abe 70e2 09bd
0.34845442 0.6633024 -0.15581587 -0.5337107 -0.35757956 -0.35458273 -0.89855325 -0.12873441
-0.57354224 -0.6800688 0.55952764 0.5917418 -0.18717596 -0.37818456 0.26483196 -0.012138061
-0.0015161877 0.11770615 -0.44994748 -0.47606918 0.009337945 -0.0814702 -0.44735995 -0.76661617
0.20105746 -0.19115171 -0.04307993 -0.08892568 0.42303887 0.47103518 -0.1308858 -0.45648673
0.299892 -0.4415807 0.2925156 0.10427354 0.2610432 -0.061375584 0.7738414 0.2748952
0.004799208 0.32031402 -0.4458109 0.035070285 -0.32322395 -0.11462688 -0.4854472 -0.1982952
0.28754437 0.40256232 0.017688787 -0.19501622 0.57803005 0.34315068 0.23497985 -0.28320092
0.13701755 -0.43152025 0.080416314 0.13762523 0.19586089 -0.02661064 0.24627955 -0.009610999
0.14583576 0.6556735 -0.18353467 -0.33728215 0.69565886 0.27058792 0.3351978 -0.090394676
0.1421831 -0.020153455 -0.30851513 0.006691615 0.015451045 0.021727256 0.11523306 0.2897076
0.10580369 -0.31207505 -0.7444719 -0.3849778 0.3286322 0.32380253 0.39636728 -0.21135627
-0.3527863 0.017618498 -0.12194774 -0.3287571 -0.65529937 0.15103124 -1.2033224 -0.87851036
0.104386896 0.1479445 0.40325034 0.04463768 -0.13517869 -0.22455464 -0.3169654 -0.4532606
0.6206158 -0.4395404 -0.71075106 -0.8250991 0.3164736 -0.30144444 -0.20278609 0.17353024
0.4707071 -0.050961435 -0.45916194 -0.46771297 -0.13554017 -0.19465062 -0.4498574 0.12282863
0.44110537 -0.048072405 -0.11002072 -0.33295807 -0.25880387 -0.67674446 -0.29958394 -0.1348416
0.00015471016 0.2871536 0.30564812 0.55154014 0.5451281 0.2818716 0.3807077 0.16843708
-0.0059142304 -0.56362146 -0.23534879 -0.26381445 -0.29460436 -0.72267634 -0.5994732 -0.24368644
0.0016415906 -0.064913414 0.1438345 0.11960462 0.44312513 0.28195244 0.09329876 0.1486202
0.29139927 0.47635192 0.38727295 0.018086558 0.18384784 0.45149964 0.44512197 0.22162163
0.42679024 -0.25337818 0.19339122 0.6973171 1.3863099 -0.06104055 -0.24599959 -0.37932628
0.24559647 0.43768805 0.3534455 0.3523499 0.22620848 0.2702609 0.19177364 -0.131118
0.32058904 0.2850932 -0.11421974 -0.22063981 -0.011308283 0.13340338 -0.07821152 -0.1636802
0.9800798 0.6508839 -0.05531275 0.0033569033 0.8807178 0.40492415 -0.13832423 0.14773655
0.14170666 -0.56656146 -0.024645759 -0.19332314 0.8201502 -0.54489934 -0.62915975 -0.6943749
0.65952533 0.4122524 -0.06915818 0.3466428 0.37523198 0.06179874 0.071608394 0.5829785
-0.024392249 0.037071683 0.18427195 -0.011315837 -0.43950608 -0.21288893 -0.08269631 0.20340642
-0.2618369 -0.2557368 -0.07069474 -0.47931975 -0.44550812 -0.7679298 -0.3765676 -0.025089502
0.5657652 0.5238736 0.15716276 -0.027663793 -0.06885715 0.5931575 -0.37518862 -0.26900354
1.5603147 0.44599506 -0.2838244 -0.3326257 -1.0275733 -0.12537807 0.10116348 0.26933843
-0.07571092 0.036774132 -0.57898426 -0.08731768 0.2847635 -0.22832258 0.24312344 0.2139887
0.4307774 0.31475335 -0.09089537 0.01666621 -0.035556387 0.2095827 -0.18219171 -0.033663213

net.gru.weight_hh_l0 f4 [96, 32]
00000000: afda febe 2111 b73e 4544 d0be 27f1 c3be
00000010: 3920 593d bfd7 b3be 5d3f 95bd 5e3e 253e
00000020: e79e 233f 766b 93be d4fd 253f 0598 44be
00000030: 3e9e 093f f891 b23e d840 c23e f33c dfbe
00000040: 8299 b0bd 03ca 6e3e 7d8c 65be 42b3 95be
00000050: 4cda 0a3f b655 a33e 71ce 15bf 1bc7 2c3f
00000060: 2184 6bbe b8f5 963e cc48 17bf d0ba f1bc
00000070: b397 943e 7bed f53d 5df5 2abf 1082 02bf
00000080: 00ac 28be 3987 08bf c218 43be 638a 63bc
00000090: 0b16 153e 2071 223f 9d90 c3be 738d d5bc
000000a0: e044 51be ed34 653e 7fcf 293f f16b 473e
000000b0: 3063 61bc 1db6 cebe 2d19 dd3d 0942 913e
000000c0: 28c1 853e b955 47be 75ea 00bf f9d6 13be
000000d0: 857c 1c3e 8f3c 42be ef44 ab3e d400 47bf
000000e0: eb7a 0bbf f376 813d 12c3 1c3e dc96 20be
000000f0: ac9b a1be 673a f23e 7655 7d3e 8d70 49bd
00000100: 9d2e 5b3e f1c7 a5be 10e9 7cbf e621 d03e
00000110: 9965 62bd 0baf 73bd 76de 433e 27b2 afbe
00000120: 61f4 c0be 7ce7 bb3e 8bf8 08bf e6b2 003f
00000130: dcdf 963f 1728 b8be 7186 473e f027 eebd
00000140: d9b2 2abf 3b95 05bf 3181 2b3e ddf4 fabe
00000150: 8532 783f b268 973f 0d98 c93d f28b 7cbc
00000160: 3460 9ebf 8d0b 15bf a881 7a3e e949 99bf
00000170: f980 783e ae99 373e bda6 463e ee3e 1e3f
00000180: cf5c b4bd 2b36 ff3d e18c 70bf 259d 6abe
00000190: b63c 3fbf c701 93be 4637 1b3f 602b 573f
000001a0: 892d df3d 2196 823e 6352 09be 26ab a7bf
000001b0: 2379 323f a290 99be ecc7 92be 2a8c 163d
000001c0: 7566 2cbf e0eb cdbe 4b33 633e 3294 483f
000001d0: adc3 f2be 4007 963e 8738 7dbe dcf0 7cbf
000001e0: baa3 043e b5ee 69bd 6e56 18c0 b325 1f3d
000001f0: e9c3 47bf 7dea aebe edc4 0e3f e839 e93d
00000200: 349a ab3e 75eb 283e 5dfc 67bd 89c3 2ebd
00000210: 6d77 cabe 12cc 023d a32d 53be c276 eb3e
00000220: 1a46 873e c332 b4be 3f04 efbe 2871 ddbe
00000230: b800 adbe 6871 0b3e 34b2 443e 5a4f a6bd
00000240: 4c32 f23c 2165 a63e 5e68 48be e8ec 4a3e
00000250: 9e93 74be fef6 84bd 3aef 3dbe 79c7 b33e
00000260: de1c 25be d0e7 bb3e b8e9 19bf 7b93 983e
00000270: 8435 02bf a6c5 c23d 0b4c 36be bc89 8fbe
00000280: 06f7 ff3e 977f fabe 646a 3d3f e72f 7f3f
00000290: f8d3 efbe e45d 16bf f086 af3e c43f 933f
000002a0: 583f 1a3f 147c 27bf 0cbf 8cbe a8ec ccbf
000002b0: 433b 55be 8544 d83e e03d 38bc 950d 4e3e
000002c0: 4c1f 66bf f199 083f e079 643d f7c3 fc3e
000002d0: d0ff 94bf 83a7 50bf 6965 f8be 1e0a 99be
000002e0: 4622 1f3f ba1f 343f 93e1 87bf 7a88 673f
000002f0: e337 e73e 81dd dbbc f41a 69bf 6c68 14bf
00000300: 1d3b bdbe 3700 c6bd 57a1 e63d 4a4d 84be
00000310: 8691 383d e58a 70be 1aa8 91be dd3a 8e3d
00000320: 89f6 c33d b5f4 3abb f1f5 83be 5322 ac3e
00000330: 1910 213d b209 403c ee53 92be f767 5d3e
00000340: f937 c6bc 223e 2c3e 806e 7ebe ad32 3e3e
00000350: 9745 f8be 07c2 fabe a98d 553e d8d1 8a3e
00000360: 0fe6 dc3e cd55 7b3e 9693 d23d 99aa f13e
00000370: 3286 1abe b69f dd3d e5b1 e3bd 1eed a5be
00000380: cb4c e3be aa09 063e a0b2 c5bc 662c 6bbe
00000390: 04e5 de3c 9d61 37be e350 afbe f5f1 febd
000003a0: 05d8 203d b56e 303e 5744 843d 03a5 753e
000003b0: 949e bc3e 00cb 82be b724 88be 0923 de3e
000003c0: d92a 36be 45d7 e7bd e9a3 75be 097a 73be
000003d0: 5c00 013f 1cda 863e 18ce 513e 028f fc3d
000003e0: 68b2 bebe 2015 c2be 95d8 da3e 1927 0fbe
000003f0: ba54 e13e 5bac a43e b502 f33d 0cfa bc3d
-0.49776217 0.35755256 -0.40677086 -0.38269922 0.053009246 -0.3512554 -0.07287476 0.16137072
0.6391434 -0.28792924 0.64840436 -0.19198616 0.53757083 0.3487699 0.37940097 -0.43601188
-0.08623029 0.23319249 -0.22416873 -0.29238325 0.54239345 0.3190133 -0.5851813 0.6749131
-0.22999622 0.29484344 -0.59095454 -0.029508024 0.29021987 0.120081864 -0.66780645 -0.5097971
-0.16471863 -0.53331333 -0.19052413 -0.013887974 0.1455919 0.63453865 -0.3819627 -0.026068425
-0.2043643 0.22383471 0.6633224 0.1947477 -0.013756558 -0.40373316 0.107958175 0.28370693
0.2612393 -0.19466294 -0.50357753 -0.14437474 0.15281875 -0.18968414 0.3345103 -0.7773564
-0.5448443 0.06321516 0.15308788 -0.15682548 -0.3156408 0.47310182 0.24739632 -0.049179602
0.214045 -0.32379106 -0.98793125 0.40650862 -0.055272672 -0.059493106 0.19127831 -0.34315607
-0.37686446 0.36700046 -0.53504246 0.5027298 1.1787066 -0.35968086 0.19484879 -0.11628711
-0.6667915 -0.5218083 0.16748501 -0.4901494 0.96952087 1.1828825 0.098434545 -0.015414225
-1.2373109 -0.5822075 0.24463522 -1.197568 0.24267949 0.17929718 0.19399543 0.61814773
-0.08806764 0.124615036 -0.93964964 -0.22911508 -0.7470201 -0.28712294 0.60631216 0.8405056
0.10897357 0.25505164 -0.13410334 -1.3099105 0.6971609 -0.2999316 -0.28668153 0.036754765
-0.6734384 -0.4021902 0.22187535 0.7835113 -0.47414914 0.29302406 -0.24728595 -0.9880502
0.12953082 -0.057112414 -2.3802752 0.038854312 -0.7803331 -0.34163275 0.55769235 0.11387998
0.33516085 0.1649607 -0.056637157 -0.042666946 -0.3954424 0.031932898 -0.20622878 0.45989043
0.2642067 -0.35194978 -0.46682927 -0.43250394 -0.3378961 0.1361748 0.19208604 -0.08120604
0.029564999 0.3249903 -0.19571063 0.19816935 -0.23884436 -0.064924225 -0.18548289 0.35113123
-0.16124293 0.36700296 -0.6012225 0.2980002 -0.5086291 0.09510355 -0.17802446 -0.2803477
0.4999315 -0.48925468 0.73990464 0.9968247 -0.46841407 -0.58737016 0.34282637 1.1503835
0.60252905 -0.65423703 -0.27489507 -1.6009722 -0.20823388 0.42239776 -0.011245221 0.20122369
-0.89891505 0.53359896 0.05578029 0.4936826 -1.1640568 -0.815056 -0.4851487 -0.2989053
0.6216167 0.7036091 -1.0615715 0.9044262 0.45159826 -0.02683902 -0.9105675 -0.57971835
-0.36959162 -0.0966801 0.11261242 -0.25840217 0.045060657 -0.23490484 -0.28448564 0.06944821
0.09568507 -0.0028527204 -0.25773576 0.33619937 0.039321993 0.011721062 -0.28579658 0.2162169
-0.024196612 0.16820577 -0.2484684 0.18574019 -0.48490593 -0.48976156 0.2085482 0.27113223
0.4314427 0.24544449 0.10282056 0.47200468 -0.15090254 0.10821478 -0.11117915 -0.3240747
-0.44394526 0.13089624 -0.024133027 -0.22966155 0.027208813 -0.1790833 -0.342414 -0.124484934
0.039268512 0.17229731 0.06458347 0.23988728 0.36839736 -0.25545502 -0.2659051 0.43386105
-0.17789783 -0.11320356 -0.23988308 -0.23777021 0.50391173 0.2633828 0.20488775 0.12331964
-0.37245488 -0.37906742 0.42743364 -0.13979758 0.44009954 0.32162747 0.11865751 0.0922738

net.gru.bias_ih_l0 f4 [96]
00000000: e44c bf3e e7a4 d7bd b88e d0be a0cb 24bd
00000010: f819 8b3e e5c0 0c3f 987d 9dbb 2233 4ebe
00000020: df5d 7c3e 9b6b 143f ab1b b4be 231b 4bbe
00000030: e10b d4bd 44e2 993e 9df2 6bbd f124 f63d
00000040: 4cf1 933e 8b43 e2be c5c0 10bd e034 2b3f
00000050: 93c0 523c 7580 eb3e 5f04 af3d 20a0 313f
00000060: f332 c5bd 0184 0c3f a860 f4bc b4ae dabd
00000070: 73df 0c3f 53bf ba3e 4396 f93e 4a7f 923e
00000080: e4a5 1d3c 784a 023f 33e5 0dbe 1b51 bbbe
00000090: 39fe ebbe 73ef 5c3e 8024 ea3d 8c9f 9f3e
000000a0: d338 df3e a255 1e3f 8489 efbe f6ca f53c
000000b0: b7d0 5c3f 86a6 083f 0a92 343f 2693 353e
000000c0: 4a6f 5dbf 019a af3e 69fc aabe 6328 24bf
000000d0: 68c6 bbbd 041d 343d 4ef4 8e3f 734f 833e
000000e0: 1643 21be 15e5 eebe 4181 313f 7660 30be
000000f0: 0c4a bdbd e298 8a3e e2bc bf3f 1fbf 213f
00000100: 0125 73be 10b4 053e a9cf 21bf d95c e4be
00000110: 78bc 893e 0585 8c3e 0985 0dbf 449f 9dbd
00000120: 2b8d 843e 1685 18bf 3442 973e 0a63 b23e
00000130: 43e0 f83d 5973 003f af0c 9bbe 5b4e 2a3f
00000140: 1ecc 003f 6025 dd3e f997 00bf b754 253f
00000150: d8a7 e7bc 875d 9bbe 0b0a 113e 1a9f eebe
00000160: f3ed 383f 9af9 8e3d b2bf e2bc 76d4 123f
00000170: 9ec4 7bbf 3f25 633e 9e15 26be 3e81 11bf
0.3736335 -0.105294995 -0.40733886 -0.040233254 0.2716825 0.54981834 -0.0048062317 -0.20136693
0.24645184 0.5797669 -0.3517736 -0.1983457 -0.10353828 0.3005544 -0.05760442 0.12018765
0.28895032 -0.44192156 -0.03534009 0.66877556 0.012863296 0.45996442 0.085457556 0.69384956
-0.096288584 0.5488892 -0.029831246 -0.10677853 0.55028456 0.36474094 0.48747453 0.2861274
0.009622071 0.5089488 -0.13856964 -0.36585316 -0.46092394 0.21575718 0.11432743 0.31176412
0.4359804 0.61849415 -0.46784604 0.030004006 0.86255974 0.53379095 0.7053534 0.17731914
-0.8649794 0.34297183 -0.333957 -0.64124125 -0.09168702 0.043972984 1.1168306 0.25646552
-0.15748248 -0.4665915 0.6933785 -0.17224297 -0.09242639 0.27069765 1.4979517 0.6318225
-0.23744585 0.1305697 -0.6320749 -0.44602087 0.26901603 0.27445236 -0.5528112 -0.07696393
0.25888953 -0.59578073 0.29542696 0.34841186 0.121521495 0.50176007 -0.30283114 0.6652581
0.5031146 0.43192577 -0.5023189 0.6458239 -0.028278276 -0.30344793 0.14163987 -0.4660576
0.7223808 0.069812015 -0.027679298 0.5735544 -0.9834689 0.22182177 -0.16219184 -0.5683783

net.gru.bias_hh_l0 f4 [96]
00000000: d13c c13e e0c7 003c 95f8 15bf ad93 0fbe
00000010: 7e40 ce3e 04e0 0a3f 708a e93d 18e3 963c
00000020: d01f 1d3e e0ab e03e d70d b5be 524f 20be
00000030: 68be a7be 25dd 5f3e 6ae1 cfbc 7fe5 db3c
00000040: dc47 013e 150f e5be 0c9d c4bd 7c72 d53e
00000050: 9bad 183b 018e 6a3e e5c8 c9ba 19ee f83e
00000060: 06a3 313e 63eb cf3e 5d5b 033e 27a9 fcbd
00000070: 162e 9a3e 5430 623e b526 263f ab3a fa3e
00000080: 73ef d33d 7451 303e e234 37be 9d4b cfbe
00000090: 9814 e8be fd88 6a3e 01e7 1a3e f79b d73e
000000a0: b2d8 d93e 85d9 163f c483 31bf 0eb0 df3b
000000b0: 2f9b 3d3f acad ef3e dced 023f 331d 97bb
000000c0: 1d05 5cbf b5e3 c83e 00f5 07bf 4b92 1fbf
000000d0: 2702 debd 0394 8e3d be72 873f 9532 923e
000000e0: 3c7e cbbe 7728 8cbe 5e9e 5f3f 8357 acbe
000000f0: 2223 d9bc 14b9 fa3a c2e0 b23f 5d64 0e3f
00000100: c191 d2be 1410 12be 779b 1abe 97b0 2ebf
00000110: a5b2 a0bd 0bc2 0a3f bf75 42bf 603d 8fbe
00000120: 10a3 a63e a009 6fbe 93d7 e03a f4eb 843e
00000130: b0e9 183e c2cd fb3e ae79 92be 8108 133f
00000140: 201f 163f 1a93 0abd eb5c 25be 41cc 4a3e
00000150: 2697 3a3e e6c1 99be 6afe 84bd d730 81bf
00000160: 1c91 533e 5e7b 4f3d 3884 d9be edae 8bbc
00000170: 4703 0ebf 8912 9c3e ce88 ebbe 4ef2 f2be
0.37741712 0.007860154 -0.5858243 -0.14021178 0.4028358 0.5424807 0.11403358 0.018418834
0.15344167 0.4388113 -0.3536212 -0.15655258 -0.32762456 0.21861704 -0.02537604 0.02684283
0.12625068 -0.4473807 -0.09600267 0.41688907 0.0023296836 0.22905733 -0.0015394954 0.48619154
0.17347345 0.40609273 0.12827821 -0.12336951 0.30113286 0.22088748 0.6490281 0.48872885
0.10348406 0.17218572 -0.17891267 -0.40487376 -0.45328212 0.2290382 0.15127183 0.4211118
0.42548138 0.5892566 -0.69341683 0.0068264073 0.74064916 0.4681219 0.51144195 -0.004611635
-0.859453 0.39236227 -0.53108215 -0.623326 -0.10840254 0.06961825 1.0581892 0.28554216
-0.39744747 -0.27374622 0.87351024 -0.33660516 -0.02650601 0.0019128644 1.3974841 0.5562189
-0.41126826 -0.14263946 -0.15098368 -0.68238205 -0.07846574 0.54202336 -0.75960916 -0.27976513
0.32546282 -0.23343515 0.001715409 0.25961268 0.14932895 0.49180418 -0.2860846 0.5743485
0.58641243 -0.033831693 -0.16148727 0.19804479 0.18221721 -0.30030745 -0.06493838 -1.009303
0.20660824 0.05065476 -0.42483687 -0.017051185 -0.5547375 0.3048289 -0.4600281 -0.4745049

net.fc_nn.fc_in.weight f4 [49, 33]
00000000: 174f 07be aa84 aebd 271e 3c3e 91b7 98be
00000010: 9d97 12be 5634 d33e bf55 e4bc a117 0e3e
00000020: b8f1 12be 9eb1 f13d 0f99 eabc b3a4 cb3c
00000030: d7ce 133d 92e0 72be 9b7f b2bc 4856 3d3c
00000040: 406a 073f 5841 ebbd 564f 0b3d 6a3a 49be
00000050: 09e1 f2bc b89e 503e 345e 3f3e db6f f13d
00000060: eb03 983d 3267 9ebd 2235 803e fea2 71bd
00000070: d6c0 abbe 499c f6bd f2a8 c53d 8732 29be
00000080: 9ff2 9dbf 6467 10be 9910 0a3f 47c0 9dbf
00000090: 7f4b eb3d ee0e bd3e a087 b1be 4b85 903e
000000a0: b631 093f 978d d13c 353a 5e3d 2210 0ebf
000000b0: 1e1e 64bf a87a c1bc dcbf 6ebe 63fa db3d
000000c0: cdd0 ef3c b5f9 7dbe ea89 ec3d fb3a 123e
000000d0: 29de 89be 195b 053f b8fa 5c3e 27a9 75bd
000000e0: a96b 133f 2eb4 20bf 0322 b73e 94d3 41be
000000f0: 08c0 483f 8f82 12bf 081f b33e d738 2fbd
00000100: 7d50 313f a068 34c0 1b3e 0ebe c7ed 6e3e
00000110: 5b47 f0be 2247 cbbe 4f1e c63d f843 733d
00000120: 1672 56be d7d6 833c 344c 9bbd f6c7 093e
00000130: b945 123e e5d8 01be 9b35 113e 96f5 ccbc
00000140: d8b9 e3bc dac2 0d3e d86c 203f ade1 33bd
00000150: 2700 bbbc 956a be3c cab6 823e 80d6 7a3e
00000160: d563 d9ba 5600 8e3e 4517 81bb a5cc de3c
00000170: c3f8 f83d 0fe4 98bd c06c 803d e0bc a0bd
00000180: f5a2 153f 3e71 dcbc 5d90 95bf b975 113e
00000190: 92a3 893d ea13 883d c15c b4bd 5b85 d6bd
000001a0: fdba 15bb 447d 9c3d a0c7 343e 6aed f7bb
000001b0: 0833 58be 0115 4f3d 20f8 4a3d bad7 163e
000001c0: b9c3 153d 8662 f0bc ddfc 1c3d ccc8 c43e
000001d0: a4ab 933e 5aa0 8dbe 5507 9e3d 02aa 86be
000001e0: 5337 683e 3748 0a3d c3a5 a8bc 16f9 52be
000001f0: 6340 163c 7298 1fbe 5265 2cbe cf97 95be
00000200: 055a 823b a753 423e 5b7e 7abe 52f8 a53f
00000210: 6a96 cbbe f236 a73d 67ec 4e3e a1dd 94be
00000220: 287a ab3d 64d3 88bd 5570 5ebe 19ee b6bd
00000230: 84a2 3ebe e913 e83d de4b 9a3d 1003 bdbd
00000240: d63f 063e 7850 463e 731e 89be 86e3 efbd
00000250: 34ed 153f e262 053e b002 163d 16ed 263c
00000260: 9bc6 0b3d ac9c 923e a2e6 953e c4d7 113e
00000270: 83d9 77be 2946 863c 9867 c8be a123 e83d
00000280: 7a6a 86be 71fa 423e 5e7c eabe 9d17 e33d
00000290: fe4d cabf dd5d 0dbe 58bb 9bbd 74e7 dbbd
000002a0: ae10 b0bd f38c acbe f43e 4f3e 60e2 94bd
000002b0: f3bb 453e 7121 133d 7493 fb3d 55dd 80bd
000002c0: c1e0 413e d276 253d 4113 8b3d 5f58 e43d
000002d0: 9c0c fe3d 1711 833e c9d1 d7bc 132e cabd
000002e0: 8124 e5bc c40e dcbd 2240 20be 04d9 a0bd
000002f0: 4fb8 5abe 8f3a 853e 3692 a9be 5ccc 8f3d
00000300: fd5d f73d 9fd7 d3bd ee87 81be 4470 dfbd
00000310: eadf c8be 611e 36bf d8dd e13e 4329 ba3e
00000320: b96b e4be 1879 243f 0cdf 073f d04c d5be
00000330: a646 ac3e 1c7f a23e 82b6 9a3e 605b 01bf
00000340: b0d9 81be 0f3d e0be 49a4 d3bb 418d cc3e
00000350: dbec 943e 95d3 36bf 7f2c d2be d99d f93e
00000360: 2971 e63d 19af 243f 5a38 033f b81e 0f3c
00000370: 46a5 e1be da79 c93e 29ec db3c 1edc 793e
00000380: 7e70 09bf 64f8 68be 424c babe 306f 00bf
00000390: 4883 92bd 90cf d33e 2f46 d3bd 0dd3 11be
000003a0: 2db9 413d a62d 8ebb 1d2c 15bd a1e5 acbd
000003b0: 332a 093d c711 bfbd 9ebc 4fbe 20d7 773d
000003c0: d46b eebd 456c 103e 687c 72be c4cb bbbd
000003d0: cb8c e43d 862a d4bd 04bb 95bd 034d 413e
000003e0: f585 86bd 9933 5bbe 0cc5 0abd b29b e8bd
000003f0: 6f23 d43c f72c 733d 9735 c1bd f7fb 253d
-0.13213764 -0.085213974 0.18370877 -0.2982755 -0.14315648 0.41250867 -0.027872918 0.13876201
-0.14350021 0.11801456 -0.028637437 0.024858808 0.03608593 -0.2371848 -0.021789363 0.011556216
0.528965 -0.11487073 0.034011208 -0.1965119 -0.02964832 0.20373046 0.1868828 0.11788913
0.07422622 -0.07734527 0.25040537 -0.058993332 -0.3354556 -0.12041528 0.096513644 -0.16523181
-1.2339667 -0.1410194 0.53931576 -1.2324303 0.11489009 0.36925453 -0.34673786 0.28226694
0.5359148 0.02558021 0.05425473 -0.55493367 -0.89108455 -0.023618057 -0.23315376 0.10741117
0.029274369 -0.24802287 0.115497425 0.14280312 -0.26927307 0.5209213 0.21580017 -0.05997577
0.5758615 -0.6277493 0.35768136 -0.18928367 0.78418016 -0.57230467 0.34984612 -0.042778816
0.6926344 -2.8188858 -0.13890879 0.23332892 -0.4692944 -0.39702708 0.0967375 0.059390992
-0.20941958 0.016093655 -0.07582894 0.13455185 0.1428441 -0.12680395 0.14180605 -0.025019448
-0.027798578 0.13843861 0.6266608 -0.043916393 -0.022827221 0.023244182 0.25530082 0.24495888
-0.0016585538 0.2773463 -0.0039395415 0.027197191 0.121568225 -0.07465374 0.062707424 -0.07848525
0.5845178 -0.026909467 -1.1684681 0.14205064 0.06720652 0.06644423 -0.08806754 -0.10474654
-0.002284705 0.0764108 0.17654276 -0.0075661438 -0.21113217 0.05055714 0.049553037 0.1473073
0.03656361 -0.029343855 0.038327087 0.38434446 0.2884189 -0.276614 0.07716242 -0.2630158
0.22677355 0.033760276 -0.020586854 -0.20602831 0.009170624 -0.15585497 -0.16835526 -0.29217383
0.0039780163 0.18977223 -0.24462263 1.2966406 -0.39763194 0.08164777 0.20207368 -0.2907534
0.08372909 -0.066809446 -0.21722539 -0.08932132 -0.18616682 0.113319226 0.07534002 -0.092291
0.13110289 0.19366634 -0.26781043 -0.117133185 0.5856507 0.13026002 0.036623657 0.010188362
0.03412495 0.28635156 0.2927752 0.14242464 -0.24204068 0.016390877 -0.39141536 0.11334921
-0.2625311 0.19040848 -0.4579801 0.11088488 -1.5805051 -0.13805337 -0.07604092 -0.107375056
-0.085969314 -0.33701286 0.20238858 -0.0726974 0.19309978 0.035920564 0.12283984 -0.06292216
0.18933393 0.04039652 0.06790782 0.11149668 0.12404749 0.25598976 -0.02634515 -0.09872069
-0.027971508 -0.10745004 -0.15649465 -0.078538924 -0.2135937 0.2602124 -0.33119363 0.070214
0.12078474 -0.10343861 -0.2529902 -0.10910085 -0.39233333 -0.71140105 0.44114566 0.36359605
-0.44613436 0.64247274 0.5307472 -0.41660166 0.3364765 0.31737602 0.30217367 -0.5053005
-0.25361395 -0.43796584 -0.0064587933 0.39951518 0.29086956 -0.714166 -0.41049573 0.4875324
0.11252052 0.6432968 0.5125786 0.008735351 -0.44071406 0.39350778 0.026846008 0.24400374
-0.53687274 -0.22751004 -0.36386305 -0.5016966 -0.07153946 0.41369295 -0.10316121 -0.14240666
0.047295738 -0.004338938 -0.036419023 -0.08442236 0.03348751 -0.09329563 -0.20286795 0.060507894
-0.1164166 0.14103802 -0.2368027 -0.091697246 0.11159667 -0.10359673 -0.07311061 0.18877034
-0.06568519 -0.21406402 -0.033879325 -0.113578215 0.025895802 0.059369054 -0.094340496 0.040523496

net.fc_nn.fc_in.bias f4 [49]
00000000: e746 2dbe da04 6dbe 37cd 42bd 225c 153e
00000010: 53ab 7cbd e454 cb3c 41a6 623e a9cc 55bd
00000020: 964a 2cbe 6c9c 98bd 657e 70be dcab d93d
00000030: 60af 18be 02aa 1a3d d797 473e 1258 8cbe
00000040: af05 0f3e ebf7 993d 0fa4 18bf 7917 a3be
00000050: ca7d f33c 9da2 253d 4712 a9bd 56fa 5c3e
00000060: 4726 5ebe 5b24 7ebe 03b1 95bc 41e6 bebc
00000070: 0fc6 54be b582 933b c2b0 953c db9f 1ebb
00000080: 9be0 ca3d f18b a5bd 5aa8 87bd e8f4 d0be
00000090: 0bc7 823e 7e04 ca3e 5ea7 edbd ce48 ec3d
000000a0: f111 07bf 19a5 59be 78b2 68be 43ea 673e
000000b0: 3473 40bd 842f 13be 1d56 62be c6f2 f5bd
000000c0: a203 913d
-0.16921578 -0.23146382 -0.04755899 0.14585927 -0.061686825 0.024820752 0.22133733 -0.052197132
-0.16825327 -0.0745171 -0.23485716 0.10628483 -0.1491065 0.03775979 0.19491516 -0.27410942
0.13967012 0.0751799 -0.59625334 -0.31853846 0.029723067 0.040438283 -0.08255439 0.2157987
-0.21694289 -0.24818556 -0.018272882 -0.023303153 -0.20778678 0.0045016655 0.018272761 -0.0024204168
0.09906121 -0.08083332 -0.066239074 -0.4081185 0.25542483 0.39456552 -0.116041884 0.11537324
-0.5276175 -0.21254386 -0.2272433 0.22647958 -0.046984866 -0.14373595 -0.22103162 -0.12009196
0.07080771

net.fc_nn.fc_hidden.0.weight f4 [48, 49]
00000000: e1a6 c23e 8c9b f7bd 3a26 223f fb22 983e
00000010: 0779 ee3e a889 ac3d 9879 913d 5c82 9f3e
00000020: 84fb 1a3f 01ef 6b3e bcc7 4d3d 982c b6be
00000030: 621b 06bd f913 c13c 623b 83bd b581 673e
00000040: 5f1c d6bd 4c53 d5bc d33a a33e bf0c 203e
00000050: ba6d c33e 8788 08be b0f6 84bf 89e9 87bd
00000060: d6fc bd3e d402 4a3e 53ee 6f3e ebad 083f
00000070: 8372 053f d365 f93c 7a26 a5be 3624 8e3e
00000080: 440c 7cbe bd15 1f3f ad56 c63c 26c7 873e
00000090: 8e93 ec3e 684f d83c 54d1 953e 4c30 a3be
000000a0: 5abf ba3b 25be c03e 45d8 c53e 3f0e 75bf
000000b0: cb55 a13d 549b 343e ed4b 653e f276 923d
000000c0: 0e15 263e 0cc2 2cbc 78ba 96be 71ab bcbe
000000d0: b4e3 6c3d ea38 d8bd a0b0 8e3e 34f4 99be
000000e0: e085 0c3e e155 c2be 4b8f a23e f7bf c53d
000000f0: 1a56 423f 9a05 a63d ec6c 993c dccc cebc
00000100: 97aa b63e 4ae8 83be 0cf3 e23e 5540 8c3e
00000110: a543 ea3d ffea 32bf 984b cbbe b54d 173f
00000120: a6a9 7cbe bb7a 5cbd b389 043e 5549 a83d
00000130: a411 a13e 1e81 253e 7bec 393e 87f4 6cbe
00000140: 71b8 2fbe e8ab 32ba 5925 4fbe 9953 19bf
00000150: bbeb 6d3e 9789 10bf c7a2 adbe ad62 8ebd
00000160: 8e61 8abe d9cb f3be 2fd6 45be c1f1 53bb
00000170: 9c09 173e 9a8b a6be 8f7e 39be 1d93 2e3d
00000180: 1b86 93be 2ffd a33a 1356 433e ef52 2b3e
00000190: c8a9 04bd 07b3 a03e aefc 90bd b5fb 803e
000001a0: 4f3b 803d ea6c 113e 34c7 2f3e 8bdb 903e
000001b0: 4ee7 133e 5fef 633c d4cc ba39 8737 a03e
000001c0: f8f2 ce3e 60eb cb3e 874e c93e b585 b63d
000001d0: 9a10 dcbd 6ec6 293e e5db 553d 3a6d 753e
000001e0: b373 5fbc e86a 583e af65 943d d33f d13d
000001f0: 8f60 39bd ecc8 973e 0547 a7bc 26cd 233d
00000200: 8393 cc3d 4cd7 d9bc 0f52 203e b426 9e3d
00000210: aa5c 183f bc50 bdbc e20b 773e e0a6 753e
00000220: 1628 3f3e 9b33 17bd e96a a53e 91c4 6e3e
00000230: 1961 f53d e07e 2b3e 9bb4 8b3e 121c 983e
00000240: 6590 1d3e 97ca 003f 3bc8 b23e 1dd0 5fbf
00000250: d361 33bf 12c9 89bf d316 703e 1904 6ebf
00000260: 4507 3dbf 461a 1dbe adb8 18bf 2202 26bf
00000270: 6649 57bf ffd6 13bf c4dc a3be de7b 593e
00000280: 4877 a73e 3ebc 433e 76a3 19be 8cff 7ebe
00000290: ced9 64be 24d5 493e c8e7 0bbe f10a 84bf
000002a0: df7b 3a3e 27da 4abe 59de dfbe 9f15 40bf
000002b0: 77e4 44be dd99 20bf fefa 61bf de08 04bf
000002c0: aca8 533b e8db 03be 1a45 31bf d8c5 9e3d
000002d0: ead9 52bf 322a b6be c313 ddbe ac29 a8be
000002e0: 51e5 48be f1ad 51bf 8bd3 a9be e0ab 19bf
000002f0: 3a6c 28bf b84c fcbe a422 7ebe 5ed0 2fbf
00000300: c50f eabe d57a e13d acff 4a3e 5080 4dbe
00000310: 736e 9c3e 479a 20bf 261d 773e 9487 a43d
00000320: 38e8 983e 6c8b 8e3e 87f2 fb3d 64f6 c03d
00000330: 4d43 bd3e 9f5c 5b3e 5a0d 353e 7371 1ebe
00000340: 03ed afbd b011 923d 466c 5cbd 3385 433e
00000350: f665 71be 8a74 fabd 5aed e43d c840 1f3e
00000360: a760 9a3e 6402 9dbd 3417 77bf b637 b23b
00000370: ffbe 873e e647 473e fb50 9f3e 8960 ff3d
00000380: e869 653e 938b 083d 3839 3bbc ac39 b13e
00000390: 576c 4ebe de26 513e 0010 a63d fbec 043e
000003a0: 20e6 143d 1d0b 7b3e 95a6 1f3e f7c8 8ebe
000003b0: 20ad 8abd 1d93 dcbc 3b02 823e 2c3b 45bf
000003c0: 9dfa 6b3e e13a c73d 2a71 f63d 8a10 8abd
000003d0: fffb 8f3b a42c de3e 98ee c7be 469c 10bd
000003e0: ec10 013e ea1a 08bd e87d 893d 45b7 abbe
000003f0: be03 86bc 9cc8 a93e d13a cbbd ae8d 853e
0.38017944 -0.12090215 0.6333958 0.29714188 0.46576712 0.08424693 0.0710327 0.31154144
0.6054003 0.23040392 0.05023931 -0.35580897 -0.032740958 0.023569094 -0.06407811 0.22608073
-0.1045463 -0.026040696 0.31880817 0.15629862 0.38169652 -0.13333331 -1.0387783 -0.0663634
0.3710696 0.19727641 0.23430757 0.5339038 0.52127856 0.030444061 -0.32255918 0.27762002
-0.24614054 0.62142545 0.024211252 0.26519126 0.46206325 0.026405051 0.29261267 -0.31872785
0.0056990804 0.3764507 0.38641563 -0.9572486 0.07877692 0.17637378 0.22392245 0.07151593
0.16218969 -0.010544311 -0.2943914 -0.3684955 0.057834342 -0.105577305 0.2786913 -0.30069125
0.13722944 -0.37956145 0.3174995 0.09655755 0.7591263 0.08106537 0.018728696 -0.025244169
0.35677025 -0.2576316 0.44326055 0.2739283 0.114386834 -0.69889826 -0.3970611 0.59102947
-0.2467409 -0.053827982 0.12943153 0.08217112 0.3145877 0.16162536 0.18156616 -0.23140155
-0.17160203 -0.0006815777 -0.20229091 -0.59893185 0.23234455 -0.56459945 -0.33913252 -0.06952415
-0.27027553 -0.4761646 -0.19319986 -0.0032340141 0.1474976 -0.32528383 -0.18114685 0.042620767
-0.28813252 0.0012511368 0.19075803 0.16730855 -0.03238848 0.31386587 -0.07079445 0.25192037
0.06261312 0.14201704 0.17165834 0.28292498 0.14443704 0.013912051 0.00035629293 0.31292364
0.40419745 0.39828014 0.39317724 0.08912221 -0.10745354 0.16579601 0.05221166 0.23967448
-0.013638425 0.21134531 0.07245957 0.10217252 -0.0452581 0.2964548 -0.020419607 0.039990567
0.09989073 -0.02659192 0.15656303 0.07722226 0.59516394 -0.023109786 0.24125627 0.23989439
0.18667635 -0.03691445 0.32308128 0.23317172 0.119814105 0.16747618 0.2728623 0.29708916
0.15387113 0.5030913 0.3491839 -0.8742693 -0.7007114 -1.0764487 0.23446207 -0.92975
-0.7383922 -0.15342054 -0.5965679 -0.64847004 -0.8409637 -0.57749933 -0.32004368 0.21238658
0.32708192 0.19114777 -0.15003762 -0.24902171 -0.22348711 0.19710213 -0.13662636 -1.0315839
0.18211316 -0.19809781 -0.43724325 -0.7503299 -0.19227777 -0.62734777 -0.8827361 -0.5157603
0.0032296581 -0.12876856 -0.69246066 0.077525795 -0.8236376 -0.35579067 -0.4317914 -0.32844293
-0.19618727 -0.8190604 -0.33169207 -0.60027885 -0.6579014 -0.49277282 -0.24817902 -0.6867732
-0.45715156 0.110097565 0.19824094 -0.20068479 0.30553016 -0.6273541 0.24132213 0.08033672
0.2986467 0.27840745 0.12302118 0.09421995 0.3696541 0.21422051 0.17680874 -0.15472965
-0.08590128 0.0713228 -0.053814195 0.1909378 -0.23574051 -0.12229259 0.11178084 0.15552056
0.30151865 -0.076664716 -0.9651978 0.00543877 0.26512906 0.19461021 0.3111647 0.124695845
0.22403681 0.033336233 -0.011427216 0.34614313 -0.20158516 0.20424983 0.081085205 0.12981026
0.036352277 0.24515958 0.1559089 -0.278877 -0.06771302 -0.026925618 0.25392327 -0.77043414
0.2304482 0.09728027 0.12033303 -0.06741436 0.004394054 0.43393433 -0.3904922 -0.035305284
0.12604111 -0.033228792 0.06713468 -0.3353826 -0.016359206 0.33160865 -0.09923328 0.26084656

net.fc_nn.fc_hidden.0.bias f4 [48]
00000000: 7650 c33e f738 b3bd 7383 563e 210e e7be
00000010: f85b 813e c73c f0bd efd8 f53e 9ffc 5bbe
00000020: 4247 d2be 023c 8ebd 4b31 63be 6157 3cbd
00000030: e38e 353e 0f3f e1be b72b cabe 5e82 0bbf
00000040: 258f a73d 6fe1 a13d 0fd0 123c f8a2 883e
00000050: af68 ecbd f442 ba3d c106 82be 1dce 2ebe
00000060: 9ad8 07bf 8a4a de3e e576 8c3d 7983 563f
00000070: 93f8 c6bd a2cc 55be ec01 5a3c de68 55be
00000080: 978e a13c d2a3 07bd 69e3 773d c083 53be
00000090: d378 dbbd abf6 8d3e eb22 a5be 51ea 47bd
000000a0: 138d 13be dd20 653c 1cd2 223d 08cf b73d
000000b0: 047c 9b3d ec0b 90bd 3811 703f 446d b73d
0.38147324 -0.087510996 0.20948581 -0.45127967 0.2526548 -0.11730342 0.4801707 -0.21483086
-0.4106999 -0.06945039 -0.22186773 -0.04598177 0.17730288 -0.43993422 -0.39486477 -0.544958
0.081815995 0.07904326 0.008960738 0.26686835 -0.11543404 0.090948015 -0.25395778 -0.17070813
-0.5306488 0.43416244 0.06858615 0.8379436 -0.097153805 -0.20878842 0.013306122 -0.20840785
0.019721312 -0.033115216 0.06051961 -0.20655727 -0.10716405 0.27727255 -0.32253203 -0.048807446
-0.14409284 0.013984886 0.039751157 0.08975035 0.075920135 -0.07033524 0.93776274 0.08956388

net.fc_nn.fc_hidden.1.weight f4 [40, 48]
00000000: aef4 91be a183 953d 7830 78bd 095a 33be
00000010: aba1 f8bc 3005 32bf 18de 843f 1108 b83d
00000020: e6af ef3e ac0c 24bf 2c33 70bf 38e6 1d3f
00000030: 4508 17be 8015 8e3f a99e ee3c 5f5e 05be
00000040: e183 8e3e ba57 0dbd a3a4 a23b e0dd f6be
00000050: 40c5 1fbf 668e bcbd d7b7 b33e ca57 173f
00000060: 7b40 f13f 4f6b 4c3d 909e ab3d 4513 de3e
00000070: 531e 4bbf ab51 453f c13c 013f 2c85 353e
00000080: db2e f23d 9c8e f7be 471a 773e d716 dcbd
00000090: 27eb 6ebe 3604 cb3d 72de aebe 1a09 13bf
000000a0: 4e13 23be 654c ff3d 132c babe af73 ec3d
000000b0: 8f01 0abf 4bc4 1fbc 47da 21bf ca5b 9cbd
000000c0: bb61 d8bc 65c0 aebd 04fc 82be 780e 803e
000000d0: 7da5 8bbd 983c 40be 7bc2 693d 8a3c 23bd
000000e0: 06db dcbb 9281 803d 9c0a 96be 011d 24be
000000f0: b0bf a23d e5e8 8fbe d3fb 01be d4d8 683d
00000100: 68f5 ea3d f16c f9bd b95a cdbd bbb0 f93d
00000110: 6d2a c6be fe2c 663d ea82 18be 628f 41be
00000120: c872 f9be 5384 55be 095a e7bd 1bda fa3d
00000130: a32d 9c3e f2c4 503d f56c 67be 3a20 8cbd
00000140: cf81 813e 628a d7be 4be9 423e bd69 153c
00000150: b9a8 083e 0f81 cc3d 66af f2bd 512a d9bd
00000160: d8d4 503e 1e63 bd3d 0362 c1be cb23 5a3d
00000170: b439 a5be fc34 6e3c 50d7 9bbe 03cd 08bd
00000180: 7620 793e ed7f 323e 1867 33be 5bf8 5ebe
00000190: 6cde e13d 0842 9fbd addc 1ebf b3ba 02bc
000001a0: 44ba d93e 4c79 4dbd 27ea b7be c09f 24be
000001b0: 8e7c f0ba aba6 c13d 3088 723e ea94 b3be
000001c0: dfa0 71bd c80c 6ebe d262 693e 7c76 af3e
000001d0: 658b 2dbe 725d 7d3e 48be e53d b7d6 b13e
000001e0: a2cb 403f 937a 2b3c d5f4 dc3e 75c4 9f3f
000001f0: 6838 88bc 10d3 b13e c152 553b 2de1 3d3e
00000200: d4c9 85bd b8fc 32bf 45f7 853e a4d4 96bb
00000210: f1ce 3f3e af27 853e d70c a63e 33c4 98be
00000220: 9a5e 283e 5502 d23e 8b10 a4be e4a4 da3d
00000230: 4495 53be 1bcd cebd 7a4b 6fbf 7a0b d23e
00000240: 98ff 2ebe cc28 bbbe 4570 2bbf 4b57 b33e
00000250: 5967 25be db03 50bf 18c0 69bf aa80 c6bd
00000260: 5212 39bd 0e3b 1ebf ebcf 9abe 5411 73bd
00000270: b542 c8be 7b20 5e3e e1f6 93bd 4ec6 9c3e
00000280: 1463 83be 1bf2 80be c68f 82be 615d 97be
00000290: 99f9 86be 99d7 1dbe ac5f 83bd cf0a 373d
000002a0: 8de6 3f3f 11b1 8bbe 6148 9bbd 0915 863e
000002b0: 2419 33bf a3bf 093f 3991 ae3e d0b4 b2bd
000002c0: 7a6d d4be 3144 0fbf 9b2b e7bd 0aff 80be
000002d0: c081 6bbe cba1 2cbe 9c81 43be 9cf9 20bf
000002e0: 7535 94be 5e35 b8be 6529 debe cb8b 02be
000002f0: cfc6 c8be d09b b73d d9c0 14bf acfa a1be
00000300: dad5 363c a96e b53e 25ef ccbe 658c 26be
00000310: d58d 303e 8818 10bf c16c f1be 7f5f c03d
00000320: 374a ff3e face e33d 4e4c bdbd 67be 7fbe
00000330: 83d4 343e 4908 0fbe 83ed 543e e6a4 1abe
00000340: a888 8abe 0900 b7be 6049 813e 3cc3 663e
00000350: 1561 92bd 90c3 ca3e a4ac 323e 4554 df3e
00000360: 8dc5 8a3e fa5e f43d 796e 883e 4788 633e
00000370: e4b6 a63c ff8f a0bd 4528 383e 6174 913d
00000380: 66c7 903e 725b 1cbf 5154 a03e 7b09 543e
00000390: 75d7 ca3e 7dfc 623b 8270 023f 1185 babe
000003a0: 256a 873e 23a0 303e d9a0 24bf a9d0 3b3d
000003b0: 47f5 28bf e180 57bb f566 eebf 7abd 9a3e
000003c0: ce22 703c ace0 9a3e dc41 05bd cc64 d43d
000003d0: d878 233d 2e2d 8ebe 2389 27bf 1e88 303e
000003e0: 0b13 eb3e f3ca 5f3e e110 24be 1661 95be
000003f0: 225d 4bbd 1ec6 8ebe 1881 933e a0e9 f63c
-0.28506988 0.07300497 -0.0605931 -0.17514814 -0.030350527 -0.69539165 1.0380278 0.089859135
0.46813887 -0.64081836 -0.9382808 0.6167941 -0.14749248 1.1100311 0.02912839 -0.13024281
0.2783499 -0.03450749 0.004963474 -0.48216152 -0.62410355 -0.09206848 0.35101196 0.5911833
1.8847803 0.049907025 0.08379853 0.43374076 -0.79343146 0.7707774 0.5048333 0.17726582
0.11825343 -0.4835099 0.24131118 -0.10746544 -0.23331891 0.099129125 -0.34154087 -0.5743576
-0.15925333 0.12465743 -0.3636175 0.115455024 -0.5390863 -0.00975139 -0.6322369 -0.07634695
-0.026413789 -0.0853279 -0.25582898 0.2501104 -0.06818674 -0.18773115 0.057070237 -0.039852656
-0.006739977 0.062747136 -0.2930497 -0.16026689 0.07946718 -0.28107372 -0.1269372 0.05684741
0.11472589 -0.12178982 -0.100270696 0.12191912 -0.38704243 0.05619525 -0.1489369 -0.18902352
-0.48720384 -0.20851259 -0.1129647 0.122486316 0.30503568 0.05096907 -0.22600158 -0.06842084
0.2529435 -0.42097765 0.19034307 0.009119448 0.13345613 0.099855535 -0.11849861 -0.10603774
0.20393693 0.09247421 -0.3777009 0.05325679 -0.32270586 0.014539 -0.30437708 -0.03339864
0.24328789 0.17431612 -0.17519796 -0.21774428 0.11028752 -0.07776266 -0.62055475 -0.007979083
0.42524922 -0.050164506 -0.35920832 -0.16076565 -0.0018347667 0.094556175 0.23684764 -0.3507455
-0.05899131 -0.23247063 0.22791603 0.34270084 -0.16947706 0.24742678 0.11217934 0.34734127
0.7531072 0.010466236 0.43155542 1.2481829 -0.01662846 0.3473134 0.0032550546 0.18542929
-0.06532636 -0.6991687 0.26165214 -0.0046029855 0.18731286 0.2600684 0.3243167 -0.29837188
0.16442338 0.41017404 -0.3204387 0.10675982 -0.20662409 -0.100977145 -0.93474543 0.4102438
-0.17089689 -0.36554563 -0.66968185 0.35027537 -0.16152705 -0.8125588 -0.91308737 -0.096925095
-0.045183487 -0.6180886 -0.30236754 -0.059342697 -0.39113393 0.21692078 -0.07224823 0.30620044
-0.25661528 -0.25184712 -0.25500315 -0.2956343 -0.26362303 -0.15414275 -0.06414732 0.044688042
0.7496117 -0.27283528 -0.075821646 0.26187924 -0.69960237 0.5380804 0.3409517 -0.087258935
-0.41489774 -0.55963427 -0.11287614 -0.2519458 -0.22998714 -0.16858594 -0.19092411 -0.62880874
-0.28947034 -0.35978216 -0.43390957 -0.1274864 -0.3921418 0.08965266 -0.5810676 -0.3163656
0.011159385 0.3543599 -0.40026203 -0.16264494 0.17241605 -0.5628743 -0.47153285 0.093932144
0.4986131 0.11123462 -0.092430696 -0.24974976 0.17659192 -0.13968004 0.20793729 -0.15101966
-0.27057385 -0.35742214 0.25251293 0.22535414 -0.07147423 0.39602327 0.1744867 0.4361898
0.27103844 0.11932178 0.26646784 0.22219954 0.02035088 -0.07839965 0.17984112 0.07102276
0.2827713 -0.61077034 0.31314328 0.20706742 0.39617506 0.0034635358 0.50952923 -0.36429647
0.2644817 0.17248587 -0.64307934 0.04585329 -0.65999264 -0.0032883214 -1.862517 0.30222684
0.014656736 0.30249536 -0.03253351 0.10370788 0.039910167 -0.27768844 -0.6544363 0.17239425
0.45912966 0.21854763 -0.16022064 -0.29175633 -0.049649365 -0.27885526 0.28809428 0.030140698

net.fc_nn.fc_hidden.1.bias f4 [40]
00000000: 5438 05be 018f 3abe 8d79 84bd b21e 23be
00000010: 9551 2cbe 4205 c1bd 6588 5a3c 4f8d 54bf
00000020: c039 f3bd 407e 28bd 4c5c f1bc 151d 46be
00000030: 13ca 333c f432 223e ac67 84be 0827 9bbe
00000040: 2948 95be a989 66bd e279 0abe 625a 1f3c
00000050: cb1c 903d 0af2 1ebe 4480 60bf d1e2 123f
00000060: 0433 32be 7d6d c7be 239f 8abe 3eb7 bebc
00000070: 19e0 3abd a08f a5be 1d68 fbbe e544 dcbe
00000080: 76d2 aabe aab3 23be 50e5 80be c52c c4bd
00000090: e087 44be 84cd a73d e796 b2bb 79a3 19be
-0.13009769 -0.18218614 -0.064684965 -0.15929678 -0.16827996 -0.09424831 0.013338183 -0.8302812
-0.11876249 -0.041136026 -0.029462956 -0.19347031 0.010973471 0.1583975 -0.25860345 -0.30303216
-0.29156616 -0.056283627 -0.13523057 0.009726139 0.07036742 -0.15522018 -0.8769572 0.57377344
-0.17402273 -0.3895072 -0.27074537 -0.023280736 -0.045623872 -0.3233614 -0.4910287 -0.43021312
-0.33363694 -0.15986505 -0.25174952 -0.095788516 -0.19192457 0.08193496 -0.005450118 -0.15003766

net.fc_nn.fc_out.weight f4 [8, 40]
00000000: 7259 973e 456d 763d 492a d8bd 2fb3 87be
00000010: 86e5 633e 5f0d 7cbe 2527 003d f195 70be
00000020: 0ef8 593d 6665 aa3d 66c9 51be c2e3 ce3d
00000030: bf89 8d3e 5ebe bc3e cdbc 08bf 4d38 aa3c
00000040: ded3 76be 95e2 b33d a380 a3bd 362d 19bd
00000050: 9a07 65be bbc9 cc3d 7933 f1bd f95f d53c
00000060: b441 91bc 4a00 bdbd 37a1 02bf 1d95 34bf
00000070: b708 0dbe b592 8cbd ce8a 88be b7de 943c
00000080: e707 6dbe 9333 1bbe 2a5d a7be fc51 85be
00000090: 95c7 30be 33b7 78be d24a c9bd 9d1c 523d
000000a0: c4c5 b8be f687 18be 174d afbe eeff 18bc
000000b0: e689 d4be d796 7dbe eee3 e63d da1f 4cbe
000000c0: 86bd cbbd 67ba 02bf 58fc c83d 8ec1 c2bc
000000d0: 928c a13d fc18 03bf e852 73be 41df bfbd
000000e0: e2b4 2c3c 88b9 6c3e f5f9 e63d 43d8 473e
000000f0: b9e7 61be 4e0f 04be e03c 6fbe 6205 333f
00000100: 2d1b a83d fd39 bebe be51 63be 5857 f03e
00000110: f44e 653e 7b78 c43d 5f6b 823d 70de 963d
00000120: 354c 5cbe 6e01 7dbd 1cb0 973a 5f1f 813e
00000130: 1990 bcbe 89ec 74be d187 acbe b863 9abe
00000140: f7d1 c6bd d79d be3d 1b5f 123e 5623 053c
00000150: 4c62 103e 814a 743e ed0d d3be 44e3 423f
00000160: 41ad aa3e d6f1 4b3e 7ec6 5e3e 7a92 693e
00000170: 9dec 06bf 7f76 a839 bc9b 5abf d88d 9fbd
00000180: 309f 77bf 4ed9 7ebe d8dd efbe 3bcc 343e
00000190: 47d6 e43e 5a92 44be 57e0 013f 1db2 29be
000001a0: 6250 68be 4bc1 7bbf 150a 18bf 18ec 07be
000001b0: 7462 0bbe d069 babe 101b 66be 6f92 863e
000001c0: e6de 1cbf 8ae6 b63e be8c 5fbf d813 c2be
000001d0: 1033 643e acbc 0a3e 558d cb3e 3bb5 483c
000001e0: 7224 633f 0506 913e 1a50 153f 9171 fa3e
000001f0: 1259 4dbd 0f2b dc3e 05e7 76be c370 863f
00000200: 54ec 263e 9c7c c83e 0d3d fa3d 869e 5f3e
00000210: 4088 43be 23d2 0e3f 97c1 21bf c984 093f
00000220: d006 2abf e9c2 da3e a8a7 11bf 6144 a33e
00000230: 415d 493e 132c 15be 76d8 693f 0507 7fbf
00000240: 1916 5abf 2de0 52bf 5e5a 05bf d69f 1d3f
00000250: f483 303e 264b 47bf f097 ef3e eb90 eb3e
00000260: 6ccc 61bf edf6 9f3e 115f 04bf 016d 5ebf
00000270: 0fe4 993e e1a5 e53e 75fe 4e3f 9ece 903e
00000280: 23bd ac3e cc90 f53d 1be5 7c3e 2494 8e3e
00000290: 864c 013f 29d1 db3e 874c eebd 15bb 2b3f
000002a0: 7c47 18bc f76d 723e ab89 113e e76b 843e
000002b0: 9a74 d63d e015 813e fed5 20bf 785d d03e
000002c0: c13b 2fbf 637e bb3e 5fe0 0bbf fe95 9b3e
000002d0: d356 5c3e 68c1 5ebe 9178 fa3e 4b39 b43d
000002e0: a1db 00bf d1e3 35bf 5590 01bf 8d60 3cbf
000002f0: 863c bd3e b09d cabe 78d6 b53e 6df1 043f
00000300: 36ba 1ebf 56d2 7b3e 8b56 eabe 4375 06bf
00000310: c518 7fbd 47d9 dd3e 0e9f 33bd efac 083f
00000320: 04b9 30be 49be 163e 60a3 a5bd 6bb4 62be
00000330: 2015 cbbe d05b 203e 6f04 febd 5d41 ec3e
00000340: 4b16 47be 83bc bbbe 958c c53d 0bbd 74be
00000350: 508b 8dbc 94e5 b5be ee51 1ebf b1fa 2b3d
00000360: 16aa 54bf e022 ce3e 8f1d 3ebe d9bd 5fbd
00000370: f292 62be dfc6 dcbe 5c86 dc3e 3042 0c3f
00000380: 82a2 ccbd 393e 4ebf ae18 31bf 9296 143f
00000390: 3b19 ae3e 4460 07bf 7354 613e 2226 b63e
000003a0: d46d 28bf 6d55 093e 6bb7 0ebf c4d7 5bbe
000003b0: 1196 0abe 8da6 203e a0ec 67be 70b7 b8bc
000003c0: 5c5c 6ebe bc71 3b3d 7434 57bd a297 2b3e
000003d0: 9e3c 5dbd c64e d73d 89fa 64bd 147e 8c3e
000003e0: 2b9f 353d 5a3c ca3d e40d b13e ee63 803d
000003f0: 893c 9dbe ce60 46bd c999 20bf e0b5 65bd
0.2956043 0.0601628 -0.1055494 -0.26503894 0.22255525 -0.24614476 0.03128733 -0.23494698
0.05321508 0.083201215 -0.20486984 0.10102035 0.27644154 0.3686399 -0.5341309 0.0207788
-0.24104258 0.087834515 -0.0798352 -0.037396632 -0.22366181 0.099994145 -0.11777396 0.02604674
-0.017731525 -0.09228571 -0.51027244 -0.7054003 -0.13772856 -0.0686392 -0.266684 0.018172605
-0.23147546 -0.15156393 -0.32688266 -0.26039112 -0.17263635 -0.24288635 -0.09828724 0.05129682
-0.36088383 -0.14895615 -0.34238502 -0.009338362 -0.41511458 -0.24764572 0.11273943 -0.19934025
-0.09948258 -0.5106568 0.09813756 -0.023773935 0.0788814 -0.5121 -0.23762095 -0.09368754
0.010541173 0.2311765 0.11278144 0.19516091 -0.22061051 -0.12896463 -0.23363066 0.6993009
0.08208308 -0.37153617 -0.22199151 0.46941638 0.223934 0.09593292 0.06368136 0.07366645
-0.21513446 -0.06176894 0.001157287 0.25219247 -0.36828688 -0.23918356 -0.3369737 -0.30154204
-0.09708016 0.09307449 0.14294092 0.0081261005 0.14099997 0.23856546 -0.41221562 0.7612803
0.33335307 0.19916472 0.21755406 0.22809783 -0.52704793 0.00032131744 -0.8539388 -0.077907264
-0.96727276 -0.24887583 -0.4684894 0.17656033 0.4469473 -0.19196454 0.5073294 -0.16571851
-0.22686914 -0.98341817 -0.59390384 -0.13273656 -0.13611776 -0.36408854 -0.22471261 0.26283595
-0.61277616 0.35722762 -0.8732413 -0.37905765 0.22285104 0.13548535 0.39756265 0.01225024
0.88727486 0.28324905 0.5832535 0.4891477 -0.050133772 0.430016 -0.24111564 1.0503162
0.1630109 0.3915757 0.12218676 0.21837816 -0.19094944 0.55789393 -0.6318602 0.5371824
-0.66416645 0.4272683 -0.5689645 0.31888106 0.1966448 -0.14567594 0.9134592 -0.99620086
-0.8518997 -0.82373315 -0.52091014 0.61572015 0.17237836 -0.7784904 0.46795607 0.46009
-0.8820255 0.31243077 -0.5170756 -0.86885077 0.30056807 0.44853118 0.8085702 0.28282636
0.3373805 0.119905084 0.24696772 0.27847397 0.5050739 0.42933014 -0.1163569 0.6708234
-0.009294387 0.23674761 0.14212672 0.25863573 0.10471459 0.25212002 -0.62826526 0.4069631
-0.6845055 0.36619863 -0.5463924 0.30387872 0.21517496 -0.21753466 0.4892011 0.0879999
-0.5033513 -0.71050745 -0.5061086 -0.73584825 0.36960238 -0.3957343 0.3551519 0.51930887
-0.62002885 0.24591956 -0.45769152 -0.5252268 -0.06227948 0.43329832 -0.04385286 0.53388876
-0.17258078 0.14721026 -0.08087802 -0.22139136 -0.39664555 0.15660024 -0.124031894 0.46143618
-0.19442098 -0.3666726 0.096459545 -0.23900239 -0.017278343 -0.35526717 -0.61843765 0.041987125
-0.8307203 0.40260983 -0.18565963 -0.054624412 -0.22126368 -0.43120477 0.43071258 0.54788494
-0.099919334 -0.80563694 -0.69178283 0.5804225 0.34003624 -0.52881265 0.22004871 0.35575968
-0.65792584 0.13411494 -0.55748624 -0.21469027 -0.13533808 0.15688534 -0.22648859 -0.022548407
-0.2327742 0.045762762 -0.052540258 0.16757062 -0.054012887 0.10513072 -0.05590299 0.2743994
0.044341248 0.098747924 0.3458091 0.0626906 -0.30710247 -0.048432164 -0.6273466 -0.056081653

net.fc_nn.fc_out.bias f4 [8]
00000000: 73dd c73f 27a9 523f 26be 7ebe 9c9b afbe
00000010: 5c04 62be 7923 edbe 92f8 213f db59 773e
1.5614456 0.82289356 -0.24877223 -0.34298408 -0.22071975 -0.46316126 0.63269913 0.24155371
