L96P5/results/nets/net_mytrainedmodelSignatureKernel.pth (torch, 45902 bytes, 12 tensors)

net.gru.weight_ih_l0 f4 [96, 8]
000000 59 aa ff bd 95 ad ad bd ab c8 11 be 3c b4 9e 3c
       -0.12483663 -0.08480374 -0.14236705 0.019373052
000010 4c 02 a5 3d e0 63 6b be d8 6d c9 bc 09 9c 65 be
       0.08057079 -0.22987318 -0.02458851 -0.22422804
000020 0f 4b 85 3d ce c5 19 be 34 94 e6 bc ce 71 18 3d
       0.06508457 -0.15016863 -0.02814684 0.037217908
000030 d6 02 b4 bd a0 2e 51 be 89 ed a8 3b 72 98 18 3e
       -0.087896034 -0.20427942 0.0051552695 0.14901903
000040 cd db 5b 3d 1a 97 c5 3d d5 fc 16 3d 30 01 f8 bb
       0.053676415 0.09647961 0.036862213 -0.007568501
000050 35 1b 8d 3d 6f 9b e3 3d 76 92 5c bd 27 8e 06 3e
       0.06889955 0.11113631 -0.053850614 0.13140164
000060 64 6f 6d bd e2 c5 96 be 2a 9a cd be 20 08 08 bd
       -0.05796756 -0.29447848 -0.4015668 -0.033210874
000070 49 67 18 be fb c5 bb bd 1d 8e 7f bd 4e 3c 54 be
       -0.1488315 -0.09168621 -0.06239139 -0.2072613
000080 c5 c2 4c 3d e0 93 77 bd b0 a9 d9 bd bc 00 dd 3d
       0.049990434 -0.06044376 -0.106280684 0.10791156
000090 d8 61 34 bd 84 73 e2 bd 86 a2 3a 3e ce 07 17 be
       -0.044038624 -0.11057189 0.1822606 -0.14749071
0000a0 37 c8 d3 bd d5 c3 e6 3d d5 f8 3f 3d 49 72 8b 3d
       -0.10340922 0.11267821 0.046868164 0.068089075
0000b0 01 70 e2 bd d1 6f 0f be 87 82 ce bc 99 1b a5 bd
       -0.11056519 -0.14007498 -0.025208725 -0.080619045
0000c0 3b 89 2f be 44 3c 61 3c b3 e4 99 bb 7d 64 d3 bc
       -0.17142193 0.013747279 -0.0046964525 -0.025804752
0000d0 36 ae 7f bc 22 1e 0d be 11 14 a5 3d 3c e5 00 bd
       -0.0156055 -0.13781026 0.08060468 -0.031468615
0000e0 d5 e1 93 bd bd 29 07 be 72 3f 78 bd 62 0f 4a 3e
       -0.072208084 -0.13199516 -0.06060738 0.1973243
0000f0 51 23 9e bd d0 e0 44 3e 0a ef 0f 3e cc a6 65 3e
       -0.0772158 0.19226384 0.1405603 0.22426909
000100 40 67 7f bd 49 59 3b be c2 54 39 be d4 60 2c be
       -0.062354326 -0.18295778 -0.18098739 -0.16833812
000110 61 eb ec 3c 6b 75 a8 bb 31 28 5b 3e 58 a3 c7 bd
       0.028920831 -0.0051409504 0.2140205 -0.09747952
000120 fb 8f aa be 6d f3 9a be 71 4c 91 be 15 ee 7c bd
       -0.33312973 -0.30263844 -0.28378633 -0.06175049
000130 b7 43 92 be 74 ff 5d be ca a3 02 be 42 88 6a be
       -0.28567287 -0.21679479 -0.12757793 -0.2290354
000140 d0 29 d8 bd 74 30 05 3d d3 63 8a bd 65 54 d8 bc
       -0.1055485 0.03251691 -0.06757321 -0.02640743
000150 b1 7b 50 3d 64 a1 1b 3e f7 61 a4 bd 8c 13 05 bd
       0.05089921 0.15198284 -0.08026498 -0.032489344
000160 cf 37 b7 3e 8b b0 30 3e 6c bc 3f 3d 58 e3 6c 3d
       0.35784766 0.17254846 0.046810552 0.057834
000170 25 44 7d bd f4 1c 0d bd e3 63 8c be b7 7b 43 3b
       -0.061832566 -0.03445144 -0.27419958 0.0029828378
000180 ba 7e 76 be c1 be 85 3d 03 43 45 3e 0f ec 20 3d
       -0.2407178 0.06530524 0.19263844 0.039287623
000190 3b 97 47 3d 0e e2 94 be 25 c9 9a bb fa a1 d3 3c
       0.04872821 -0.29078716 -0.0047236853 0.025834072
0001a0 7f ce 05 be 14 b9 ac bd ec 77 d4 3c 11 fb 0c be
       -0.13067053 -0.08433738 0.02593609 -0.13767649
0001b0 a2 d2 9e 3e c0 60 00 3e f0 98 fd 3d e7 5d 32 be
       0.31020075 0.12536907 0.12382686 -0.17418633
0001c0 0f 28 08 be 75 87 e5 bc 23 72 13 3e 55 ae 84 3e
       -0.13296531 -0.028018693 0.14399008 0.25914255
0001d0 9c 82 e5 bd 2d 03 32 be ff 33 dd 3c 64 f8 17 be
       -0.112065524 -0.17384024 0.027002333 -0.14840847
0001e0 15 04 9f bd cd 8c e6 3d 20 b7 ab bd 94 a8 85 bd
       -0.077644505 0.11257324 -0.08384538 -0.06526294
0001f0 b4 95 3b 3e fa 23 a7 3d e9 ef 14 3e bf af 53 3d
       0.18318826 0.08161159 0.14544643 0.051681276
000200 95 b8 08 3e c5 36 a5 3d 9e ba a0 3d 77 42 d5 bd
       0.13351662 0.08067087 0.078480944 -0.10413068
000210 e3 c4 e6 3c 8b ed 89 bd c0 52 35 bd c7 6e 6b 3e
       0.028170055 -0.06734761 -0.04426837 0.22991477
000220 6f 8f 7b 3d 47 1d ac bc 8f 9f 49 be ce 22 ae 3a
       0.061416086 -0.021010054 -0.19689773 0.0013285519
000230 b9 34 3a be 4a da 88 3d 50 a8 03 be 66 4b dd 3d
       -0.18184175 0.0668226 -0.12857175 0.10805397
000240 b7 6b 3d 3e aa a4 01 bd 5a c8 bd 3d b4 87 fc 3d
       0.18498121 -0.031651177 0.0926673 0.12330571
000250 02 9a ee bd c3 47 9f bd 5d 08 be bd f4 20 0e be
       -0.116504684 -0.07777359 -0.09278939 -0.13879758
000260 4a 6a c1 be 4d ca 3a be 71 79 19 bb a6 b2 78 3e
       -0.37776405 -0.18241234 -0.0023418332 0.24286899
000270 2c 67 ac bd 4f 99 f1 3d 70 fb 2e 3d 11 4c 81 be
       -0.08418116 0.117968194 0.04272026 -0.25253347
000280 32 6f 76 3e 8b 77 c1 3a 67 7e ef bc 19 cf 35 3e
       0.24065855 0.0014760358 -0.029235078 0.17754783
000290 76 04 13 3e 1b 49 76 3d c3 f2 83 bd 0e 3b 46 bd
       0.1435717 0.060128313 -0.064427875 -0.048396163
0002a0 72 72 1f 3a a1 ec 8a bb 82 45 91 3d 5e 85 0c 3e
       0.00060824223 -0.004239634 0.07093336 0.1372275
0002b0 26 1d 46 3d ec f6 2c be b6 c2 94 3e c8 f9 4c bc
       0.048367642 -0.16891068 0.29054803 -0.012510724
0002c0 c5 7e 3a be 94 b5 93 bd d3 9a e9 bc b0 3d d0 bd
       -0.18212421 -0.07212368 -0.028516209 -0.10168016
0002d0 f2 ca 95 3d c2 0d 83 3d 75 65 be 3e f2 8f 88 bc
       0.07314099 0.063991085 0.3718678 -0.016670201
0002e0 3a 33 b8 3d 43 81 0e 3d 02 a4 e3 3d 1a 6a a1 3d
       0.08994146 0.034791242 0.111152664 0.078815654
0002f0 40 29 5d 3c b6 1c 9b 3b 6e 3b 88 3d 35 71 42 3e
       0.013498604 0.004733647 0.0665196 0.18988498
000300 8e cf a7 3c d0 99 27 3e bd 66 b6 bc 2d 14 eb 3c
       0.020484712 0.16367269 -0.022265786 0.028696144
000310 e5 d9 01 be b4 9b 02 be 31 09 8e be 27 c9 9d be
       -0.12680776 -0.12754709 -0.27741387 -0.3081753
000320 55 2d 81 bd 08 d2 13 3e 9a 34 b1 bb 5b 26 c9 3d
       -0.063074745 0.1443559 -0.005407882 0.09821769
000330 3c c0 33 3e a7 4c aa 3d 42 de 10 3d 21 b4 fe 3c
       0.175538 0.083154015 0.03536821 0.031091752
000340 11 59 01 bc 64 6b cc bd 4c 8d e4 bd 35 06 7d be
       -0.00789477 -0.09981421 -0.11159763 -0.24709399
000350 3f f5 c2 bd 77 4f 83 be 7d 5a 11 be 1a 5f 25 be
       -0.09519433 -0.25646564 -0.14194675 -0.1614956
000360 cb b2 8b be 61 5b 5b bd c9 0c 45 3e 54 09 f2 3d
       -0.27284846 -0.053553943 0.19243158 0.118181854
000370 90 7f 10 3e 20 c6 25 be 9c 4d 1e 3d 1e 0e 64 be
       0.14111161 -0.1618886 0.038648233 -0.2227101
000380 81 09 2e ba 82 bf c0 3d 87 55 2c bd ea c5 31 3d
       -0.00066389894 0.09411527 -0.042073753 0.043401636
000390 db 6e 3c 3e 34 d5 2f 3e 87 48 01 3e 27 d5 ce bc
       0.18401663 0.17171174 0.12625323 -0.025248123
0003a0 bd fb 60 3e ed 10 85 3e 1e a9 38 3e 9a 2a 0a be
       0.2197103 0.25989476 0.18033263 -0.13492814
0003b0 da b5 4f 3d 90 a3 4c bc 97 b2 12 3e 5f f9 9d bd
       0.050710537 -0.012490168 0.14325939 -0.077135794
0003c0 b6 42 62 3d b9 e7 e1 3d ee 46 a9 3b 61 6e 98 be
       0.0552394 0.11030526 0.005165926 -0.29771712
0003d0 11 19 59 3c 85 0d 3d 3d 45 56 14 be 6e f5 04 be
       0.013250605 0.04615547 -0.14486034 -0.12984249
0003e0 0b 98 fc 3d 4d d2 d9 3d 65 7c 94 bd 66 1b c8 3d
       0.123336874 0.10635815 -0.07250289 0.09770851
0003f0 ae 51 c5 3d 5f bf 33 be 64 f7 a6 bd d3 60 60 bd
       0.0963472 -0.17553471 -0.08152655 -0.05477984

net.gru.weight_hh_l0 f4 [96, 32]
000000 90 d0 0b be a3 25 d7 3e 37 c5 8b 3d 87 91 43 3d
       -0.13653779 0.42020902 0.06824725 0.047746208
000010 f8 28 bd bc df 20 a0 bd dd 5b 0b bd 93 46 83 bd
       -0.023090824 -0.0781877 -0.034023155 -0.06409945
000020 ad 8f d4 3d 1d c2 87 bd e4 0d 6b 3b 1f 70 bd 3c
       0.103789665 -0.06628821 0.0035866434 0.023124753
000030 25 fe 5c bd 29 e9 53 be 50 35 03 bc c2 eb 0b bd
       -0.05395331 -0.20694412 -0.008008316 -0.034160383
000040 74 1e 4e bd 23 bb 11 3d 24 b4 8a 3c c8 02 0e 3e
       -0.05032201 0.035578858 0.0169316 0.13868248
000050 dd 1c 03 3d d2 b2 79 bb 56 1c c6 3d ac 49 4a 3e
       0.032009948 -0.003810097 0.096733734 0.19754666
000060 ed b8 74 3d f4 bf 08 3e 94 59 f5 bd 99 a6 8b 3d
       0.05974667 0.13354474 -0.11979976 0.06818885
000070 e5 35 3b 3d 2a 4e 21 3e be fe fe 3d 30 88 41 3e
       0.045705695 0.15752473 0.12450932 0.18899608
000080 db 24 8a 3e 08 ec 14 3e 98 b2 63 be f6 b8 8f 3c
       0.26981243 0.14543164 -0.22236097 0.017544251
000090 e9 7e 48 be 16 48 ad 3d 12 0f 92 3e c5 22 44 3d
       -0.19579662 0.08461015 0.28527123 0.04788472
0000a0 95 09 eb 3d 06 bc 6a bc 79 0f cd bd bd 20 92 3e
       0.11476437 -0.014327055 -0.10012717 0.28540602
0000b0 d6 d5 e3 b9 27 e9 14 be 17 db 53 be 5a 29 b8 bd
       -0.00043456134 -0.14542066 -0.20689045 -0.08992262
0000c0 4b 95 23 3e 18 61 01 bd 70 f6 73 3c 8c d9 e5 3b
       0.1597492 -0.031586736 0.014890298 0.007014459
0000d0 4f ed 33 be 95 25 69 3c cc 7d 66 3d ac 18 ef bc
       -0.17570995 0.014230152 0.056272313 -0.02918657
0000e0 8c 50 85 bd a5 53 1f bb d4 45 85 3e a2 01 90 bd
       -0.06509504 -0.002431133 0.26029837 -0.070315614
0000f0 95 25 8e 3e fa 86 b5 bb d2 b6 5c 3e 58 9f 6e 3e
       0.27763048 -0.005539772 0.21554115 0.23302972
000100 b3 9a cd 3c bc 7d 31 3e d6 38 10 be f7 d8 ad bc
       0.02509818 0.1733312 -0.14084181 -0.021221621
000110 85 47 01 be 48 61 8f bd 03 d9 1a 3e 17 54 41 3e
       -0.12624939 -0.07000977 0.15121846 0.18879734
000120 1d 78 0f 3e 40 93 94 bd 78 81 57 3e 5c 7f 0b be
       0.14010663 -0.07254648 0.21045482 -0.13622802
000130 cd ee ce 3d 0f fa e7 bd ed 68 bf bb d8 ab 02 3d
       0.101041414 -0.11326992 -0.0058413655 0.031902164
000140 86 ad d5 3c 18 23 1a 3e 4d 21 0e bc ca cc fc 3d
       0.026083719 0.1505245 -0.008674932 0.12343748
000150 37 ff 09 be 7b 73 a0 3d 2a 68 54 bd f2 7a 5b 3d
       -0.13476263 0.07834526 -0.05185715 0.053584047
000160 ae 9e a9 ba e1 82 96 bc 3e cc de 3d ae c6 7a bd
       -0.0012940967 -0.018372955 0.108788 -0.061224632
000170 50 18 61 3e e5 98 f7 3d 42 46 e9 3c f1 76 fb bd
       0.2198193 0.12089709 0.028475884 -0.12278546
000180 02 07 a3 bd 18 41 a3 3e a9 e6 2d 3e 08 ac 62 3c
       -0.07960321 0.318856 0.16982521 0.013834961
000190 fc 8d 1e bd e1 7e 01 be 87 2d b7 bb c0 6c 89 bd
       -0.038709626 -0.12646057 -0.005590144 -0.067101955
0001a0 2a 83 ff 3d ea 91 45 3e ad dc bb bd 13 a5 12 be
       0.124761894 0.19293943 -0.0917295 -0.14320783
0001b0 6a b9 b2 3d 87 20 20 3c 5b 9a 23 be ca b5 3b be
       0.08726771 0.00977338 -0.1597685 -0.18331066
0001c0 6d 7e 8b bd f5 85 eb 3d e3 e5 09 bd db e0 9d 3c
       -0.06811223 0.1150016 -0.033666503 0.019272259
0001d0 11 38 22 bc 00 8d 33 3e 0f 6e 4e bd 88 0e 68 3e
       -0.009901063 0.17534256 -0.05039793 0.22661793
0001e0 86 b1 ee 3d 3f 64 02 3d 37 e3 1c 3e bc fe 18 3e
       0.11654954 0.031833883 0.1532105 0.14940923
0001f0 6b 76 5a be 1b 72 81 3d 2a 66 35 be 9c 39 4f bd
       -0.21334235 0.06320592 -0.17714754 -0.05059205
000200 dc 52 80 bd a7 1a 2b 3d f9 08 f2 bd bb 25 2c 3e
       -0.06265804 0.041773465 -0.11818118 0.16811268
000210 d6 04 17 3e 67 9a 66 be 8f 31 b2 3d d4 18 5c 3c
       0.14747939 -0.22519837 0.08700859 0.013433654
000220 66 5a fd 3d 0d 06 e1 bc 98 5e 8d bc 7e 62 54 3e
       0.12370758 -0.027468706 -0.01725702 0.20740697
000230 99 73 7c be 54 70 82 be b9 fc f2 bd f4 cf 24 3e
       -0.24653472 -0.25476325 -0.11864609 0.16094953
000240 4c b6 b2 3d 42 bc 0d 3e a4 9b 69 bd 31 ce c3 3d
       0.087261766 0.13841346 -0.057033196 0.09560812
000250 6f 8d 16 3e 62 7f 2c 3e 5a 2e 6e bc 4a 67 a0 bd
       0.1470239 0.16845468 -0.014537418 -0.07832201
000260 07 2e 52 bd 99 a6 e3 3d be 7f 67 bd 36 a2 f6 bd
       -0.051313426 0.1111576 -0.05651831 -0.12042658
000270 bb 9f 01 3c 7e 0d 4a 3b c2 f8 43 bd 7c 3a 38 be
       0.007911618 0.0030830796 -0.047844656 -0.1799106
000280 48 20 60 3d 61 bb 8f bc 8b dc ab 3d bc 29 1c 3e
       0.054718286 -0.017545404 0.083916746 0.15250295
000290 cd a0 df bd 67 94 1d be 3e 67 6c 3d 93 b1 31 3e
       -0.10919342 -0.15388642 0.057715647 0.17352895
0002a0 d2 ca 9d bd 60 e4 ba 3b 71 c8 59 3e a6 ac e2 bd
       -0.077047005 0.005703494 0.21267869 -0.11068086
0002b0 76 6a 83 bd 9a 29 93 3d 35 0a e6 ba a2 2a bd 3d
       -0.0641679 0.07185669 -0.0017550649 0.09236647
0002c0 82 c5 cb bd 64 35 10 be 7d aa 06 3d 43 5a 87 bd
       -0.09949781 -0.14082867 0.032877434 -0.06609013
0002d0 3c c7 b2 3d c9 64 2f be 98 06 0d be 18 48 6c bd
       0.08729407 -0.1712829 -0.13772047 -0.05768594
0002e0 3e 6b 02 be 7d e2 07 3c 55 d6 03 3e 59 da 31 be
       -0.12736222 0.008293745 0.1287473 -0.1736845
0002f0 28 ad 12 bd e5 cc ed bd 76 64 17 3e 24 bf dc bd
       -0.035809666 -0.11611346 0.14784417 -0.10778645
000300 46 e7 bc 3d 88 02 8f 3e 17 de 82 bc e6 76 c2 bd
       0.092237994 0.2793162 -0.015975041 -0.09495334
000310 9c 20 e8 3d 8a 84 38 bc 2a 67 e0 bd 3e 6f 92 3d
       0.11334345 -0.0112620685 -0.10957177 0.07150124
000320 7c ba e1 bc 5b 3f 95 bd cb 25 d2 bd 8e e9 10 3d
       -0.027554743 -0.07287475 -0.10261115 0.035378985
000330 4e 1f 92 bc 4d db 32 be da c5 9b bd 73 d1 23 be
       -0.017837193 -0.17466469 -0.076060966 -0.15997867
000340 cb 54 24 be 23 25 db 3c 20 e7 25 bd 42 a2 1f be
       -0.16047971 0.026751107 -0.04050362 -0.1558924
000350 49 9f ce 3d ae a4 31 bd 92 be 97 3d 53 5a 3d 3e
       0.10088975 -0.04336994 0.07409395 0.18491487
000360 35 44 5e 3d 8e 82 a4 bc 73 40 bb bd 85 b4 b3 3d
       0.054264266 -0.020081785 -0.09143152 0.08774666
000370 e6 a2 5a 3d 50 de ad 3d a1 dd 56 be 6a 21 2f bd
       0.05337801 0.08489668 -0.20982982 -0.042756476
000380 6b fb 8b bc e5 64 72 3e 2c 83 78 3e 58 73 eb 3d
       -0.017087659 0.236713 0.24268788 0.114966094
000390 d5 72 19 bd 70 47 e3 bd 76 08 de bc 4d 4c 93 3d
       -0.037463028 -0.1109761 -0.027103644 0.071922876
0003a0 27 c0 96 ba 3e 1a 26 bd 75 20 36 3d 55 89 35 3e
       -0.0011501358 -0.04055237 0.044464547 0.1772817
0003b0 5b ea af 3d ed 7a 7c 3d 4a 4d 54 bd be 78 91 3d
       0.08589622 0.06164067 -0.05183152 0.07103108
0003c0 6f ed b1 3d 59 ff 17 3e dd fe 86 3b af e2 8c 3d
       0.08687865 0.14843501 0.0041197375 0.06879174
0003d0 1b 26 0d 3c dd c7 db bd cb 1e 81 3c 74 e6 e3 3d
       0.008615042 -0.1073148 0.015761754 0.1112794
0003e0 6b 14 dd bb e2 a5 99 3c 29 2a 8a 3b 23 ed 87 3d
       -0.006746819 0.018755857 0.0042164517 0.06637027
0003f0 0d d7 1f be 3b ba 93 bd a6 62 f6 bc 93 14 79 be
       -0.15609379 -0.07213255 -0.030076336 -0.24324255

net.gru.bias_ih_l0 f4 [96]
000000 dd 45 ba 3d b3 4a 68 3c f5 15 91 bd 8a db 41 be
       0.090953566 0.014177966 -0.07084266 -0.18931404
000010 18 da d6 3c bb 87 82 bb 25 91 63 be b1 bb b6 3d
       0.026227042 -0.0039834655 -0.22223337 0.08922518
000020 bb 50 b3 3d 0c d4 39 bd 1a d7 8f bd 6d 75 a8 3c
       0.087556325 -0.04536824 -0.07023449 0.020563805
000030 a4 5d 66 bd 31 cb a9 bb 44 6f c3 bc 18 06 2f 3e
       -0.056241646 -0.005181693 -0.023856767 0.17092168
000040 8d 43 20 bd 7d 97 40 bb 0c 06 12 3e d3 fb 34 be
       -0.03912692 -0.002938717 0.14260119 -0.17674188
000050 b2 e7 89 3e de db ad 3d 6a 84 cf 3b dc c0 a8 bc
       0.26934582 0.08489202 0.0063329237 -0.020599775
000060 41 9f 2c 3d 91 f1 26 be 50 91 c2 3d 9b c0 28 be
       0.042144064 -0.16303088 0.095003724 -0.16479723
000070 ad 57 31 3e 2b 4b e0 bd 6e 2a 81 bc 94 ce 9b bb
       0.17318602 -0.10951837 -0.015767302 -0.0047548506
000080 95 2c fd 3d a1 34 ca 3d d8 57 1e 3e 1b 85 99 bd
       0.12362019 0.098733194 0.15463197 -0.07496091
000090 cc 58 f7 bd 25 f4 f4 3e 47 e1 4d 3e 57 d1 13 3e
       -0.120774835 0.47842517 0.20105468 0.14435326
0000a0 32 ca 27 be 11 48 82 3d e6 94 b6 3c 65 f2 14 be
       -0.16385725 0.06361402 0.022287797 -0.14545591
0000b0 7b 3d d7 3c 9a 45 d7 bd d9 87 26 be 36 ba 9f 3e
       0.026274433 -0.10511322 -0.1626276 0.31196755
0000c0 55 9a 9c bd cd db 61 3d e8 44 80 3e ab 8c 7d 3e
       -0.07646624 0.05514126 0.2505257 0.24760692
0000d0 dc e6 3b be 20 22 2b be 55 80 a7 bd 7b bc 33 3e
       -0.18349785 -0.16712236 -0.08178774 0.17552368
0000e0 ee a0 8c 3b 12 86 27 bd e8 4b 71 bd de 87 ff bc
       0.0042916453 -0.040899344 -0.05891028 -0.031192716
0000f0 9a e9 30 3d 69 bf 24 be d4 1a 21 be f6 e8 12 3d
       0.04319153 -0.16088642 -0.1573289 0.0358667
000100 4c fa e2 3d 9b 1b 72 be e6 12 45 3d 7d 31 1b 3e
       0.110828966 -0.23643343 0.048113726 0.15155597
000110 ac 67 c4 3d c0 bb 39 be e1 0d 43 3e 2b 3d 0c 3e
       0.09590086 -0.18138027 0.19048263 0.13695209
000120 61 96 0b 3e 3d c4 00 3e eb 76 b1 bd e1 47 1b bd
       0.13631584 0.12574859 -0.0866526 -0.037910346
000130 38 d6 b6 bb 45 b9 a1 bd a9 37 a8 3c 1c f2 2c 3e
       -0.005579736 -0.078966655 0.020534353 0.16889232
000140 2f 02 e9 3c 9f a1 2b be 06 53 23 3e 01 6a 3a bd
       0.028443424 -0.16760872 0.1594964 -0.04551125
000150 82 bb da 3c b5 7b 1f be 5e ea a1 3d 0f 75 d2 bb
       0.026700739 -0.15574534 0.0790603 -0.006422646
000160 ad da f1 bd b9 72 ae 3c 69 33 07 be 36 b9 d5 3d
       -0.11809287 0.021294938 -0.13203205 0.10435717
000170 90 ca 09 3d c9 63 64 bd 01 28 4d 3d d8 a9 f3 3d
       0.033640444 -0.055759225 0.05008698 0.118976295

net.gru.bias_hh_l0 f4 [96]
000000 fc 6f 78 bd 9c 37 35 3e 31 fe a4 3c da e7 b8 3d
       -0.06065367 0.17696995 0.02014074 0.09028597
000010 b7 74 08 3e 19 0e ad 3d 3d 42 37 bc 50 11 40 be
       0.13325773 0.084499545 -0.011185226 -0.18756604
000020 7f a0 71 3d 39 4b 86 be a9 68 d9 bd e4 38 19 3d
       0.05899095 -0.26229265 -0.106156655 0.03740777
000030 4e 87 9e 3d 5e 34 3f bd 66 1e d7 bd d2 f6 af 3d
       0.07740651 -0.0466808 -0.10503845 0.08591999
000040 bf 55 34 bd 83 89 34 be 71 55 e1 bc aa 66 a2 bc
       -0.044027086 -0.17630582 -0.027506562 -0.019824345
000050 1c 1e ef 3d 38 1e 02 3e e3 37 0d 3e 33 a6 0e 3e
       0.11675665 0.1270684 0.1379085 0.13930587
000060 e1 95 0d bd 5c 02 0d be 5a 43 05 bd 0d 2a 12 be
       -0.034566764 -0.13770431 -0.032534935 -0.14273854
000070 1e f8 75 3d 48 fa f5 bb 78 c4 5e bd 9e 80 1d bd
       0.060051076 -0.0075066425 -0.054386586 -0.038452737
000080 6e a4 1c be 03 7a 99 bd a1 32 f0 3d 78 1b f0 3c
       -0.152971 -0.07493975 0.11728407 0.029309973
000090 f4 03 16 be 96 6a f5 3e 94 31 1b 3d 80 95 9e 3d
       -0.14649945 0.4793288 0.03788908 0.077433586
0000a0 9d af 27 be b0 e7 69 be aa 2b 24 3d 6c 36 80 3d
       -0.16375585 -0.22842288 0.040080704 0.0626038
0000b0 18 0c 81 bd c3 36 7f be 0a ea 46 be 03 c9 a9 3e
       -0.06301135 -0.24923234 -0.19425216 0.33161172
0000c0 d8 3e 6c 3d 83 81 a3 3d 45 0c 5a 3e 29 d0 17 bd
       0.05767712 0.07983687 0.21293743 -0.03706375
0000d0 33 5f 3b be e5 41 cd 3d b8 3d 05 be 38 f3 f2 3d
       -0.18298034 0.10022334 -0.13011825 0.118627965
0000e0 db d8 4e be 05 69 e7 3b 55 37 f6 bd d2 74 b8 bd
       -0.20199911 0.00706208 -0.120222725 -0.09006657
0000f0 4c cf b3 bd d4 3f 4a 3d fc 3b b9 3c e4 97 af 3d
       -0.08779773 0.049377277 0.02261161 0.08573893
000100 5c 00 21 be f1 04 b7 be 11 91 34 be ae 3d 08 3e
       -0.15722793 -0.35745957 -0.17633463 0.13304779
000110 c7 87 03 be 8c 4c 06 bd 8c 7d 7e bc e4 91 ee 3d
       -0.12844764 -0.032787845 -0.015532862 0.1164892
000120 88 9f 86 bd 62 f7 a5 bd d8 49 ce bd 59 86 f0 bd
       -0.06573397 -0.08103825 -0.10072678 -0.11744375
000130 2f 1e 35 bc 35 25 31 3d a0 79 83 3c 07 e5 5f bd
       -0.01105456 0.043248374 0.016049206 -0.054661777
000140 ed 3d 00 3e 7c 89 9d 3d ed 43 46 3e 83 66 c4 3c
       0.12523623 0.07692239 0.19361849 0.023974663
000150 45 2c ca bc 75 04 95 bc 47 a0 7a be f3 94 1f be
       -0.024679312 -0.018190602 -0.24475203 -0.15584163
000160 60 bd 0e 3e d4 25 0e 3e 5f 0f 3d 3d 36 f5 49 3e
       0.13939428 0.13881618 0.046157237 0.19722447
000170 de c1 9d 3d f7 dd 08 3d f4 af 00 3e eb e2 7e bd
       0.07702993 0.033414807 0.12567121 -0.062228125

net.fc_nn.fc_in.weight f4 [49, 33]
000000 4e 57 35 be 46 81 30 bd a0 5a 7b bc 78 4c 1f be
       -0.17709085 -0.043092035 -0.015341431 -0.15556514
000010 99 1b d9 3d 14 45 60 bd 22 f7 a3 3d 8e 2b 03 bd
       0.10600967 -0.054753378 0.08006121 -0.03202396
000020 31 20 71 3c f5 42 0a 3e d4 db 3e bd 7b ce 07 be
       0.014717148 0.13502105 -0.046596363 -0.1326236
000030 f5 35 e9 3d 8d 9b 54 3e 4b f2 0f 3e f2 e4 f4 bd
       0.113872446 0.20762463 0.14057271 -0.1195773
000040 73 65 c0 bd 11 6d fa 3c 5b a2 bd 3d b8 a6 99 bd
       -0.0939435 0.030569585 0.092594825 -0.07502502
000050 42 93 de bd 6a 53 64 bd 13 3a 12 3e 72 f9 b4 bd
       -0.10867931 -0.055743612 0.14279966 -0.088366404
000060 6b 75 b5 bd 9c 80 19 3a 22 3e de bd ab 50 4b 3b
       -0.08860286 0.0005855651 -0.10851695 0.0031023424
000070 f0 09 6b 3d cf df 2c be 75 99 56 3d 7e e1 a3 bd
       0.057382524 -0.16882251 0.05239244 -0.080019936
000080 cf d8 90 3e 0e 35 04 3e 24 80 57 be a7 53 fc 3d
       0.28290412 0.12910864 -0.21044976 0.12320643
000090 60 05 dd bc 1c eb d9 bd 6f f0 97 bc 88 91 ae 3c
       -0.026980102 -0.10640547 -0.018547265 0.02130963
0000a0 8c a6 06 bb f9 87 66 bd 70 fd 63 3e c1 56 37 3e
       -0.0020546047 -0.056282017 0.22264647 0.17904188
0000b0 6d eb 0e 3e 47 5a 07 be 53 99 cd 3d 12 8f 05 3e
       0.13956995 -0.13218032 0.1003901 0.13042858
0000c0 db e1 8d 3d ed f7 62 bd 7b 79 f8 3c 8c 3b cd 3c
       0.06927844 -0.05541222 0.030331364 0.025052808
0000d0 81 dd 2d 3e 33 96 da 3c 38 b8 6a bd 22 38 f5 bb
       0.16979028 0.026682949 -0.05730459 -0.007483498
0000e0 13 ba 4e 3d 38 46 c3 bd 7c 1e 1b bd 2e 32 bc 3d
       0.050470423 -0.095348775 -0.03787087 0.091892585
0000f0 09 61 13 3e ca 77 e3 bd 78 b1 4b be 6e 7d 4c 3e
       0.14392485 -0.11106832 -0.19891918 0.19969723
000100 d0 d9 e5 3d 66 4e cd 3e b8 f2 31 bd d2 4c 92 3e
       0.11223185 0.40098876 -0.043444365 0.28574234
000110 66 d0 e1 bd b4 8f 1c bc 03 54 72 be e3 e5 1a bc
       -0.11026077 -0.009555746 -0.2366486 -0.009454223
000120 f7 ff e2 bc 9d fb cc bc 0f af 0a 3e bb f3 95 3d
       -0.027709944 -0.025022322 0.13543342 0.073218785
000130 ca c2 05 3e 31 a0 4b 3e dd 08 f1 bd b3 19 7e 3d
       0.13062587 0.19885327 -0.11769269 0.062036227
000140 bb 51 a6 bc 66 4d 05 bc c7 41 ee 3c 75 e6 9b bc
       -0.020302644 -0.008136129 0.0290841 -0.019030789
000150 f2 e7 81 3e 33 8d 98 3b ba a5 83 bc 41 c2 a6 bd
       0.25372273 0.004655504 -0.016070236 -0.0814252
000160 82 da d0 bd 51 2d 4e 3c f4 00 ec 3d bb c5 36 bc
       -0.10197927 0.012584046 0.11523619 -0.011155541
000170 bd c9 fb bd b3 52 41 bc e5 99 47 3d b8 0c eb 3d
       -0.12294338 -0.011799502 0.04873075 0.11477035
000180 64 0c 8b bd dd a5 a0 3e 07 c0 0f 3f af ee b4 bc
       -0.06789473 0.31376544 0.56152385 -0.02208647
000190 35 09 4a 3c 96 35 16 bd 8c 18 91 3d dc bd 24 3d
       0.012331297 -0.036672197 0.0708476 0.040220127
0001a0 2d c1 a0 3d 99 40 01 3c 6f 07 4c bd 61 3d 5b 3e
       0.07849345 0.007888936 -0.049811777 0.21410133
0001b0 3b 8f 62 be c2 53 2b be 52 8a e1 3c 0f 1c 25 bd
       -0.2212495 -0.1673117 0.027531777 -0.040309962
0001c0 f5 9d 3a be 14 d7 2d be ed 95 f0 bd 6d dc 90 bc
       -0.18224318 -0.16976577 -0.11747346 -0.017683232
0001d0 97 ac 38 be f3 e6 dc bc 7d 03 bb bd 52 0b 10 3e
       -0.18034588 -0.026965594 -0.09131525 0.14066818
0001e0 db 32 df 3d 64 ef 2c be 94 b0 85 3d 24 62 0d be
       0.10898372 -0.16888195 0.0652782 -0.13806969
0001f0 16 0b 53 3e 49 62 c6 3c 45 35 d3 bd 7b bf 3e 3e
       0.20609698 0.024216788 -0.10312895 0.18627732
000200 a3 57 1c 3d 34 51 12 bd ea b1 d2 3c 52 cd f6 be
       0.038169514 -0.035721973 0.025719602 -0.48203522
000210 90 b7 d8 3d 5e 6a d8 bc af 65 36 be 48 24 12 3d
       0.10581887 -0.026417907 -0.17812227 0.03567913
000220 ab 4a ef 3c 4c 6b 86 b9 3d 58 11 3e 81 4d 99 3d
       0.02921041 -0.00025638414 0.14193816 0.07485486
000230 d9 7a 09 be 04 31 56 bc 6b 4e 32 3e f4 81 18 3d
       -0.13425769 -0.01307321 0.17412727 0.037233308
000240 b7 b0 05 3e 1c 35 11 3e 7b 4e 34 3e f8 c6 8b bd
       0.13055693 0.14180416 0.17608063 -0.0682506
000250 fe 40 1c bd c3 07 66 bd 13 88 a5 3d 3e e7 ef 3d
       -0.03814792 -0.056159746 0.08082595 0.11714028
000260 93 1e 3a be a1 ad 8f bd 1a 3d 30 3d 9c 12 b8 3d
       -0.18175726 -0.07015539 0.04302702 0.089879245
000270 45 32 19 3e c6 0a e8 bd 8f a3 06 be e2 fe a6 bd
       0.14960583 -0.1133018 -0.1314833 -0.08154084
000280 c5 38 b2 bc 50 69 0e be 6d cc a8 3c a1 da 08 3e
       -0.021755585 -0.13907361 0.02060529 0.1336465
000290 1c b4 43 3e d8 85 e9 bd d8 57 86 3d e0 63 d1 3d
       0.19111675 -0.11402482 0.065597236 0.10224128
0002a0 c5 f5 b5 bd be cd 80 bd 8e 11 ad 3d 0d 78 ad bd
       -0.088847674 -0.06289242 0.08450614 -0.084701635
0002b0 04 6a df 3d b8 5e 63 bc c3 01 91 3d 30 bf 6f bd
       0.10908893 -0.013877563 0.07080414 -0.05853194
0002c0 d0 b2 e8 bc 1f 2f 7b 3d 0e 1d b1 bd de 47 ca 3d
       -0.028405577 0.061324235 -0.0864812 0.09876989
0002d0 57 39 ca 3c da 32 48 3e 63 55 25 be 41 ad 82 3d
       0.024685545 0.19550648 -0.16145854 0.06380702
0002e0 7f e0 28 3e 1b 67 67 bd 1d 19 07 be af 86 20 be
       0.16491888 -0.056494813 -0.13193174 -0.15676378
0002f0 db 2f 02 bc e2 f9 bc bd b9 bf 34 3e 14 99 c3 3d
       -0.00794598 -0.09227349 0.17651261 0.09550682
000300 c6 b7 4f 3d 40 14 3b 3e 86 c5 97 3d ed 31 00 bd
       0.05071237 0.18269444 0.074107215 -0.031297613
000310 b1 1f 12 3e a8 17 dc 3e 64 20 1b be 23 33 fe 3d
       0.14269902 0.42986798 -0.15149075 0.12412097
000320 b0 24 01 bd 40 be 18 be 79 24 c3 3d 04 a0 84 3d
       -0.03152913 -0.14916325 0.09528441 0.06475833
000330 66 96 98 3d 8d d7 37 bd d3 93 11 be dd de f3 3c
       0.07450561 -0.0448833 -0.14216547 0.029769355
000340 f7 3a c1 bd b4 c8 d1 bd 56 45 de 3d 26 d8 10 3e
       -0.09435075 -0.10243359 0.108530685 0.14144954
000350 bb 8b 0e 3e 03 4d a2 bd e0 aa 93 bd 91 aa 90 ba
       0.1392049 -0.07924845 -0.07210326 -0.0011037161
000360 dd 08 72 bd ed 1c 41 be bb e4 bb bd f9 0f 60 3c
       -0.059090484 -0.1885869 -0.09174486 0.013675683
000370 ca e5 85 bc bf 47 00 be d9 13 3a 3d 84 52 c1 bc
       -0.016344924 -0.12527369 0.045429084 -0.023598917
000380 c0 73 cd bc ec cd fa 3d 8b 71 8a 3d 68 84 85 bd
       -0.025079608 0.12246308 0.06759938 -0.06519395
000390 c1 7b 93 bc 80 1b f0 bd a5 e6 8f 3e 8a 6c b3 bd
       -0.018003346 -0.11723995 0.28105655 -0.087609366
0003a0 4b e4 19 bd a8 fc 50 3e f9 d5 08 bd c6 22 3e bd
       -0.037571233 0.2040888 -0.033407185 -0.04641988
0003b0 f6 a7 2c bc 68 1f 59 bd bc 09 7a 3c e2 7f 0a be
       -0.010538092 -0.053008467 0.01526111 -0.13525346
0003c0 36 ec e3 3d 2e 18 17 be a9 59 a4 bd ca 07 fb 3d
       0.11129038 -0.14755318 -0.08024914 0.12257345
0003d0 f8 4d 75 3d 93 6a 0c 3d 2c 13 f5 3d 39 7e a0 3d
       0.05988881 0.034281325 0.11966547 0.07836575
0003e0 12 ca c4 bb 80 c8 32 3c 1f 83 dc 3d 71 bb 0f 3c
       -0.006005534 0.010912061 0.10767197 0.008772717
0003f0 95 24 80 3d fb 87 86 bc af 23 91 bd 03 66 59 3d
       0.062569775 -0.016422262 -0.07086884 0.0530758

net.fc_nn.fc_in.bias f4 [49]
000000 b6 d5 9e bd 32 69 00 be 00 ca fb 3d 42 eb c5 bd
       -0.07755606 -0.12540129 0.12294388 -0.096640125
000010 09 4b 71 bd 1b f3 29 3c 42 ff 2b be 22 04 0c bd
       -0.05890945 0.010372902 -0.16796592 -0.03418363
000020 76 f5 61 3e 8b 57 25 3e 7a d5 6f bd e0 b5 32 bd
       0.22066292 0.16146676 -0.058553196 -0.04363048
000030 cb 75 30 3e ab 11 e7 bd c4 b8 56 3d 9c ab 2a 3e
       0.17232434 -0.11282667 0.0524223 0.16667026
000040 56 80 9f bd f9 db fa bd 6a 92 69 3c a2 08 90 3d
       -0.0778815 -0.12248988 0.014256099 0.070328966
000050 29 dc c6 bd 65 de 9f bd 1c e4 4b 3e 6a df 84 bd
       -0.09709961 -0.0780609 0.19911236 -0.06487925
000060 7c 28 2a 3e 14 3e 3e 3e f6 e1 34 3e a7 e1 07 3e
       0.16617006 0.18578368 0.17664322 0.13269673
000070 b6 52 2a be c1 93 6b 3d d0 aa ff bc 23 6d fc bd
       -0.16633114 0.057513956 -0.03120938 -0.12325504
000080 eb 25 b0 3c 10 e0 d0 bb a8 c7 a8 3d 6d 0c fe 3b
       0.021502456 -0.0063743666 0.082412064 0.007752946
000090 da d1 80 3d 49 45 36 3e 5f f6 0f 3e c1 db 05 be
       0.06290026 0.17799868 0.14058827 -0.1307211
0000a0 89 97 ce 3d af 2d 18 3c c2 cc d8 bd a2 0a e1 3c
       0.10087497 0.009288236 -0.105859295 0.02747089
0000b0 8e 10 89 bd e1 48 02 be fc 2d a8 bd 3f ab 95 3d
       -0.06692611 -0.12723114 -0.08211896 0.07308053
0000c0 dd 5b 08 be
       -0.13316293

net.fc_nn.fc_hidden.0.weight f4 [48, 49]
000000 0a 06 a1 bd e0 f3 a9 bd f3 b4 d1 3d a7 99 bd 3c
       -0.0786248 -0.082984686 0.102395914 0.023144556
000010 4f 83 1f 3d de c1 0f bc a3 84 2e 3e 39 aa 3f bb
       0.038943585 -0.008774249 0.17042784 -0.0029245748
000020 ad e4 a4 3d 79 0a 26 be f9 cb 14 3d a3 91 e6 3d
       0.08051429 -0.16214933 0.036327336 0.11258247
000030 97 c2 ee 3b 37 4a de bd 0e c9 26 3e d2 47 1f be
       0.0072863805 -0.10853999 0.16287634 -0.15554741
000040 15 bb 44 be d0 20 53 bd 72 32 75 3d fb f4 cc bd
       -0.19211991 -0.051544964 0.05986256 -0.10007664
000050 df 07 86 be d0 c3 b7 bb 01 0c 6b 3d f3 cb 23 3c
       -0.2617788 -0.0056080595 0.057384495 0.009997356
000060 fc b5 b4 bd 38 a5 4b bd 21 e2 c6 bd 15 ea 02 be
       -0.08823773 -0.04971811 -0.097110994 -0.12784608
000070 30 09 07 3e df 06 a6 3d c2 d9 1c be 2d d1 3d 3e
       0.13187099 0.08106779 -0.15317443 0.18536825
000080 ce 4e d2 bc 09 1b 0f 3e 9e d6 7f 3d ad ea 5a bd
       -0.025672343 0.13975157 0.062460534 -0.05344646
000090 5c 3f 8d 3d f8 98 a6 bd c8 db 31 ba 87 08 07 3e
       0.068968505 -0.08134645 -0.0006784764 0.13186847
0000a0 8e 61 b9 3d b1 19 9e 3c e3 a6 03 be 58 ee 78 3c
       0.0905181 0.01929936 -0.12856631 0.015193544
0000b0 88 e7 86 3d 65 2e 2c bd 66 c4 28 bc ac 0a 32 be
       0.0658713 -0.042036433 -0.010300731 -0.17386883
0000c0 96 28 f9 bb 2a 9a c0 bd 89 c0 8d be 06 d7 9e be
       -0.007603715 -0.094044045 -0.27685955 -0.31023425
0000d0 cc 0b 73 3e 3a ff 19 be 00 5e 90 bd 59 59 54 3c
       0.23734969 -0.15038767 -0.07049179 0.012960755
0000e0 72 5e ea bd 91 01 80 3f 09 30 7f bd 63 d7 3d be
       -0.11443795 1.0000478 -0.06230167 -0.18539195
0000f0 7d 7b 13 bf 8e af 37 be 4b 98 62 3d 2f 49 dc 3d
       -0.57610303 -0.17938063 0.05532102 0.10756146
000100 f9 5e 9e 3d 65 82 66 3e e7 ea 97 3e 4c 5c 93 3e
       0.07732958 0.22510679 0.29671404 0.28781354
000110 dc f5 21 3d 42 0b b9 3e d1 21 43 be 6f 05 41 bd
       0.03954111 0.36141402 -0.19055869 -0.047124323
000120 66 be 91 3d 01 d2 03 bd 09 c0 0d 3e 6b 8d 32 3e
       0.07116394 -0.032182697 0.13842787 0.17436759
000130 fc 3f b5 3b 3c 0b cb be 46 ff be 3d 93 2a 37 3e
       0.005531309 -0.3965701 0.09326033 0.17887335
000140 d7 a6 fd 3b 23 8a 19 3e db 24 56 bc bf fe 90 be
       0.007740836 0.14994101 -0.0130703105 -0.28319356
000150 66 a8 57 3e f7 37 02 bd 2f 20 87 3e f3 1b 3d 3c
       0.21060333 -0.031791653 0.26391742 0.011542308
000160 a3 39 38 3e 79 5f b9 be 47 1f a0 be 0d 03 78 3e
       0.17990737 -0.36205652 -0.31273863 0.24219914
000170 65 4b d2 3d d5 e2 4b 3b a9 d2 05 be c8 a2 54 3e
       0.102682866 0.0031110544 -0.13068642 0.20765221
000180 dd b7 e3 3d 35 10 59 be 37 b3 8e 3d 52 c4 56 bd
       0.111190535 -0.21197589 0.06967776 -0.05243332
000190 a5 b9 14 3e 41 bf 92 bd 49 8a 58 3d bc 56 a8 bb
       0.14523943 -0.07165385 0.052866254 -0.0051372927
0001a0 e6 c8 2a 3e 12 68 75 bd f8 36 89 bd 0a 40 bc bc
       0.16678199 -0.059913702 -0.066999376 -0.022979755
0001b0 ec a6 ed 3d 31 de 39 3e cf d5 24 be f0 3e 47 be
       0.116041034 0.18151166 -0.16097187 -0.19457603
0001c0 4b 95 82 bd d9 4e 91 3d eb f8 5c be 26 e6 ba bd
       -0.063761316 0.07095117 -0.2157933 -0.091259286
0001d0 69 64 72 bb 7a 50 af bd bd b1 8d be c8 9f 09 3e
       -0.0036986119 -0.085602716 -0.27674666 0.13439858
0001e0 d0 53 95 bd 7e b8 f0 bd b3 71 1c be d2 1d c5 bd
       -0.072913766 -0.11753939 -0.15277748 -0.096248284
0001f0 f3 29 41 3c 55 e0 47 be ff 37 c6 bd 67 eb 66 3d
       0.011789787 -0.1951917 -0.09678649 0.05637684
000200 66 4f c5 bd 7c 52 5b bd 10 c1 c1 bd ba 63 d8 bb
       -0.09634285 -0.05354546 -0.09460652 -0.006603685
000210 20 11 84 3a 65 22 aa bd 17 14 b7 3c e2 e6 56 be
       0.0010075904 -0.083073415 0.022348447 -0.20986512
000220 6d 0e 1e be 8a 1d 8f 3d 43 5b cc 3d e9 da 6d 3e
       -0.1543519 0.06988056 0.09978344 0.23228039
000230 12 b7 5e be 8b 78 b0 bd 22 3b 62 bc 4b f5 f8 3b
       -0.21749523 -0.08616742 -0.013808044 0.0075976006
000240 cd 4f b2 bd 1e 56 32 bc f8 50 18 3e 5d e9 7c 3d
       -0.08706627 -0.01088479 0.14874637 0.06174599
000250 fd 99 4a 3b 92 e7 b6 bd e2 02 86 be 08 e9 e9 bd
       0.0030914538 -0.08930887 -0.26174074 -0.114214
000260 0a ae ee 3d b4 78 1b bd 57 c7 18 bd bd 6c 85 3d
       0.11654289 -0.03795691 -0.03729948 0.06514881
000270 88 99 08 be 42 dc 01 bd 06 3c 55 3e e1 5e 3c bd
       -0.13339818 -0.031704195 0.20823678 -0.04598892
000280 cb 40 07 be d5 59 e1 bd 7f 79 2b 3d 73 7a b9 bd
       -0.1320831 -0.11003462 0.041863915 -0.090565585
000290 ca 81 a2 bd 02 0d dc bd 37 91 26 3d be d0 d0 bd
       -0.079349115 -0.107446685 0.04066583 -0.101960644
0002a0 44 9b 98 3d b1 53 19 3c d8 1a 6a 3c d1 26 aa bc
       0.074514896 0.0093583325 0.014288627 -0.020770462
0002b0 58 6d 86 3d a6 6d 47 3d c5 a9 46 be 31 7c 14 bd
       0.065638244 0.048688553 -0.194007 -0.03625125
0002c0 ed f4 22 3d 32 0f 20 3c 2c bd e9 3d 06 19 10 bc
       0.03978436 0.009769248 0.11413035 -0.008795029
0002d0 a8 21 04 3e 89 8b 7b bd 71 aa ce bd 05 5d 06 be
       0.12903464 -0.061412368 -0.10091103 -0.13121422
0002e0 71 76 83 be 41 82 10 bd 59 92 93 bd e6 0b 28 be
       -0.256763 -0.03528047 -0.07205648 -0.16410789
0002f0 d6 30 0c 3e db ca 36 be a6 07 92 bc a9 1c 5e 3d
       0.13690504 -0.1785082 -0.017825913 0.05422655
000300 e7 35 e7 bb ec 0f 3f be 7b 1f e8 bb 0b 64 94 bc
       -0.007055986 -0.18658417 -0.007083831 -0.01811411
000310 bc 47 c2 3d 77 5b 12 bd 83 d8 8b 3d 8a 5b 7d be
       0.094863385 -0.03573176 0.06828406 -0.2474195
000320 fc 28 bd 3c 8c 32 39 bd 30 b5 81 bd 80 49 89 bd
       0.023090832 -0.04521422 -0.06333387 -0.06703472
000330 24 65 31 bd 03 4e 69 3d 44 44 16 bd d6 0c bb 3d
       -0.043309346 0.056959163 -0.036686197 0.09133308
000340 7c c3 ce bc 1f 7b 04 be a4 8a cf 3d d5 c0 89 be
       -0.025239699 -0.12937592 0.101338655 -0.26904932
000350 f5 46 3c be 85 ed e9 bd 1d aa 5f be 88 25 2c be
       -0.18386443 -0.114222564 -0.21842237 -0.16811192
000360 9a 5c 90 be 96 50 38 3d 5e f4 08 be 1b 00 e9 bc
       -0.2819565 0.044998728 -0.13374469 -0.028442433
000370 98 37 f2 bd a8 70 6a bd c4 65 a0 bd 92 62 02 bd
       -0.1182701 -0.057236344 -0.0783191 -0.031832285
000380 df c5 b6 3d 71 db 05 be 9e b8 0e be 55 65 7d 3d
       0.0892446 -0.13071992 -0.13937613 0.061864216
000390 a8 3c 1b 3d 98 21 28 3e 14 b7 32 3d fb 4d 4d be
       0.037899643 0.16419065 0.04363163 -0.20049278
0003a0 9a 7f b4 3d 88 08 fb bd c7 99 f8 3c 4f 90 09 3d
       0.088134006 -0.122574866 0.030346764 0.03358489
0003b0 83 e0 c6 bc 5e 4e 1e 3e c9 ad 1b 3d 7e 21 4c be
       -0.024276977 0.15459582 0.03800753 -0.19934651
0003c0 e4 e6 05 be 12 17 01 3e fe 1c c3 bd 12 d6 a6 bd
       -0.13076359 0.12606457 -0.09527014 -0.081462994
0003d0 e7 4e 00 3c ac 61 0b 3e 4f ac 16 3e c5 32 44 bc
       0.007831312 0.13611478 0.14714168 -0.011974995
0003e0 cb 1a 20 be f3 fb 85 3c 39 3b 52 bc da 52 ce 3d
       -0.1563522 0.01635549 -0.012831503 0.100743964
0003f0 41 7d d1 3d d7 1f 14 3f 25 5d 83 bd c2 e1 a7 bd
       0.102289684 0.57861084 -0.0641425 -0.08197357

net.fc_nn.fc_hidden.0.bias f4 [48]
000000 16 36 0e be 6d 7d 3b 3d 61 6b c6 bd bf ed b4 3d
       -0.1388782 0.045773912 -0.0968845 0.08834409
000010 27 1c 7b 3d d7 b9 1b be 25 f1 39 bd 20 30 07 3d
       0.061306145 -0.15207611 -0.04539599 0.03300488
000020 d2 ad 2b 3e ff 7c 73 bd 63 84 50 ba ee 53 33 3e
       0.16765526 -0.059445377 -0.00079542975 0.17512485
000030 e9 bd 4c be 80 81 df 3d 2e 06 0d be fe a9 09 be
       -0.1999432 0.10913372 -0.13771889 -0.13443753
000040 ae ce 66 bd 42 36 d5 bc de 1c e7 bd 21 2d 50 be
       -0.05634945 -0.026026849 -0.11284803 -0.20329715
000050 cb b2 90 3c 34 07 cc bc 03 da e9 bd 99 0d e2 3d
       0.01766338 -0.024905778 -0.114185356 0.1103775
000060 e2 d4 15 be fc 08 cc bd 1d c7 dc bd 19 19 cd bd
       -0.1463199 -0.09962651 -0.10780165 -0.100145526
000070 48 bc 00 3e c8 f8 00 3d 12 c6 c4 3d 9c 24 9b bd
       0.12571824 0.031487256 0.096080914 -0.07575342
000080 c9 f1 4f be bb ff 9c 3d 44 f7 26 3e 5b ee b7 bd
       -0.20307077 0.07665964 0.16305262 -0.089810096
000090 55 cb 55 3d e8 77 18 be 3b f4 31 bd ca 5a 1b 3e
       0.052195866 -0.1488949 -0.043445807 0.15171352
0000a0 89 f3 18 3e ab b8 12 3e a1 2a b7 3d d7 ba 97 3d
       0.14936651 0.14328258 0.08943678 0.07408684
0000b0 45 a9 2b be 07 5f 33 3e 53 82 c9 bd 50 94 2b 3e
       -0.1676379 0.17516719 -0.098393105 0.16755795

net.fc_nn.fc_hidden.1.weight f4 [40, 48]
000000 48 4b f6 3d 0a 35 96 be e4 7b 41 3d de bb 39 3d
       0.120260775 -0.2933734 0.047237292 0.04534518
000010 2e 76 74 3e 6a 49 dc 3b a4 f8 2a 3e 17 6f b3 bc
       0.23873207 0.006722619 0.16696411 -0.021903558
000020 31 bd 1c be 1c fe 26 3e f4 06 45 3d 31 6c 05 3d
       -0.15306546 0.16307873 0.048102334 0.032573882
000030 56 c1 3b 3e ff 3c a2 be 4e 44 69 be a8 f3 67 3d
       0.1833547 -0.3168716 -0.22779962 0.056628853
000040 db 3e ae bc 6b e4 e9 bd ed d6 b1 3c ab e3 a5 3d
       -0.021270206 -0.114205204 0.02170893 0.08100065
000050 5d b3 0a be 70 39 9c 3d 22 ef 58 3d 83 3b 8f bc
       -0.13544984 0.07628143 0.05296243 -0.017484432
000060 56 f3 1d 3d 7d 62 14 bc 6f 99 c3 bc 4d eb 41 3c
       0.03856214 -0.009056685 -0.023876874 0.011835885
000070 d0 63 22 be fd a1 52 bd 1d ad d7 3d 7f eb 7c bd
       -0.15858388 -0.051424015 0.105310656 -0.061748024
000080 9b c4 9f 3d b8 61 25 be e8 70 99 bd 6c 34 44 be
       0.078011714 -0.16150558 -0.07492238 -0.19160622
000090 54 a8 ea bd 95 45 55 3e 7b 0d e6 bc 32 9b dc bd
       -0.11457887 0.20827325 -0.0280826 -0.10771789
0000a0 de cd 26 be 31 d4 1b be 21 fa 20 bd db 16 ad 3d
       -0.1628947 -0.15217663 -0.03930104 0.08451625
0000b0 60 a4 c2 bc 1f ee 0f be 8d 65 79 be 27 ea 3f be
       -0.02376002 -0.1405568 -0.24355145 -0.18741666
0000c0 84 5f b0 3c aa cf f6 3d e9 e5 90 3d 49 a0 b6 bd
       0.02152992 0.120513275 0.07075102 -0.08917291
0000d0 e2 ac 88 bd db 01 d2 bd c8 b9 3e bd 81 5d f9 3d
       -0.066736 -0.1025426 -0.046563894 0.121760376
0000e0 56 cd ab bc 2f fd 43 3c f7 f9 ec bc ab 05 17 bd
       -0.020971935 0.011962219 -0.028927786 -0.03687064
0000f0 8a 43 03 3d d4 e5 6a 3e 86 29 22 bd 11 2b 38 bd
       0.032046832 0.22939235 -0.03959038 -0.044962946
000100 2a f5 33 3d 70 63 43 bd 04 24 da bd ae 56 b6 bc
       0.04393498 -0.047702253 -0.10651401 -0.022258129
000110 92 98 ab bd 91 1b 59 bd 7b b7 6f 3d 36 fe 52 3c
       -0.0837871 -0.053004805 0.05852459 0.012877991
000120 13 77 79 3d 3d 0d 26 3d 9d 31 01 3d 12 16 cc 3d
       0.060904574 0.04053997 0.031541456 0.09965147
000130 24 d4 e4 3d 74 ef 81 3d eb 79 72 bd 67 29 a7 bd
       0.11173275 0.063445 -0.0591983 -0.08162194
000140 6d c6 dd bd 56 e0 06 3e 42 5e f6 3d c9 0f d8 3d
       -0.10828862 0.13171515 0.12029697 0.10549886
000150 db a1 de bd 44 8c 1d be c9 bd 80 3d a4 e2 d1 3d
       -0.10870715 -0.15385538 0.06286199 0.102483064
000160 8e 79 83 3d 9b cf 22 3e a6 7d 20 bd 7e 56 4e be
       0.06419669 0.15899508 -0.039182328 -0.20150182
000170 1e 6c 5c bd 12 e1 b5 3d 87 2a 4e bd 85 29 79 3c
       -0.053814046 0.088808194 -0.050333526 0.015207653
000180 d4 06 f6 3d 47 e8 84 3e 3d f3 8d bd 33 85 bc 3d
       0.12013021 0.25958464 -0.0693116 0.09205093
000190 f2 d6 3a be d9 1a aa 3d 1a 9f ab bd 28 55 f9 3d
       -0.18246058 0.08305902 -0.083799556 0.121744454
0001a0 c6 57 4d bd 74 2f 37 be 49 0d a3 bc 3b d4 ec 3c
       -0.050132535 -0.17889196 -0.019903796 0.028909793
0001b0 b5 8b 0b be ec 30 bc 3d f1 ac 0c 3e e6 9c 25 be
       -0.13627513 0.091890186 0.13737847 -0.16173133
0001c0 d6 43 c5 3d 17 48 06 3e dd b5 93 bd c3 0d 72 3d
       0.09632079 0.13113438 -0.07212422 0.059095155
0001d0 2e eb 70 3d ce 80 10 be ad 74 3c 3d 39 c8 b8 3d
       0.058818035 -0.14111635 0.04600971 0.090225644
0001e0 c9 1e bb bd f8 94 1b 3e b3 66 bc 3d 4b 03 58 3c
       -0.09136731 0.15193546 0.09199276 0.013184379
0001f0 6e e7 f6 3d 14 12 06 be 50 d4 a9 bd 25 d2 06 3e
       0.120558605 -0.13092834 -0.082924485 0.13166101
000200 4c 12 5d be 9f 25 47 3e 52 97 0a bd 8c b6 53 bd
       -0.21589011 0.19447945 -0.033835717 -0.051687762
000210 69 99 07 3e d0 ac 19 3c 62 18 0c 3d ca bb f1 3d
       0.13242115 0.009379581 0.03420294 0.11803396
000220 10 62 59 3e 6a f9 61 3d 81 d4 60 3d ad 78 43 be
       0.21228814 0.0551695 0.05489016 -0.19089003
000230 9b 36 6f bd 0b a8 ca 3c 41 d5 28 3e 6e 19 20 3d
       -0.058401685 0.024738332 0.164876 0.03908675
000240 70 c7 96 3d f6 a2 91 be 9b 6e e8 bd b0 17 56 bd
       0.073622584 -0.28444642 -0.11349221 -0.052268684
000250 26 42 a0 3d 78 46 37 3e 3c b0 00 3e 45 8f 93 bd
       0.07825117 0.17897975 0.12567228 -0.07205061
000260 d3 c8 2d be 52 6a 2d 3d a0 9b 36 3e 8b 47 d2 bd
       -0.1697114 0.042337723 0.17832804 -0.10267552
000270 37 a7 7c 3e 32 19 98 be da 27 39 be 3d b2 80 3c
       0.24673162 -0.29706722 -0.18081608 0.01570999
000280 83 d1 3d bd 64 68 59 be 8b 76 fc 3d 21 a0 2c 3e
       -0.046342384 -0.21231228 0.12327298 0.1685796
000290 fc 93 86 bd d1 31 32 3e 4a dc 2e 3e 95 30 e8 bc
       -0.065711945 0.17401816 0.17076221 -0.028343478
0002a0 1e 25 94 3d c2 e2 e9 bb df 8a 01 be 28 35 ec 3c
       0.07233642 -0.0071376273 -0.12650631 0.02883394
0002b0 ea ca 7b be a8 7d 56 3d 99 8f 5f bd ac f4 28 be
       -0.24589124 0.05236593 -0.054580305 -0.16499585
0002c0 02 00 f3 3d c7 4d bf bd aa ec df bb 1f b1 bf 3c
       0.11865236 -0.09341007 -0.0068336325 0.023399888
0002d0 eb e7 4d 3c a9 01 2d 3d 71 37 30 3e da 2b 8c 3c
       0.012567501 0.04223791 0.17208649 0.017110754
0002e0 4c 70 91 bd cd c1 4e bd 98 de eb 3b d4 b2 b0 3d
       -0.07101497 -0.05047779 0.007198166 0.08627859
0002f0 5d 84 2c 3d ee 51 39 3d ad 44 71 bd 7d e9 9e bd
       0.04211842 0.04524415 -0.058903385 -0.07759378
000300 a8 72 60 3d ca 18 ad 3e fd b8 d4 bd b4 fe 7b 3b
       0.054796845 0.33807975 -0.10386846 0.0038451375
000310 1c 02 3b be ce d2 2c be 0e c5 1a be 27 a9 26 bd
       -0.18262523 -0.1687729 -0.15114233 -0.04068866
000320 a9 e6 e0 3d b3 9d c0 bd cb df 0f bd ea fa 0d 3e
       0.10981495 -0.09405079 -0.035125535 0.13865247
000330 7a ad ec bc fc 1d 07 3e 36 53 41 3e 84 60 84 bd
       -0.028891314 0.13195032 0.18879399 -0.064637214
000340 8a 76 8c bd 8b 1b 08 3e 53 f5 c1 bd 57 40 74 be
       -0.06858547 0.13291757 -0.0947062 -0.23852669
000350 1f 84 1e 3e 58 4d dc bd f7 18 1a be 88 61 c5 3c
       0.15480088 -0.1075694 -0.15048586 0.024094358
000360 f7 81 06 3d 1f 57 4f 3e a1 93 78 3d 3b 15 80 be
       0.032838788 0.20248078 0.060687665 -0.25016198
000370 a7 48 cf ba cb a7 51 be 03 03 76 bd cb 80 6d 3e
       -0.0015814499 -0.20474164 -0.060061466 0.23193662
000380 fb ae 0b 3d 3e 6c 26 3e 72 fe 03 3e 45 d5 34 3e
       0.03410242 0.16252229 0.12890032 0.17659481
000390 c3 94 10 be 62 4c 52 be 27 3b 58 3b 61 88 e9 bc
       -0.14119248 -0.2053695 0.0032994242 -0.028507413
0003a0 31 76 a9 3d 87 3f 45 3e 0f ca 13 bd 72 f7 bd be
       0.08274496 0.19262515 -0.03608137 -0.37102848
0003b0 c7 80 bd bd 14 24 ab 3c 58 fc 11 3e a0 60 68 3e
       -0.09253078 0.020891227 0.14256418 0.2269311
0003c0 4f d2 e2 3d b9 ef 19 3c af 61 19 be 84 f7 f5 3d
       0.110752694 0.009395533 -0.1497867 0.120101005
0003d0 73 1c f2 bd 52 4b 71 3d d1 1f 2d 3e 6a 4e 6d bc
       -0.118218325 0.05890972 0.16906668 -0.014484027
0003e0 2c 14 2d be 22 01 3e bd bf eb ad bc bc 56 b4 bd
       -0.16902226 -0.0463878 -0.021230577 -0.08805606
0003f0 50 44 56 bd ad 5f 6e 3d 97 be ba 3d 57 84 84 bd
       -0.05231124 0.058196712 0.091183834 -0.06470554

net.fc_nn.fc_hidden.1.bias f4 [40]
000000 b7 a4 30 be 8e 43 37 3e 94 d6 9e 3d 89 4a 61 be
       -0.17250334 0.17896864 0.07755771 -0.22001089
000010 c4 f2 be 3d 61 dd cd 3b 7e c4 05 be 1a 6a 78 be
       0.093236476 0.006282494 -0.13063237 -0.24259225
000020 fe 02 03 be 4a 3b 13 bb d3 21 0e 3e 01 43 f2 bd
       -0.1279411 -0.002246576 0.1388009 -0.11829186
000030 e9 83 29 3d 8f 61 f9 3d 44 65 09 be 29 33 3a 3e
       0.041385565 0.12176811 -0.13417536 0.18183579
000040 e6 41 4a 3e 52 94 16 be c5 03 d2 bd 6c 40 0a be
       0.19751701 -0.14705017 -0.10254625 -0.13501137
000050 d3 4d f5 3c 66 18 b3 3a dc 34 0b bd 4a 81 2d 3e
       0.029944336 0.0013663888 -0.033985958 0.16943851
000060 e5 de 28 be 8c 91 df bc a0 8f 9d bc 49 c3 1d bd
       -0.16491278 -0.027291082 -0.019233525 -0.038516317
000070 e3 c9 04 be ed 0a 29 be 26 21 1a be b4 1b 35 be
       -0.12967639 -0.16508074 -0.15051708 -0.17686349
000080 a7 95 91 3d 1a c8 10 3e 3f 21 fb 3d f2 c5 2d 3e
       0.07108622 0.14138833 0.122622006 0.16970041
000090 2a aa 20 3d c8 25 33 be f7 f7 78 be dc 40 ca bd
       0.03922478 -0.17494881 -0.24313341 -0.09875652
