L96P2/results/nets/net_mytrainedmodelSignatureKernel.pth (torch, 45902 bytes, 12 tensors)

net.gru.weight_ih_l0 f4 [96, 8]
000000 a8 6b 80 bd da 99 be bc 8f 64 31 3e 85 97 1c be
       -0.06270534 -0.023266722 0.17323516 -0.15292175
000010 55 f9 e5 bd 50 ad b7 3e 66 e0 bb 3d 6f 89 22 bc
       -0.11229197 0.35874414 0.0917366 -0.009920462
000020 00 27 10 be f7 d8 1c 3f d5 e8 d3 3e 68 3c a2 bd
       -0.14077377 0.6126856 0.41388574 -0.07921678
000030 13 4f 56 3e 1f fe f9 3d 1c 1d f1 be 6d 26 17 bf
       0.20928602 0.12206673 -0.4709252 -0.5904301
000040 ba 42 1f be 51 bb 54 be 9e e4 1f 3e b8 e0 04 3f
       -0.15552798 -0.2077458 0.15614554 0.51905394
000050 09 7c 3a 3d e7 b3 09 be 3b 42 03 3d ec bd d8 3e
       0.045528445 -0.13447534 0.032045584 0.423324
000060 12 fd 21 3e 34 de 82 bc e4 d7 e2 bd 39 41 a9 bb
       0.15819195 -0.015975095 -0.11076334 -0.005165246
000070 4c ef 21 3c 32 39 ff 3d 0a 32 a3 be 19 1a 94 3e
       0.009883713 0.12462081 -0.31874114 0.2892616
000080 9f bf 7a be 17 fc af bd 21 12 02 bd 09 4a 8b bd
       -0.2448716 -0.08593004 -0.03175557 -0.068012305
000090 6d 7b 8b 3e 84 24 90 bb c2 0c 68 3e 37 52 6d be
       0.27242604 -0.0043988843 0.22661117 -0.23175894
0000a0 1c bd 36 3d 01 67 f2 3e ea 5d e6 3d da c8 b8 bd
       0.044613943 0.4734421 0.112483814 -0.090226844
0000b0 ff 27 b7 bc 4c 24 23 3d 16 71 49 be f6 94 78 bf
       -0.022357939 0.039829537 -0.19672045 -0.97102296
0000c0 44 a2 a0 bd 4e 74 4d bf 6b 6b e8 3c f2 ac cb 3e
       -0.0784345 -0.8025559 0.028371533 0.39780384
0000d0 58 24 45 3d ac 6b 8c be 65 97 a5 3e c6 94 fa 3d
       0.048130363 -0.27425897 0.32342067 0.122354075
0000e0 58 e9 8c be ba ee 1c 3d 51 70 50 3d 86 89 b3 bd
       -0.27521777 0.038313605 0.050888363 -0.08766465
0000f0 3f dc 91 3e 5e 8b b5 bd 7f 17 30 3e 5d 8e 03 3e
       0.28488347 -0.08864473 0.17196463 0.12847276
000100 05 b0 1a be 32 63 84 3d 69 b9 dc 3d 02 c6 12 bf
       -0.15106209 0.064642325 0.10777552 -0.57333386
000110 91 55 41 bd 8d dc 79 3f ee 54 4e 3b 53 e9 b9 bc
       -0.047200743 0.9760216 0.0031483728 -0.022694265
000120 5f ff a1 3e df 2b ad bd ee a9 63 be 3e 46 20 be
       0.31640145 -0.08455633 -0.22232792 -0.15651795
000130 3a cd d3 3d 54 ed 02 3e 86 36 fc bd 9a 0a 1e be
       0.10341878 0.12785846 -0.12315087 -0.15433732
000140 52 1b 4c 3e 62 12 26 be 93 e4 0e bd 16 98 fd bd
       0.19932297 -0.1621795 -0.034885954 -0.12382524
000150 90 c2 15 be f3 f7 fc bd f1 d2 34 3d 8a 77 68 bd
       -0.14625001 -0.1235198 0.044146482 -0.056754626
000160 cc cb 1c 3e a5 6b c2 3e d5 a2 16 3f 7b 0b 7c be
       0.15312117 0.3797275 0.5884221 -0.24613754
000170 f9 a1 d3 bc e7 77 41 bc ec 02 ae 3e 99 66 0d be
       -0.02583407 -0.011808372 0.33986604 -0.13808669
000180 c5 3c 8b be 2a 5f dc bd 90 35 95 3e a2 82 80 3e
       -0.271948 -0.107603386 0.29142427 0.25099665
000190 31 2e 5e bf 57 3d 69 3d fe c7 0e be 15 1e 4d 3f
       -0.8678923 0.056943264 -0.13943478 0.80124027
0001a0 50 6b 63 3f 5d 12 d7 3e 11 6b 76 be 9b 97 25 3e
       0.8883562 0.42006198 -0.2406428 0.16171114
0001b0 c2 80 1e bd 4e 13 a7 bc ed a3 1a 3e d3 bd b3 3d
       -0.03869701 -0.020394947 0.15101595 0.087764405
0001c0 c3 a2 0d 3f 37 2c 85 3e 96 2b d1 bd 86 02 98 bd
       0.5532648 0.26010296 -0.102133915 -0.07422356
0001d0 f9 6f de 3c 30 49 39 be a2 86 8b 3e 58 cf 5e 3d
       0.027153002 -0.18094325 0.27251154 0.054396957
0001e0 9a 11 2f be 1d 87 35 3e 71 ff 00 bd d5 bb 50 bd
       -0.17096558 0.17727323 -0.031493608 -0.05096038
0001f0 42 0b b5 3e 17 d8 9e bd 74 f6 c3 bd 1c ad be 3c
       0.35360152 -0.077560596 -0.095684916 0.023275904
000200 35 ad 70 bd ee f8 3a bd 41 34 11 bf 2e 6f ad be
       -0.058758933 -0.045647554 -0.5672036 -0.33873886
000210 9e a7 6f 3d 93 44 88 bd 71 ff f2 3d 23 54 22 bd
       0.05850946 -0.066537045 0.11865128 -0.03963102
000220 c0 ce 57 bd a0 2a 33 3e 01 74 95 3c ba 26 7b be
       -0.052687407 0.17496729 0.018243792 -0.24526492
000230 05 59 6d 3e 56 cc 62 be 99 95 68 3e 0b f8 4f be
       0.2317849 -0.2214826 0.22713317 -0.20309465
000240 66 95 6b 3e cd 3c cf 3d 36 f1 e0 be 2d 3a 86 bd
       0.2300621 0.10119019 -0.4393403 -0.06554065
000250 66 e3 6e 3d 38 53 0a be 8b 52 83 be 94 19 6e 3d
       0.058322333 -0.13508308 -0.25648913 0.058129862
000260 cc 7b 3c be 4f 02 82 bd 4d 04 89 3e 16 e0 e5 3d
       -0.184066 -0.063480966 0.26761094 0.112243816
000270 e3 e1 91 3e 02 54 96 bd be 75 71 be 81 f1 a1 3d
       0.2849265 -0.07340242 -0.23580071 0.07907391
000280 28 17 df 3e c1 e2 0d bc 2d ca 91 3d f5 f9 2a be
       0.43572354 -0.008660019 0.0711864 -0.16696914
000290 0b 05 35 be 75 8b 13 be c7 82 b1 3d 22 ac 22 3f
       -0.17677705 -0.14408667 0.08667522 0.63543904
0002a0 05 47 80 bb 2e 0c 1b 3f b4 16 8d 3e 5f d7 87 be
       -0.003914716 0.6056546 0.27556384 -0.26531503
0002b0 4b 16 07 3e cb 73 a1 be 0b c4 75 3e a3 3a 96 38
       0.13192098 -0.31533656 0.24000566 7.163479e-05
0002c0 fa a8 50 3e 5c f7 0f be c7 5b 2c 3e c5 80 47 be
       0.2037696 -0.14059204 0.16831885 -0.19482715
0002d0 23 b8 7b 3e 16 52 36 3d 64 c1 ba be 05 8c 0a be
       0.24581961 0.044511877 -0.3647567 -0.13529976
0002e0 d4 5b b1 be ab c8 b1 bd 8d 7a d3 bd 87 1b e6 bd
       -0.34640372 -0.086808525 -0.10326109 -0.11235719
0002f0 3f c2 ed 3e 86 9f 82 3e 0e 33 8b 3d 28 79 c9 3c
       0.4643726 0.25512332 0.06796847 0.024593905
000300 9f 05 e9 3d 5e 5f 20 be e9 0e 4f bd 6a 85 3c 3e
       0.11378025 -0.1566138 -0.05055133 0.18410268
000310 55 2d 76 3d c1 0e 13 3e 1c 43 fa bc 26 84 ae 3d
       0.060101826 0.14361097 -0.030549578 0.08521299
000320 e9 53 10 be a1 98 99 bb 66 71 45 3d 64 72 30 3d
       -0.14094509 -0.0046873842 0.04820385 0.04307784
000330 a5 5d c4 3d b6 ac 69 3d 85 e9 14 3e 31 c1 d4 3d
       0.09588174 0.057049476 0.14542206 0.10388411
000340 10 d5 ae bd 7d 30 4f 3d d4 95 9a bd 46 57 20 be
       -0.08536732 0.05058335 -0.07548109 -0.15658292
000350 e8 05 b0 3d 2c c0 7c be ac 7d 1d 3c 07 29 91 3d
       0.085948765 -0.24682683 0.009612482 0.070879035
000360 c9 f7 dc bd ff b3 b1 bd 4e 6a 69 3e f7 ca 44 3d
       -0.10789449 -0.0867691 0.22794458 0.048045125
000370 8f 85 4c bc ad 6a 11 bc 2b 6c 9f 3c ba 6f 64 3e
       -0.012483015 -0.008875531 0.019460758 0.22308245
000380 9e f7 ac bd bb 3f ba 3e 6a 44 ee 3d a6 e5 04 3f
       -0.08445667 0.36376747 0.11634143 0.51912916
000390 51 4b 1e be be f2 79 be 5e 6d a7 3c 21 0e 20 3d
       -0.15458418 -0.24409005 0.020437893 0.039075974
0003a0 77 59 2a 3c 72 48 a3 3e 8d 51 5c bd b7 81 13 3f
       0.010397307 0.3189121 -0.05378871 0.57619804
0003b0 c3 a4 e4 3d dd 3a 43 3e 62 b3 44 bd 1c b5 ca be
       0.11164238 0.19065423 -0.048022635 -0.395913
0003c0 80 b5 aa be bd 19 ab bd ea 77 8a be 1d 50 50 3e
       -0.333416 -0.083545186 -0.27044612 0.20343061
0003d0 e1 b1 8c 3e 4f 7b 9c be 34 17 97 be c8 82 e1 3e
       0.2747946 -0.30562827 -0.2950989 0.4404509
0003e0 e5 f5 88 3c 6d 01 e5 3d 9e 1f b1 bd 2a c2 3d be
       0.016718814 0.111819126 -0.086486086 -0.18531099
0003f0 f9 3f 04 3f d3 a9 73 bd 04 2d 02 bd cf 1a 1f be
       0.51660115 -0.05948813 -0.03178121 -0.1553757

net.gru.weight_hh_l0 f4 [96, 32]
000000 39 5c 9e 3c 80 db 6d be 9a 15 24 bf 3b b0 9a 3f
       0.019331085 -0.23228264 -0.6409546 1.2085031
000010 92 5b 53 bc d7 99 a6 be 65 53 1d be 48 02 b4 3e
       -0.01290025 -0.32539245 -0.15363844 0.3515799
000020 fe 66 05 be b8 8a 79 be da 32 ee 3b 6c d8 95 3c
       -0.1302757 -0.24369323 0.0072692456 0.018291675
000030 69 37 55 3e 19 1b 59 be da 2e 35 bd f1 39 0e 3d
       0.20821919 -0.21201743 -0.044234134 0.034723226
000040 de 04 49 3e 52 fb 17 3d 40 0a b3 3d 19 ad 2c bf
       0.19630763 0.037104912 0.087421894 -0.67451626
000050 18 48 92 bf 44 7f b2 3e 72 16 89 3f 42 d4 1d 3e
       -1.1428251 0.3486272 1.0709975 0.15413001
000060 95 e6 d0 be 17 73 ef bd ad 1c db 3d 18 f8 cc bc
       -0.4080092 -0.116918735 0.10698829 -0.025020644
000070 a4 e7 bb be c9 98 29 be f8 95 89 3e ae f0 f6 bd
       -0.36700165 -0.16562189 0.2687223 -0.12057625
000080 fb 6d 49 3d 2e 25 b5 3d 21 2f e8 3e 36 a9 fd 3c
       0.04917715 0.08844982 0.45348457 0.030964475
000090 86 c4 bf 3d a3 16 96 3d 02 fc 0b bf 32 d4 c6 bd
       0.09363656 0.07328536 -0.5468141 -0.09708442
0000a0 6e f4 77 bd a4 ba 1b 3f 82 b1 1b 3e fa 4d a2 3e
       -0.06053584 0.60831666 0.15204433 0.31700116
0000b0 9e 43 2b 3f 17 ce 2b be f0 0c e0 3e 18 19 55 3c
       0.6690005 -0.16777836 0.4375987 0.013006471
0000c0 1e cd 51 3e 57 f5 11 3e 3d 22 62 bd e3 ee 0a 3e
       0.20488402 0.14253746 -0.055208433 0.1356769
0000d0 fc e1 39 3d 28 26 cc 3e e8 4c f1 be 9e da f1 bd
       0.04538153 0.3987286 -0.47128987 -0.11809276
0000e0 89 04 c5 be 50 dd 86 3d f0 94 0a bd 09 d4 1f 3d
       -0.38480023 0.06585181 -0.033833444 0.03902057
0000f0 b6 ec 95 3e fa 07 26 bd 95 7b 73 3e 8c 7d 3e bc
       0.2928216 -0.04053495 0.23777612 -0.011626612
000100 10 7f 14 be 11 ea 92 3d 6b c7 02 bd 16 ee 67 bf
       -0.14501595 0.07173551 -0.03192846 -0.90597665
000110 4d 3e 38 be ea 28 1a 3f 76 61 8e be 6e ea 41 be
       -0.17992516 0.6021868 -0.27808732 -0.18937084
000120 30 df 02 3c c5 a5 09 3f df 5e 69 3d 9a 96 e3 bd
       0.007987782 0.5376857 0.05697524 -0.11112709
000130 28 07 df 3d f8 f2 2f be d7 c2 3c 3e d1 64 b8 bd
       0.10890037 -0.17182529 0.184337 -0.09003604
000140 99 d9 aa 3d 34 de ca 3e e1 0a 1c 3e b9 96 67 3d
       0.08342285 0.39622653 0.15238525 0.056540225
000150 36 82 41 3f 4e 72 0c be f0 e0 6f be ef 31 19 be
       0.7558931 -0.13715479 -0.2342565 -0.14960454
000160 40 bd 34 3f c9 83 33 3e a5 0d 44 be a8 8d ff bc
       0.7060127 0.17530741 -0.1914583 -0.031195477
000170 fa 57 fd be 23 ad 85 3d 39 26 f6 bd db 8c a2 3d
       -0.49481183 0.06527164 -0.12019009 0.07937022
000180 67 41 b2 bd f1 b6 88 bc 1a 56 0b 3e 67 f4 1f bf
       -0.08703881 -0.016688796 0.13607064 -0.62482303
000190 72 e7 35 3e 3c 24 18 bd ba 2f 97 3e db ab e5 39
       0.1776407 -0.03714393 0.295286 0.00043806326
0001a0 4c 7f 1c 3d 44 70 32 3e 1e 31 49 be 5c 3d 05 3e
       0.038207337 0.17425638 -0.19647643 0.13011688
0001b0 22 34 2d be 91 48 fe 3d 7f 63 e6 bd 2d 5c 1d be
       -0.16914418 0.12416185 -0.11249446 -0.15367194
0001c0 ca b7 19 bc 60 7e a7 3e ce 6c c0 be be 13 ca be
       -0.009382198 0.32713604 -0.3758301 -0.39468187
0001d0 a4 d3 ce be 2b b7 1d 3e 3c 12 5a 3e ff d2 32 3e
       -0.40395844 0.15401904 0.21296018 0.17463301
0001e0 f5 80 8c 3e 5c 79 9b bd 42 56 56 3e 25 cf 48 be
       0.27442136 -0.07591507 0.20931342 -0.1961027
0001f0 53 32 74 3e 1c 2b 18 3f 83 89 2e be 03 2f 33 3e
       0.23847322 0.5944078 -0.17044644 0.17498402
000200 6f a7 7a be 5d e0 cc 3d 3a f0 65 bf 98 ed 96 3e
       -0.24477933 0.100037314 -0.8981968 0.29478145
000210 f3 aa b7 be 0e b2 88 3e 40 e3 9b be 01 a5 8e 3d
       -0.3587261 0.26698345 -0.30446815 0.06965066
000220 e1 d7 2d be 33 ad 4a be 4d 8c 10 3f 56 62 90 bf
       -0.16976883 -0.19792633 0.5646408 -1.128001
000230 6b e0 71 bb f3 f5 f7 3d 1f db c6 3e 4f 32 40 3f
       -0.0036907445 0.12107458 0.3883905 0.75076765
000240 79 1f 28 3e bd 9c 9f 3e 8b 86 e1 3d 0a 1c a5 bc
       0.16418256 0.3117427 0.1101199 -0.020154972
000250 f2 1f 7e 3e 7a be 17 3f 8a 06 05 3f 0b 49 ca be
       0.24816874 0.5927502 0.519631 -0.39508852
000260 4d ef df 3e a2 7b fc 3e a2 94 6c be 37 9a c7 3d
       0.4373726 0.49313074 -0.23103574 0.09746211
000270 1e 92 14 3f 8c f6 82 bd c6 1f e2 ba 0b 65 a8 be
       0.5803546 -0.06394681 -0.0017251901 -0.3288959
000280 fb a9 cc 3d 57 53 e9 bd 5c 29 d1 3d ab cc 52 3f
       0.09993359 -0.11392849 0.10212967 0.8234355
000290 c1 cb 03 3d b8 da 13 be 69 d4 7e 3e 16 cd 60 3f
       0.032176737 -0.14438903 0.24885716 0.87812936
0002a0 07 aa a3 be 53 f0 90 3e a0 3b 44 bd 80 4c 05 bd
       -0.31965658 0.28308353 -0.047908425 -0.03254366
0002b0 98 24 a5 be 99 50 7e 3e 29 80 54 3e a8 41 bf bd
       -0.3225448 0.24835433 0.20752014 -0.09338695
0002c0 bd 91 86 be 7f af 99 bd 11 5c 8b 3e 80 dd d1 3d
       -0.26283064 -0.07504176 0.2721868 0.10247326
0002d0 17 fc 82 3d 9d 37 88 be c2 c3 bf 3f d7 5c 18 be
       0.063957386 -0.2660493 1.4981616 -0.14879166
0002e0 95 3b f1 3d 69 09 1d 3e 6e f5 89 bd 75 c4 00 bd
       0.117789425 0.15335621 -0.06736265 -0.031437356
0002f0 3f 6c 4d 3e 7b f0 ce 3e 6c 44 a8 be 23 c7 c9 3d
       0.20060824 0.40417847 -0.32864702 0.098524354
000300 d0 a4 5a 3e 71 c7 2c 3d 37 4b d3 bd 04 b1 a3 3d
       0.21351933 0.04218239 -0.103170805 0.079927474
000310 e9 1a 91 bd 82 7d 6f bd 47 9d fb 3c ac 83 58 3e
       -0.07085211 -0.058469303 0.030714644 0.21143979
000320 95 22 88 3c 33 4e 8d 3e f5 8b 96 3d fd ed b0 3d
       0.016618052 0.27598724 0.073509134 0.08639143
000330 45 c3 e1 be bf 4d 4f bc e7 ac c5 3d 64 3e a2 3d
       -0.4409429 -0.012652813 0.09652119 0.07922056
000340 b9 30 97 be d8 b1 a2 3d 4c 1f 74 bd 96 f6 2f be
       -0.2952936 0.07944077 -0.05960016 -0.17183909
000350 eb 55 81 3e f4 b9 4d be 25 d1 1a 3e 1d 0c 04 3b
       0.25260863 -0.20090467 0.15118845 0.0020148822
000360 af f5 05 bf 49 86 b7 be 1a d2 e8 3c ac f8 e0 3c
       -0.5232801 -0.3584464 0.028420497 0.027462326
000370 2f f8 e0 bc 83 76 3f be 4e 6d 4e be 63 3e 56 3e
       -0.027462093 -0.18697552 -0.20158884 0.20922236
000380 79 e5 3d 3e ab 95 a3 3d 75 1a 59 3e 4a 57 2b be
       0.18544568 0.07987531 0.21201499 -0.16732517
000390 ac a1 36 3e e5 19 8d be 28 b2 be be 54 a7 10 3e
       0.1783511 -0.27558818 -0.37245297 0.1412633
0003a0 3f 2a 0a 3e f8 3c de 3e 34 15 13 be 49 b8 92 3d
       0.13492678 0.4340589 -0.14363557 0.07164056
0003b0 92 27 f6 3d e5 39 9d 3e 09 6b e1 bd 8e ea 43 3e
       0.12019266 0.30708233 -0.110067435 0.19132444
0003c0 5b f2 cb 3e 75 88 c1 be 55 bb 14 3e 73 97 7d be
       0.3983334 -0.3779942 0.14524586 -0.24764805
0003d0 9d 98 2d be 0c ae aa 3f a3 25 c8 be 93 83 84 bd
       -0.16952749 1.3334365 -0.39091215 -0.06470408
0003e0 fc e8 ff 3c e9 aa 15 be 4f 46 d3 3b 36 73 a9 bd
       0.031239025 -0.14615978 0.0064475904 -0.08273928
0003f0 f2 9f 28 bd e8 8e 55 be 64 53 3a bd 0a 01 a8 bd
       -0.04116816 -0.20855296 -0.045489684 -0.08203323

net.gru.bias_ih_l0 f4 [96]
000000 33 0b 4e 3d 23 36 2f 3d 9e fa 44 3e c3 35 86 be
       0.05030365 0.04277624 0.19236228 -0.26212892
000010 8f 07 bf 3d 2f 46 b3 3b 0b 8e a5 bc 1c 68 bf bd
       0.093276136 0.005471013 -0.020209333 -0.09346029
000020 06 aa 31 bd 52 61 3a 3d 25 bf 5d 3e 38 94 47 3c
       -0.043375038 0.045502968 0.21654947 0.012181334
000030 41 05 1d 3d f3 50 9e 3c 75 e0 2e bd ad 8c 79 bd
       0.03833509 0.019325709 -0.042694528 -0.060925175
000040 9a ac 59 3e ba 4e 9b 3d 40 b2 eb bd 01 95 92 3d
       0.21257249 0.07583375 -0.11508608 0.071573265
000050 26 d0 59 bd 52 27 98 bd d4 cd 50 be 5a 68 db 3e
       -0.05317702 -0.07429375 -0.20391017 0.4285305
000060 e2 5d e0 bd 8d 88 cb bd 37 11 9b 3d 24 a8 1f 3e
       -0.10955407 -0.09938154 0.07571643 0.15591484
000070 ea d3 1e 3d 3d 58 b5 bd d8 bd ea 3d 46 25 48 3e
       0.038776316 -0.08854721 0.11461991 0.19545469
000080 45 c3 24 3d 05 4d df bd ca a2 04 bd 60 2f fa 3d
       0.040225286 -0.10903362 -0.03238181 0.12216067
000090 f7 17 3e be d3 b2 9c bd 9c e9 01 3e 03 11 1e be
       -0.1856383 -0.076512955 0.12686771 -0.15436177
0000a0 4a 7e 14 3e 91 0b 7e 3e 30 2a fb bd 2b 47 b5 3d
       0.145013 0.248091 -0.12263906 0.08851465
0000b0 b2 cc 00 bc 1a ef 26 be a7 38 6a be a6 c6 45 be
       -0.007861303 -0.16302148 -0.22873174 -0.1931406
0000c0 64 40 2c be 97 35 dd 3c 61 ad 47 3e 63 66 53 bd
       -0.16821438 0.027003093 0.19499733 -0.051611315
0000d0 3f b8 52 3d 24 ab f8 bc ad e1 4e bd f3 5c e7 bc
       0.051445242 -0.030355044 -0.05050819 -0.028242564
0000e0 37 30 5e bd 28 cf 2c 3e 37 4d 5f 3d d8 70 17 3e
       -0.0542452 0.16875899 0.054516997 0.1478914
0000f0 81 a7 92 bd c0 f5 d0 bd d8 00 06 3e 5d 7f f4 3c
       -0.07160855 -0.10203123 0.1308626 0.029845888
000100 64 6b c6 bd 7e a0 45 3d f2 d5 57 bd e3 db 0f 3e
       -0.09688452 0.04824876 -0.05269427 0.14048724
000110 7a 73 e0 bc fb df a6 3d 37 df 68 3d da 9f 0b 3d
       -0.027398814 0.0814819 0.0568535 0.034087993
000120 85 50 2b be 0e 1e 66 bd 02 ff da bc b1 7f 6b bc
       -0.16729935 -0.056181006 -0.026732925 -0.014373706
000130 f3 25 1e 3d 00 12 83 3e f5 2b df bd 5f 38 4e 3e
       0.03861041 0.2559967 -0.10897056 0.20138691
000140 f0 13 77 bc 2d c5 14 be ef 24 77 bd c9 60 83 3d
       -0.015080437 -0.14528342 -0.060337957 0.06414945
000150 64 95 7b be 18 c3 23 3e f5 92 3c bc 0c 5f d0 bd
       -0.24568707 0.15992391 -0.011509647 -0.10174379
000160 5b 68 37 be 91 e4 ea bd ec 54 c0 be 8f c1 60 3d
       -0.17910902 -0.11469377 -0.3756479 0.05487209
000170 d2 4b 04 3e 5b a1 8c 3d c7 8d 8f 3d e3 e8 c4 bc
       0.12919548 0.068667136 0.07009464 -0.02403683

net.gru.bias_hh_l0 f4 [96]
000000 f5 d5 b9 bd 1e 74 d4 3d 06 a4 45 3e f2 05 25 be
       -0.09074012 0.1037371 0.19300851 -0.16115549
000010 40 4e 33 3e 6b 08 18 3d 60 5c 5d be ac 11 0b 3a
       0.17510319 0.037117403 -0.2161727 0.00053050625
000020 8d 4a ad bd 60 5d 93 3d 92 9c 93 3e 3e 9f 66 3e
       -0.08461485 0.07195544 0.2883039 0.22521684
000030 06 b5 47 3d 87 e9 68 bd b9 b6 44 bd d7 f4 f6 3c
       0.04875662 -0.056863334 -0.04802582 0.030146046
000040 5c d1 58 3d 4c 7d d8 3d 4a b2 32 3e f6 e6 1b 3e
       0.052934036 0.105707735 0.17450824 0.15224823
000050 50 10 77 bc 50 15 01 3e be c8 ea bd 6f 4b ba 3e
       -0.015079573 0.12605786 -0.1146407 0.36385676
000060 0b 2e 98 bd 32 78 d2 bd 90 c4 41 3e 93 ad 29 3e
       -0.07430657 -0.10276832 0.18922639 0.1657012
000070 40 59 e8 3b 06 ce fc bd 1e 84 bd 3d 54 d0 24 3e
       0.0070907176 -0.12343983 0.09253715 0.16095096
000080 55 8f 5e 3d ae 8a 97 bd 80 63 6a bc ff e7 27 3e
       0.05433591 -0.07399498 -0.014305949 0.16397093
000090 96 de e1 3d ea ba 4c 3d 35 80 23 be 73 c5 de 3d
       0.11028783 0.049982943 -0.15966876 0.10877504
0000a0 b2 bb 5f 3e 17 1e 3c 3e e0 1b 2c bd 72 d8 12 be
       0.21848944 0.18370853 -0.04201877 -0.1434038
0000b0 ff fa 61 3d 9d eb bb be 55 8d 58 be 80 b9 02 be
       0.05517101 -0.36703196 -0.21147664 -0.12766075
0000c0 02 e8 a4 3d c6 9f fd bd 59 e6 97 bd e4 e8 1c be
       0.080520645 -0.1238399 -0.07416982 -0.15323216
0000d0 9d cc 96 bd d8 6f c5 3d 86 c8 bf 3d a7 72 52 be
       -0.07363246 0.09640473 0.09364419 -0.20551549
0000e0 49 f5 6c bd ef 98 e2 bd 9a 18 03 be 7f c7 46 3e
       -0.05785111 -0.11064326 -0.12802354 0.19412039
0000f0 7b 59 ef bd 81 14 be 3c f8 b8 47 bc bc 6a 42 be
       -0.11686989 0.023203136 -0.012190096 -0.18986028
000100 f0 47 da 3c 37 bd 9c 3e 17 9c 34 be d8 5b ea 3d
       0.02664563 0.3061311 -0.17637669 0.11443299
000110 c4 5b 89 be 5c 94 13 3e 3f 0e 73 bd 83 27 b6 bd
       -0.26827824 0.14412063 -0.059339758 -0.08894255
000120 6f b7 56 be 1e ee 73 bd 90 ba d6 3d c6 28 28 be
       -0.20968412 -0.059553258 0.10484803 -0.16421804
000130 3c 8a ba bd 53 95 44 be 81 60 3a 3e 05 d4 62 3e
       -0.09108397 -0.19197588 0.18200876 0.22151192
000140 ee 33 8d be 99 c7 b6 3e c7 11 71 3d c1 a0 3b 3e
       -0.27578682 0.35699156 0.058854844 0.18323041
000150 56 49 c0 3d 14 8c 9c bc d0 e7 96 3d fa 44 25 bf
       0.09388988 -0.019109763 0.073684335 -0.64558375
000160 23 5f 83 be 04 17 88 bd 22 26 cf be 21 63 10 bd
       -0.2565852 -0.06645015 -0.4045878 -0.035250787
000170 0a 8b 9c bc 3e b1 3c be 16 ed d7 3e 9e 32 3f bf
       -0.019109268 -0.18426988 0.4217307 -0.7468661

net.fc_nn.fc_in.weight f4 [49, 33]
000000 1e 2b 30 bd a7 7e 90 3e 0e ea a9 be 7e e1 86 be
       -0.04300987 0.28221628 -0.33186382 -0.26343912
000010 0b 37 00 be da a2 d4 3d 8c f4 6e be d0 71 c3 bd
       -0.12520997 0.10382624 -0.23335475 -0.095431924
000020 7f b2 72 3d 67 09 cc bd 46 cf 56 3e 35 3d 22 be
       0.05925226 -0.09962731 0.20977506 -0.15843661
000030 20 a2 9a bd d7 31 0b be d6 5f ac 3d 9d 79 04 be
       -0.07550454 -0.13593231 0.08416717 -0.12937017
000040 e4 23 1c be b8 63 e1 3d 78 91 93 3e 57 fd af bd
       -0.15248066 0.11005348 0.2882192 -0.085932426
000050 a3 6b 18 3e 89 e7 41 3c 9a 27 5f 3e 52 5b 88 ba
       0.1488481 0.011834987 0.2179245 -0.0010403192
000060 75 68 0f be e8 f5 36 3e a6 95 fe bd 4e 27 5b bd
       -0.14004691 0.17867243 -0.12430887 -0.05350428
000070 9f 06 47 3e 13 89 d0 3d a5 e2 ee bd 1b e8 86 bd
       0.1943612 0.10182395 -0.11664323 -0.06587239
000080 39 3c 47 be 61 a8 53 3d 85 fc fe 3d ee 6a d6 bd
       -0.19456567 0.05167425 0.12450508 -0.10469614
000090 ef 67 c5 3e d9 e9 e8 3d 8c 1e b0 3d b1 b4 62 be
       0.38555858 0.11372728 0.08599576 -0.22139241
0000a0 36 f6 21 be 5f 45 47 3e 99 f7 37 3e 73 6a a5 3d
       -0.15816578 0.19460057 0.17965545 0.08076944
0000b0 4d 9b 1a 3d b8 79 6b 3e c6 f3 e1 bb 9a 1f c4 3c
       0.037745763 0.22995651 -0.006895515 0.02394085
0000c0 64 58 80 3d 93 98 8d be c0 24 15 3e 05 1d 9f 3c
       0.06266859 -0.27655467 0.145648 0.019423017
0000d0 42 c9 5b 3e 3a b4 85 be 60 85 02 be 81 e5 2d 3e
       0.21463493 -0.26114064 -0.12746191 0.1698208
0000e0 87 dc fa 3d 28 30 53 bd a5 7d 1d be c2 6c f7 bd
       0.122490935 -0.051559597 -0.15379961 -0.12081291
0000f0 a0 f2 4a 3d 95 46 8e bd 12 fc 64 be 56 a0 87 3d
       0.04954779 -0.06947056 -0.22361782 0.066223785
000100 f8 83 25 3e c4 4c 8c 3e 27 51 a4 3d 79 bc cc 3d
       0.16163623 0.27402318 0.08023291 0.09996886
000110 eb 2c 49 3d a3 b1 00 3f 14 8c 33 be 24 e6 d3 3c
       0.049115103 0.5027105 -0.17533904 0.025866576
000120 de 8e bf 3d 53 e5 51 3e ea fa 6a be a5 ea 4d be
       0.09353422 0.20497636 -0.22947279 -0.20109041
000130 79 41 7a 3e d1 ce 36 be db 53 15 be a1 80 85 bd
       0.24439038 -0.17852332 -0.1458277 -0.06518675
000140 ae 48 8b bd 39 00 ac bc 73 53 7a be 9e fc 5d 3d
       -0.06800972 -0.0209962 -0.24445896 0.054195993
000150 7c f4 76 3e 82 61 28 3e eb d2 e8 3d 11 8a 4e bd
       0.24116701 0.16443446 0.113683544 -0.05042464
000160 9f a5 72 3c 39 6e 95 be 45 5e 26 bc ea 64 18 3e
       0.014809995 -0.29185656 -0.010154312 0.14882246
000170 bc 3c fd 39 0c 04 68 3e 4f 7b 93 3d 98 11 c0 bb
       0.0004830117 0.22657794 0.072012536 -0.0058614723
000180 a1 64 83 3d 2f 19 9f bd 35 31 b4 be ef 48 b6 bc
       0.06415678 -0.07768475 -0.35193792 -0.022251574
000190 95 48 54 bb 2f f6 40 be c3 80 08 3d a0 e2 bc bd
       -0.0032391895 -0.18843912 0.03332592 -0.09222913
0001a0 ea 55 61 3d 3c 99 38 3e 05 f4 54 bd 5d 82 9c 3c
       0.055013575 0.18027204 -0.051990528 0.01910513
0001b0 86 ad d7 bd ee f5 82 3d 35 1f 6b bb 14 01 23 3d
       -0.10531144 0.063945636 -0.0035876755 0.03979595
0001c0 fc 75 58 3c 5e 36 c4 bd f7 87 b7 bd 8d c3 a4 bd
       0.013211723 -0.09580682 -0.0896148 -0.08045111
0001d0 41 06 54 3b 81 05 4b bb 16 26 03 be 8d 2e f8 3d
       0.003235236 -0.0030978622 -0.12807497 0.12118254
0001e0 65 10 62 be 49 62 64 bd a5 3b 66 bd df 47 0b 3e
       -0.22076567 -0.055757795 -0.056209225 0.13601635
0001f0 d3 40 2a be 14 7b 5c be 3b c6 80 3d 20 fc 1f bc
       -0.16626291 -0.21531326 0.062878095 -0.009764701
000200 49 d3 63 be b1 77 71 3d 38 99 09 3d cb e9 ab 3e
       -0.22248568 0.058952037 0.033593386 0.33576807
000210 2c 68 4e 3c dc d3 f4 3d 1f 7f 2a bd da 54 9d 3e
       0.012598079 0.119544715 -0.04162514 0.307288
000220 7d 64 aa 3d 97 ef f0 bd 2e 5e 8a be 81 1f 19 be
       0.08319948 -0.11764448 -0.27024978 -0.14953424
000230 9d 64 b8 3d 03 25 aa bd a4 62 1f bd dc 18 e9 3d
       0.090035655 -0.08307841 -0.03891243 0.11381695
000240 78 a1 70 3d 7a f0 2c be 86 52 ed 3d c7 7f a5 3c
       0.05874774 -0.1688861 0.11588006 0.02020253
000250 e5 ed 18 be 6a e8 01 3c 01 f1 0f be ea d3 21 3e
       -0.149345 0.007928947 -0.1405678 0.15803495
000260 ee ef da bd 41 18 ce bd 88 a3 4d be 12 a0 3b bd
       -0.10690294 -0.1006322 -0.20081913 -0.04580695
000270 7d 78 1d 3e f3 dc a7 3d 50 dd 51 be e9 c6 d0 3c
       0.15377994 0.081964396 -0.2049458 0.025485473
000280 ba 8f 82 bc c3 30 b1 bd f8 9a 06 3e 71 f0 6e 3e
       -0.015937675 -0.08651879 0.13145053 0.23333909
000290 af 16 5d 3e db 06 cb 3d b3 cc 32 3d d1 c8 74 3e
       0.21590684 0.09913417 0.043652248 0.2390473
0002a0 d6 f4 d2 3e b4 e9 70 bd 4b f1 75 bb 01 49 5f bd
       0.4120242 -0.058816627 -0.0037527855 -0.05451298
0002b0 75 e9 5b 3d 62 e8 01 bc 0e e4 a5 bd 36 cb 8b 3d
       0.05368944 -0.00792894 -0.081001386 0.06825869
0002c0 6b 91 da 3d 4b db 21 be 66 f1 24 be 31 78 7c bd
       0.106722675 -0.1580631 -0.16107711 -0.06163806
0002d0 1e 99 3e 3e 9e 08 8b 3c 2c 58 61 bd da b6 22 3e
       0.18613097 0.016971882 -0.055015728 0.15890065
0002e0 71 80 08 3e 4b f0 be 3e 9c fc 21 be 76 43 17 be
       0.13330247 0.37292704 -0.15819019 -0.14771828
0002f0 c4 94 9c bd 4b 1a 66 3d 84 89 4f 3e c8 c2 0a 3e
       -0.07645562 0.05617742 0.20267302 0.13550866
000300 d9 1f 12 3e 7f a3 e2 bc d8 46 01 be ed ec 16 3d
       0.14269961 -0.027665852 -0.12624681 0.036847044
000310 19 16 6e be 3d ff c7 be 5c fe c5 bc 73 83 ed bc
       -0.23250617 -0.3906192 -0.02416914 -0.028993344
000320 de b6 c4 be 16 f0 ab bd 2e 19 20 3d fd 2d bc bd
       -0.38420767 -0.08395402 0.039086513 -0.09188459
000330 b9 d2 e9 3d f2 e9 9f 3c f4 b7 3a 3e fb a9 4a be
       0.11417145 0.019520734 0.18234235 -0.19791405
000340 6d f0 81 3e 20 cb c1 bd 53 66 57 be e8 2f 5d be
       0.25378743 -0.09462571 -0.21035127 -0.21600306
000350 3c 61 25 3e 68 5e f2 bd 72 77 f8 3b 4d 29 bb 3e
       0.16150373 -0.11834413 0.0075825984 0.36554947
000360 d1 6a 93 3d 53 9b f5 3d 84 b5 30 be e9 99 2e be
       0.07198108 0.11992516 -0.17256743 -0.170509
000370 86 02 84 bd e7 7c 45 be 60 7c 48 3d 30 65 04 be
       -0.06445794 -0.19285928 0.04894674 -0.12929225
000380 c4 39 bf bd ef 40 04 3e cf 41 86 3d 4f 22 1c 3d
       -0.0933719 0.12915395 0.06555521 0.038118657
000390 5b 75 78 be 36 bb 3d be 63 05 0b be 09 32 c1 bd
       -0.24263518 -0.18528447 -0.13576274 -0.094333716
0003a0 bb bc 5e 3e 94 a8 ff be a8 35 c2 bd 82 f8 c5 3d
       0.21751682 -0.49933302 -0.0948289 0.0966654
0003b0 8b 1d 1a 3e 42 3c 21 3e e9 2d d1 bd 87 fc 56 be
       0.15050332 0.15745643 -0.10213835 -0.20994769
0003c0 92 a8 b0 3a 60 d1 86 bd ed 4e 9a be c2 dd 57 bd
       0.0013477972 -0.06582904 -0.3013834 -0.05270172
0003d0 8b 77 e7 bd ef cb 0b 3d ac d1 3d 3d cf d4 78 3d
       -0.11302098 0.034130033 0.046342537 0.060749825
0003e0 07 51 9e 3d 19 80 82 3d f8 0e fd bd b2 74 eb 3e
       0.077302985 0.06372089 -0.12356371 0.4598747
0003f0 42 74 b5 be f7 ba 31 be ec 0f ee bd 13 58 f9 bc
       -0.3544026 -0.17356478 -0.116241306 -0.030437505

net.fc_nn.fc_in.bias f4 [49]
000000 44 83 1b 3e c6 aa ac bd 73 69 7b 3e bb 23 82 3d
       0.15186793 -0.0843101 0.24551944 0.06354471
000010 a8 da 3a 3e 8c 87 cf 3d 70 80 2a bd 91 1f 13 3d
       0.18247473 0.101332754 -0.041626394 0.035918776
000020 3d bf 0e bc 5e bf 06 be c9 b5 57 3e 9f 4b 10 3e
       -0.008712587 -0.13158938 0.2106544 0.14091347
000030 a2 12 20 3e f9 7c 3d 3e 89 d7 46 bd ee 93 73 3e
       0.15632108 0.18504705 -0.048545394 0.237869
000040 3f 16 e0 3d 1d 85 7d 3d 10 eb ab bd de d4 07 3e
       0.10941743 0.061894525 -0.08394444 0.13264796
000050 39 92 f8 3a c5 5e 6d 3e 8f 4c 58 3e da 61 00 3d
       0.0018964476 0.23180683 0.21122955 0.03134332
000060 9c e2 8d 3e e5 1f 80 3d fe 29 db bc 92 b4 49 be
       0.27711952 0.062560834 -0.026753422 -0.19697788
000070 4c b5 b7 bd a6 dd 14 3e ea 22 f8 3d 68 69 47 3c
       -0.089701265 0.14537677 0.12116034 0.012171127
000080 03 13 01 3e e1 d5 02 3e 05 0d 37 bd be 26 6e 3e
       0.12604909 0.12776901 -0.04469015 0.23256966
000090 6e 50 77 3e fd a2 17 be 81 72 72 bc 1a b6 00 3e
       0.24151775 -0.14808269 -0.014797808 0.12569466
0000a0 dc 86 fa bc 31 84 0c be 55 91 43 3e 43 fe 9e bd
       -0.030581884 -0.13722302 0.19098409 -0.0776334
0000b0 ed 21 a8 3d 17 09 4a 3e 13 fd 0c 3e 1c c2 c2 3d
       0.08209596 0.1973003 0.13768415 0.0950968
0000c0 6c 93 99 bd
       -0.074988216

net.fc_nn.fc_hidden.0.weight f4 [48, 49]
000000 4a f4 10 3e b5 9d 37 3c 44 11 23 3e 76 15 71 be
       0.14155689 0.011207034 0.15924555 -0.23543343
000010 48 29 f4 3b 07 b3 73 3c 57 dc 8c 3e 5a 2b a3 bc
       0.00745121 0.014874226 0.27511856 -0.019918133
000020 d4 b3 d8 3e 41 f9 99 3e 7f 59 54 3e 67 aa 63 be
       0.42324698 0.30072978 0.20737265 -0.22232972
000030 f7 26 f2 bd ba 4d 51 3e 8c 81 59 be eb 4f df 3d
       -0.11823838 0.20439807 -0.21240824 0.10903915
000040 d7 8e 36 3c d8 09 61 be f7 a6 23 3e 56 80 84 3e
       0.011142454 -0.21976411 0.15981661 0.25879163
000050 79 c7 b7 3c a4 5f a5 bc 03 56 e7 3d 8d 49 89 bb
       0.022433983 -0.020187207 0.11295702 -0.004189676
000060 e5 8b 11 be 20 b6 12 3e 6a 3d f4 bd 11 71 42 3d
       -0.14213522 0.14327288 -0.11925776 0.04747111
000070 f1 03 b3 bd a5 96 33 be cd 48 1e 3e 58 8e 96 be
       -0.08740986 -0.17537935 0.15457459 -0.29405475
000080 82 14 c3 bd 0a dc 06 bd f5 09 20 be 97 bf 9c 3d
       -0.09525396 -0.03292469 -0.15628798 0.0765373
000090 72 e1 fe 3c 44 c2 b6 bd 28 28 58 3d 66 03 92 3d
       0.03111336 -0.08923772 0.05277267 0.071295545
0000a0 ea 10 4c be 2d 3b 43 bd fa 4c cd 3d ad a7 2d 3e
       -0.19928327 -0.047663856 0.10024448 0.16958494
0000b0 b4 ff 72 be 7e 73 34 3e bb 09 8f bb b8 63 06 bf
       -0.23730356 0.17622182 -0.0043651736 -0.5249591
0000c0 76 50 78 bd bc e2 6f be 34 a9 cb 3d 1b 99 85 3d
       -0.06062361 -0.23426336 0.09944382 0.06523343
0000d0 c0 6f 63 3c 2b 7d 90 3e 23 d9 b2 be a4 37 3e 3e
       0.013881624 0.28220496 -0.34931287 0.18575913
0000e0 5f 35 7a be 51 aa 06 be 45 75 85 be e3 f3 9f be
       -0.24434422 -0.13150908 -0.26066032 -0.31240758
0000f0 0a e1 64 3e 75 3e f4 bc c9 df 99 3e 87 17 a9 3d
       0.2235147 -0.029814938 0.30053547 0.082564406
000100 a0 b9 ef bd a1 71 d3 3d 8b c5 f3 3d f7 9f dc 3c
       -0.11705327 0.10324407 0.11902913 0.026931746
000110 ee b2 e7 3d 78 d5 83 3d 16 8c d3 3d 97 34 38 3d
       0.11313425 0.064372 0.10329454 0.04497203
000120 c8 b3 02 3e 68 4b a0 3d 0e 00 40 bd e3 e0 5e 3e
       0.12763894 0.078268826 -0.046875052 0.21765475
000130 bd 43 77 bd 1a 29 0f 3e 7f 62 28 3e 04 e7 e3 3d
       -0.060367335 0.13980523 0.16443823 0.11128047
000140 d9 d5 57 bc 6f a9 70 bc ff 9f a4 3d f2 ae 84 be
       -0.013173544 -0.014688834 0.08038329 -0.25914723
000150 10 bf c5 bc 13 26 68 3d dd 33 0c 3e 2a 44 f9 bd
       -0.024138957 0.056676935 0.1369166 -0.121712044
000160 54 57 ba 3c 69 fe fe be 67 d1 b7 bd b2 02 8f be
       0.02274672 -0.49803475 -0.08975487 -0.27931744
000170 81 0c fb 3d a0 f4 e8 3c 98 ea 85 be d2 ee 31 3e
       0.12258244 0.028436959 -0.26155543 0.17376259
000180 8b 2e 0d 3f 9d 87 5c be c3 53 1f be 5c 70 d9 3e
       0.55149144 -0.21536107 -0.15559296 0.42468536
000190 f7 1f da 3d d5 ee 4c bd ad 78 d4 3d a5 eb c9 be
       0.10650628 -0.050032455 0.103745796 -0.39437595
0001a0 26 e7 7e 3e 70 66 5f 3c 15 58 7b 3e 34 74 37 3d
       0.24892864 0.013635263 0.2454532 0.044788554
0001b0 32 0e a2 3e 45 f0 c3 3d 69 67 cc 3e 42 8f ae be
       0.31651455 0.09567312 0.39922646 -0.34093672
0001c0 07 73 d3 3d c5 a9 64 3d 59 0b 1d 3e 82 ed b5 bf
       0.10324674 0.055825967 0.1533636 -1.4213107
0001d0 61 88 6c 3e 32 48 57 3c 50 8b b5 3e 58 af c5 bc
       0.230989 0.013139771 0.3545785 -0.024131462
0001e0 82 44 9b 3d d8 f9 8b bd 56 10 d8 3d d1 8d 89 3d
       0.07581426 -0.06834763 0.10549991 0.067165025
0001f0 61 4c 35 be 42 7f 6c 3e f4 83 72 3e 5e 41 a4 3e
       -0.17704917 0.2309542 0.23683149 0.3208112
000200 2d 83 68 bd 01 5d 9a be 85 43 0d be 78 a4 bc bd
       -0.056765724 -0.3014908 -0.13795288 -0.092110574
000210 48 4f 6f 3e d1 8b 14 3c f9 d2 1e 3b 5d 79 f3 bc
       0.23370087 0.009066538 0.0024234636 -0.029720956
000220 99 e2 06 be 21 5d 40 be 69 f8 88 3e 93 32 9f 3d
       -0.13172378 -0.18785526 0.26752022 0.07773318
000230 3a 67 dc bd 5e 9b c9 bc 6e 1c 38 bd 52 d9 b4 bd
       -0.107618764 -0.024610218 -0.044948988 -0.08830513
000240 fb 17 25 3d 43 7a 09 3f 32 d3 68 be b8 85 59 3d
       0.040306073 0.5370218 -0.22736815 0.05310604
000250 3d 26 82 bd 87 cc 23 3e b7 38 d2 3d 09 f0 19 3e
       -0.063549496 0.1599599 0.10264724 0.15032972
000260 5a b9 f9 3d f9 8a 64 3d 26 d3 24 3e 7e 52 42 3d
       0.12193556 0.055796597 0.16096172 0.047441952
000270 f7 5e 28 3f df 38 32 3e b2 79 0d bd fb d2 26 be
       0.65769905 0.17404507 -0.034539886 -0.1629142
000280 5e fe ab 3e d3 fb 87 be 65 fd be 3d 49 27 87 bc
       0.33592504 -0.26559314 0.09325675 -0.016498225
000290 ee 37 06 3e d0 e6 89 3d 16 de 9f bc 25 38 73 3e
       0.13107273 0.06733477 -0.019515079 0.23751886
0002a0 6d ef 4f 3e 5d e6 2c 3e 7f 90 9f be 76 cb 35 be
       0.20306177 0.16884752 -0.3116493 -0.17753395
0002b0 99 f3 c0 3d b6 49 5f bb 87 d7 83 3e c0 8f 04 be
       0.094214626 -0.0034071035 0.25750372 -0.12945461
0002c0 f8 7b 5c be 87 b7 11 3d 72 31 61 bc 6d 93 71 3d
       -0.21531665 0.035575416 -0.013744699 0.058978487
0002d0 a7 6e 15 be d6 42 0a bf 2f 46 44 3e eb 61 16 3e
       -0.14592992 -0.54008234 0.19167398 0.1468579
0002e0 d3 53 a0 bd b3 60 d9 3d ba 21 85 be 93 a5 f4 bd
       -0.07828488 0.10614147 -0.26002294 -0.11945643
0002f0 57 25 a2 bd 8f 87 90 bc 9b f3 dd bd e8 f4 62 be
       -0.07917278 -0.017642764 -0.1083748 -0.22163737
000300 6d 65 1f be 25 cc 32 3d e8 b6 49 3f f1 15 c0 bc
       -0.15566035 0.04365172 0.7879472 -0.023447962
000310 48 32 c6 3e ed c0 1d 3e 70 88 7a 3c 17 95 ef bd
       0.38710237 0.15405627 0.015291318 -0.116983585
000320 10 c2 92 bc 0b fd 4e be 6b be 8a 3e 83 5e 86 bd
       -0.017914802 -0.20213716 0.27098402 -0.065609954
000330 2f 9e 3e 3e 4c 87 7a 3e ce 48 b2 3e ba 2d e6 bb
       0.1861503 0.24465674 0.3482117 -0.007024494
000340 cb 6c 26 3e b9 9a 1a be 39 9d 88 be a7 93 c6 3d
       0.16252439 -0.15098085 -0.2668245 0.09696131
000350 8f 4e 17 be ff 02 95 3e 55 ef 34 3e 59 a6 3c 3e
       -0.14776061 0.29103848 0.17669423 0.18422832
000360 13 20 2a bd dd ac 4f 3d 2f fd ab bc a1 62 39 3e
       -0.041534495 0.050701965 -0.02099475 0.1810403
000370 ac 9c 40 be a2 2d 18 3c c9 2d 2b be 64 8c 5f 3e
       -0.18809766 0.009288223 -0.16716684 0.21830899
000380 6d 26 4c 3e 27 2d a0 be f8 2b 00 be 56 dc 35 bd
       0.19936533 -0.31284449 -0.12516773 -0.04439958
000390 48 f1 3e 3d bc 18 98 3d 82 e9 73 be 7f d8 34 3e
       0.046616822 0.07426593 -0.23819545 0.17660712
0003a0 ba b7 70 3e bc f0 cf bd bb 7b 02 3f a0 54 1a be
       0.23507586 -0.10153338 0.5097005 -0.15071344
0003b0 13 20 bf 3d 8e d6 1e be 6e 4f 41 3e 70 79 c0 be
       0.093322895 -0.15511534 0.18877956 -0.3759265
0003c0 59 ca 00 be 73 9c 85 3e 51 fe 33 be e3 e6 45 be
       -0.1257719 0.26095924 -0.17577483 -0.19326358
0003d0 a6 9a c3 3d 92 da 12 3d b0 45 a1 be 62 61 ee 3d
       0.09550981 0.035852976 -0.3149848 0.11639668
0003e0 6a 13 7c 3c 7d ee a7 be 35 d5 d2 3d 67 28 35 bd
       0.015385488 -0.3279914 0.10294572 -0.044227984
0003f0 1c f6 5d 3e 2b 44 b8 3d 09 96 96 bd 5e db ef 3c
       0.21675915 0.08997377 -0.07352836 0.029279407

net.fc_nn.fc_hidden.0.bias f4 [48]
000000 f5 36 00 3e 2d e9 24 3e 5a 26 ec bc e5 3c e8 3d
       0.12520964 0.16104575 -0.028826881 0.1133974
000010 77 cf a1 3d f5 0c 2d 3e 75 b2 cc 3d ea da be 3d
       0.07900899 0.16899474 0.099949755 0.09319098
000020 2e d5 6c 3d ab 00 3b 3e c7 61 c9 3d 09 15 bd 3d
       0.05782049 0.18261974 0.09833103 0.09232528
000030 47 f8 05 3e 93 99 80 3b de 44 32 3e 26 35 5a bd
       0.13082992 0.0039245575 0.17409083 -0.053273343
000040 bb 22 9f 3d 88 47 39 be 2c c5 bb 3d a6 70 6f be
       0.07770296 -0.18093693 0.09168467 -0.23382816
000050 5e fc 1e 3d c1 5b 4e 3e 1c 8e 61 bd e5 f7 bf 3b
       0.038814895 0.20152189 -0.055067167 0.0058584088
000060 0d 02 18 be e8 9e e4 bc f6 fe f2 3d 76 01 44 bd
       -0.14844532 -0.027907804 0.11865036 -0.047852956
000070 82 22 ce 3b a5 24 c9 3b 25 84 1a 3e 7e 8a 17 3e
       0.0062907347 0.0061384016 0.15089472 0.14798924
000080 1b 6b af 3b 42 db 23 3e c1 07 14 3e d9 b6 24 3e
       0.005353344 0.16001609 0.14456083 0.16085376
000090 c6 2e 5d bd ab eb 38 3c 4e 93 2e bb aa cc 42 3e
       -0.053999685 0.011286656 -0.0026638093 0.19023386
0000a0 ef 1f 27 3e 74 ea 67 3a 02 db 3e 3e 4d ff 57 3e
       0.16320775 0.0008846887 0.18638232 0.21093483
0000b0 0d 83 f6 3d b6 c1 6e 3d 16 60 d4 3d 87 cb cd 3d
       0.12036715 0.058290206 0.103698894 0.100485854

net.fc_nn.fc_hidden.1.weight f4 [40, 48]
000000 16 49 9e 3d 4c 9c b9 bc 8f e4 d8 3d 61 b3 29 3e
       0.07728784 -0.022657536 0.10590469 0.16572334
000010 9c 9f d2 3d b4 1b 9f 3e ea f0 56 3d f0 f9 85 bd
       0.10284349 0.31075823 0.052475847 -0.065418124
000020 ea 9d 8e 3d 06 ac 73 3e 6b 3b 24 3e 14 58 f7 3d
       0.069637135 0.2379609 0.16038291 0.120773464
000030 16 25 e5 bc 7e b3 ad 3d 7f 5e 27 bd cc 61 91 3d
       -0.027971786 0.08481501 -0.040861603 0.070987314
000040 30 c6 77 3e 8f ae c9 bd f1 6a 8d 3d a4 d0 a7 3e
       0.24196696 -0.098477475 0.06905163 0.32776368
000050 ce 0b 44 3e bd e9 1e 3e ad ac 82 be ac 87 1d bd
       0.19145128 0.15518852 -0.25522366 -0.038459465
000060 4a 2c f1 bd 88 26 ac 3d a2 5a 3f bd 13 2a 24 3e
       -0.117760256 0.08405787 -0.046717294 0.16031675
000070 85 37 d2 3d 8b 5b a3 3d 52 d9 14 3b 81 1b 0f 3e
       0.10264496 0.07976445 0.002271254 0.13975336
000080 f1 9a a1 be 4e 81 0f 3e a6 7c 72 3e 1c 44 9d 3e
       -0.31563523 0.1401417 0.23680362 0.30716026
000090 ff 56 22 be c9 f5 48 3d 77 5e c5 3d bb 59 ce bc
       -0.15853499 0.049062524 0.09637158 -0.025189271
0000a0 db 1a c4 bc a0 5f 09 bd 0d 31 19 3e c3 4c ed bc
       -0.023938587 -0.03353846 0.14960118 -0.028967267
0000b0 79 08 30 be 9a 03 10 3f 5a d8 cc 3d 82 12 cd 3c
       -0.17190732 0.56255496 0.10002203 0.02503324
0000c0 cf 89 60 be 35 2c 06 3e 9d 7e d9 3e 05 ed 75 be
       -0.2192757 0.13102801 0.4247941 -0.24016197
0000d0 3b 81 20 bb 95 63 9a 3d 97 17 1e be 50 61 61 3e
       -0.002449109 0.07538525 -0.15438686 0.22009778
0000e0 15 f7 a0 3e 31 bc 85 bb 2e fb 35 3b b9 62 ad bc
       0.3143851 -0.004081272 0.0027768123 -0.021165239
0000f0 35 dc 72 3e 92 fc a7 3d 7f ca 67 3e 10 84 7d 3e
       0.23716815 0.08202471 0.2263584 0.24757409
000100 be 46 57 3e 44 5c 13 be 5e c9 5c 3e 05 94 31 3f
       0.2102308 -0.14390665 0.2156119 0.69366485
000110 b1 3d af 3d cc 41 00 3e 24 13 57 3c 97 0b 23 bd
       0.085566886 0.125251 0.013127122 -0.039805975
000120 22 71 90 be f9 2d e3 be 6d 7b 4a 3d 1a e9 0b bf
       -0.28211313 -0.44371012 0.049434114 -0.5465256
000130 64 95 4a 3e 55 1f 06 3e f0 1c 15 be 46 a5 26 be
       0.1978355 0.1309789 -0.1456182 -0.16273984
000140 dc 58 d3 3d 25 d8 48 3e 61 08 e4 bd 27 8d f9 bd
       0.10319683 0.19613703 -0.11134411 -0.12185126
000150 fc 85 2f 3e 9d 51 12 bd 69 bb 0b be db 0d 0b 3e
       0.17140955 -0.035722364 -0.1364571 0.13579504
000160 0b c4 d1 3d 36 19 4d be d4 56 1a 3e 29 ab ce bd
       0.1024247 -0.20029148 0.15072185 -0.1009124
000170 47 5f 96 bd 44 24 64 3b 41 7e 50 3e 2d c5 0e be
       -0.073423915 0.0034811655 0.20360662 -0.13942404
000180 03 91 69 be d7 11 74 bd 87 43 41 3e ea ac 9b 3e
       -0.22809224 -0.059587326 0.18873416 0.3040536
000190 2d b9 0b 3e 14 2b 54 bd c6 69 95 3d 10 54 f0 bd
       0.13644858 -0.051798895 0.07295565 -0.11734784
0001a0 89 b2 ae bd 05 ea 72 3d 93 11 80 3d 83 82 ac bd
       -0.08530147 0.05930521 0.06253352 -0.08423331
0001b0 7d 62 41 3c 2e 81 5d 3d 95 a9 c5 bc b3 ca 29 3e
       0.011803267 0.054078273 -0.024128715 0.1658123
0001c0 f9 9e 46 3e a2 5d 0b 3d 3d e3 da 3d 3d 4d 51 3f
       0.19396581 0.034024842 0.106878735 0.8175848
0001d0 a8 9a 3a 3c 4a 4f 29 3e 93 45 07 3e 90 85 82 bd
       0.011389412 0.16534153 0.13210134 -0.06373131
0001e0 53 aa 81 3d aa 76 6e 3e c3 ed 46 3e 63 c6 97 3e
       0.06331315 0.23287454 0.19426636 0.29643545
0001f0 57 4d af 3d 37 61 ce 3d 18 98 ff bb 86 c4 89 3e
       0.08559673 0.10077136 -0.0078001134 0.26907748
000200 72 0f 83 be 6f 0e 48 3e 5b 8c 91 3e 9f a6 0d be
       -0.2559772 0.19536756 0.28427395 -0.13833092
000210 84 52 4d be 7c 8f 92 bd b9 17 d5 3d 92 6b 46 3d
       -0.20051008 -0.07156274 0.10404915 0.04844243
000220 99 6a 42 3c c0 22 04 bf 09 ba 11 3e b9 3a 4c bc
       0.011866235 -0.51615524 0.14231123 -0.012465172
000230 09 da 79 3d 38 94 2a 3e cb ee 96 3d fa 62 8f bd
       0.06099895 0.16658103 0.07369765 -0.070013
000240 e1 ed c6 be a9 3a ac 3e 56 6e f3 3d 11 f3 67 3e
       -0.38853362 0.33638504 0.11886279 0.22651316
000250 1d 55 41 be 85 24 45 be d1 ec 7f bd bf 9b 4a be
       -0.18880124 -0.19252212 -0.062481705 -0.19785975
000260 1e 58 d2 3e 06 63 f8 be 5f 73 0a be 3c 4d b5 be
       0.41082853 -0.4851305 -0.13520573 -0.35410488
000270 f3 4b 75 be fd c2 d4 bd b6 92 9f be 32 6f 91 3e
       -0.23954754 -0.103887536 -0.3116662 0.28405148
000280 61 70 9a be a7 89 83 bd c9 fd a8 3e eb c0 70 3d
       -0.30163863 -0.064227395 0.33006123 0.05877773
000290 13 0c b2 be 07 10 33 be 49 ba f6 3e 53 9f 32 bf
       -0.34774837 -0.17486583 0.48189 -0.6977436
0002a0 9d 7f 24 3e 95 12 56 3e 11 f5 ab 3e 37 66 a1 be
       0.16064306 0.20905526 0.33585408 -0.31523296
0002b0 6e c4 0e be e5 78 39 be f8 6e 33 bd c0 06 f1 bd
       -0.1394212 -0.18112524 -0.043807 -0.117688656
0002c0 bc 40 ec 3e 0f 9f 8b 3d 25 94 98 bd 38 b4 ce be
       0.46143138 0.068174474 -0.07450131 -0.4037187
0002d0 d3 8a ff 3d f8 ce 0c be 18 e2 50 be 16 d2 25 3e
       0.124776505 -0.13750827 -0.20398748 0.16193423
0002e0 c8 69 32 3e de b1 20 3e 7b 53 5c 3e 80 4f 10 3d
       0.17423165 0.15692851 0.2151622 0.035232067
0002f0 5e 9c 90 3e 59 5b 0d bd 84 06 94 3e 11 22 74 bd
       0.282443 -0.034510944 0.2891122 -0.0596028
000300 14 c1 f0 3d d1 c7 f1 3d bd e2 f2 3e 12 80 fb 3a
       0.11755577 0.1180569 0.47438613 0.0019187948
000310 71 7a a7 3e 9b 96 cd bd 20 27 72 bc 8b c6 05 3b
       0.32710603 -0.10038491 -0.014779836 0.002041253
000320 46 8e 2a be 2c cf e7 3e 3e 05 b2 bb aa 94 f3 ba
       -0.16655836 0.45275247 -0.005432754 -0.0018583734
000330 99 ea 29 be 55 58 be 3d a8 0a 0b be 72 58 95 3e
       -0.16593398 0.09294192 -0.13578284 0.2916904
000340 48 17 91 be da f3 02 be ab 94 94 3e 33 e3 f1 3e
       -0.28338075 -0.12788334 0.29019675 0.47243652
000350 f1 c5 22 be 9a 11 2c 3e a0 99 e0 3e e7 9d 5b bd
       -0.15895821 0.1680359 0.43867207 -0.053617384
000360 1f 56 eb bd aa 51 b7 bd c7 64 b6 3d e3 8a ea bd
       -0.11491036 -0.08951123 0.089059405 -0.11452272
000370 0f fa 8b bd 75 55 2f 3e 58 8b 43 3e 74 16 b9 3d
       -0.06834804 0.17122443 0.19096124 0.09037486
000380 0e 4b 96 be 04 c2 4d be 51 93 ed bd 7e 31 d5 bc
       -0.29354137 -0.20093542 -0.11600364 -0.026024576
000390 6f 2a 23 bf 78 5d ab be 0a b3 f5 3c fb d6 1c be
       -0.63736624 -0.33469748 0.029992599 -0.15316384
0003a0 03 44 71 bd 68 06 96 3f 71 6d f9 bd 78 91 63 be
       -0.05890275 1.1720705 -0.121790774 -0.2222346
0003b0 84 84 0b 3f 4b 38 af 3d 34 9d c4 be f2 b1 20 be
       0.5449908 0.08555659 -0.38401186 -0.15692881
0003c0 4d 37 1e be 87 6d 06 be 5a f7 2f 3e a7 a8 5b bd
       -0.15450783 -0.13127719 0.17184201 -0.053627636
0003d0 b8 5b d8 bd d1 cb 1a 3e e7 21 8f 3e d4 9d 64 3d
       -0.10564369 0.15116812 0.27955553 0.05581458
0003e0 8b c0 cf bd 4f 74 d5 3d 68 84 64 bc 9a 7a 55 3e
       -0.101441465 0.10422575 -0.013947584 0.2084755
0003f0 ba df 16 3e c0 71 44 3d 35 66 67 3e c6 f5 5a be
       0.14733782 0.047960043 0.22597583 -0.21382818

net.fc_nn.fc_hidden.1.bias f4 [40]
000000 b5 67 c5 3d 6e cf b2 3e 25 77 c4 3c 12 cf 34 3d
       0.09638921 0.3492388 0.023982594 0.04414279
000010 32 f0 ee 3c 19 f3 f1 3d 2e 3b bb 3e 9e 8f a5 bd
       0.029167268 0.11813945 0.36568588 -0.080840334
000020 0f 32 3e be fd e3 00 3e af 61 0a 3e d1 18 6a 3e
       -0.18573783 0.1258697 0.13513826 0.22861029
000030 71 bb 56 3e a1 d4 8c 3c bc 49 84 3e 56 6a 1c 3d
       0.2096994 0.017191233 0.25837505 0.038187347
000040 90 5f 12 3e ad eb 20 3e eb a5 c2 3e b5 3c e2 3e
       0.14294267 0.15714903 0.3801721 0.4418694
000050 5e 7e 03 3d b0 5e 2f bd c8 b1 95 3e d3 e8 f6 3c
       0.032102935 -0.04281491 0.292372 0.030140316
000060 e8 c7 18 bd 08 e3 ac bb 2b 75 8f bd f8 d0 80 3e
       -0.03730002 -0.0052760877 -0.0700477 0.2515943
000070 0e 81 57 bb dc 64 a0 3c 36 06 f3 3d 93 f4 4b bb
       -0.003288332 0.019579343 0.11866419 -0.003112112
000080 8a 91 bd 3e 4e fc d8 bc ad 6c b6 3e c5 f8 50 3e
       0.370251 -0.026487496 0.35629788 0.20407398
000090 45 48 fe 3b c1 25 9c bd fc f7 4b 3e da 9e 9c bd
       0.00776008 -0.076243885 0.19918817 -0.07647486
