L96P2/results/nets/net_mytrainedmodelEnergyScore.pth (torch, 45850 bytes, 12 tensors)

net.gru.weight_ih_l0 f4 [96, 8]
-0.2334335 0.16647999 -0.24904045 0.2999645 0.06586391 -0.3229677 0.2658026 -0.074512705
-0.7011564 -0.57642525 0.2261776 0.26952603 0.47131127 -0.08262988 -0.06163316 -0.2990141
0.097639434 -0.35958043 -0.08964008 0.3122408 0.32162485 -0.51945716 -0.08530491 0.23600966
-0.24779214 -0.059337094 -0.12761389 -0.047042098 0.17767884 0.33693165 -0.16326913 0.18289152
0.11933792 0.5477525 0.8440996 -0.035901494 -0.35522184 -0.28662908 0.56762636 0.08355492
0.07460946 -0.22953415 -0.2527477 0.6260812 -0.16197027 0.29603794 -0.09103556 0.018830394
0.01761453 0.33797184 -0.29083094 0.12426947 -0.0033036997 0.45651338 -0.27994627 -0.6959172
-0.1208316 -1.2005807 0.56670964 0.1647818 -0.21725866 0.0039697546 0.16448194 0.48713452
-0.07804753 -0.24252413 0.3749606 -0.116372675 0.4760683 -0.33370945 -0.17214665 0.061621763
0.13388082 -0.019112036 -0.06598051 -0.18982506 0.17204574 0.16077256 -0.21660958 -0.19602911
-0.9059431 0.287796 0.3384081 -0.90114474 0.030959569 -0.43957493 0.43716606 0.38180947
0.15820654 -0.0060984045 -0.1585851 0.9518461 -0.36953613 -0.014364846 0.08210909 -0.027958132
-0.097798005 0.1179669 -0.088827446 0.20958291 0.3775043 0.5863349 -0.2464665 0.1039826
0.045668468 -0.028251246 0.16827253 -0.23605733 -0.047004398 0.42471597 0.29435122 0.10520529
-0.27493137 -0.50732934 -0.5184196 -0.14094588 0.04499708 0.1953193 0.45405093 0.11738987
-0.078067504 0.07509309 0.33673093 -1.0947073e-05 -0.29198924 0.23301195 0.9530294 0.44216198
0.29077798 0.34219983 -0.32068688 -0.3881368 -0.16545972 0.3816456 0.111678265 -0.088828534
0.12349029 -0.7034752 -0.47922572 0.18881069 -0.115651965 0.20850937 0.013467655 0.013476524
-0.10680272 0.12667935 1.4386548 0.9483494 -0.12051909 -0.19012983 -0.41542482 -0.26727003
-0.31684443 -0.40421164 -0.21133372 0.06782586 -0.038805444 -0.14336154 0.13396321 0.99999726
-0.28640848 0.055736747 0.36269462 0.115611844 -0.17213267 0.15474725 -0.29593354 -0.1097433
-0.21401368 0.2331491 0.038552955 -0.08862896 0.050619934 0.07073771 -0.55350083 -0.08479703
0.4182046 -0.21547242 -0.6324955 0.2308183 0.20082992 0.26031756 -0.24978386 0.12585667
-0.67816 0.61087686 0.55612653 0.20267987 -0.34595495 -0.054743245 0.08626896 0.29716
-0.29260573 -0.02476571 -0.18192121 0.20448183 0.6403797 0.23993616 -0.15880075 0.116943516
0.2789175 0.5677125 -0.49954104 0.2520327 -0.15085329 -0.43595526 -0.442878 -0.0121799195
-0.22438581 0.24399154 0.90166634 0.68736064 0.19519705 0.05393255 0.21847038 0.3195427
-0.06255995 0.26292744 -0.15901436 0.29010695 0.58976173 0.2772802 0.07261878 -0.48508975
-0.04276193 -0.34810925 -0.09981576 -0.15193796 0.81307805 0.34233236 0.2593748 -0.2778808
-0.05633134 -0.09969941 -0.20415671 0.21226147 0.1246602 -0.57491475 -0.81164145 0.26338327
0.38961223 0.21255256 0.44552281 -0.36809286 -0.07559465 0.15736634 0.0074556465 0.055282384
0.22381108 -0.18791848 0.06434901 -0.053266443 -0.46060553 -0.2913661 0.0635122 0.17764774
00000000: 3109 6fbe bb79 2a3e 7604 7fbe f294 993e
00000010: a8e3 863d 065c a5be 4717 883e 1e9a 98bd
00000020: fc7e 33bf 9b90 13bf 1a9b 673e 51ff 893e
00000030: b64f f13e db39 a9bd 0d73 7cbd 6018 99be
00000040: 2ff7 c73d ed1a b8be 3895 b7bd 07de 9f3e
00000050: 03ac a43e 25fb 04bf 57b4 aebd 84ac 713e
00000060: 39bd 7dbe 740b 73bd 37ad 02be 37af 40bd
00000070: 71f1 353e 4e82 ac3e 0630 27be ea47 3b3e
00000080: 7067 f43d 8239 0c3f e916 583f 720d 13bd
00000090: a3df b5be 0cc1 92be f64f 113f d81e ab3d
000000a0: d8cc 983d 000b 6bbe 2668 81be dc46 203f
000000b0: 89db 25be 4992 973e da70 babd 3342 9a3c
000000c0: 594c 903c a50a ad3e cbe7 94be fe80 fe3d
000000d0: e282 58bb 1fbc e93e 1e55 8fbe a127 32bf
000000e0: 8f76 f7bd a1ac 99bf e213 113f 8fbc 283e
000000f0: 0e79 5ebe b714 823b f46d 283e b269 f93e
00000100: 62d7 9fbd 3f58 78be d6fa bf3e cc54 eebd
00000110: 39bf f33e f7db aabe 3647 30be 1a67 7c3d
00000120: 0e18 093e d890 9cbc ca20 87bd 8061 42be
00000130: c22c 303e 90a1 243e e7ce 5dbe dbbb 48be
00000140: e3eb 67bf ff59 933e d443 ad3e 6cb1 66bf
00000150: ec9e fd3c f70f e1be 3bd4 df3e 887c c33e
00000160: e500 223e 20d5 c7bb 2264 22be 30ac 733f
00000170: d733 bdbe 885a 6bbc d028 a83d 7408 e5bc
00000180: 524a c8bd a198 f13d 2aeb b5bd e79c 563e
00000190: 3e48 c13e 0b1a 163f b761 7cbe d4f4 d43d
000001a0: dc0e 3b3d 286f e7bc a24f 2c3e 03b9 71be
000001b0: af87 40bd 5f74 d93e 34b5 963e df75 d73d
000001c0: cec3 8cbe 56e0 01bf 26b7 04bf 1e54 10be
000001d0: dc4e 383d c801 483e 5d79 e83e 1a6a f03d
000001e0: dbe1 9fbd 68ca 993d ff67 ac3e 52a9 37b7
000001f0: 9d7f 95be af9a 6e3e bcf9 733f 0e63 e23e
00000200: dae0 943e d134 af3e 1231 a4be deb9 c6be
00000210: 466e 29be 0d67 c33e 93b7 e43d bceb b5bd
00000220: 7ae8 fc3d f316 34bf 135d f5be 9757 413e
00000230: f0da ecbd 7b83 553e 70a7 5c3c a3cc 5c3c
00000240: 62bb dabd 3bb8 013e d725 b83f 07c7 723f
00000250: b6d2 f6bd 65b1 42be 90b2 d4be 9ed7 88be
00000260: 6f39 a2be d4f4 cebe de67 58be 49e8 8a3d
00000270: 75f2 1ebd 5ecd 12be a72d 093e d2ff 7f3f
00000280: 22a4 92be 374c 643d 1cb3 b93e e7c5 ec3d
00000290: 8c43 30be 1076 1e3e 9a84 97be 18c1 e0bd
000002a0: 6726 5bbe a3be 6e3e b4e9 1d3d 1a83 b5bd
000002b0: d956 4f3d efde 903d 3bb2 0dbf 11aa adbd
000002c0: ea1e d63e cda4 5cbe 3aeb 21bf a25b 6c3e
000002d0: 5ca6 4d3e 5848 853e 57c7 7fbe 92e0 003e
000002e0: e59b 2dbf 6d62 1c3f 4f5e 0e3f 508b 4f3e
000002f0: 0221 b1be 743a 60bd c8ad b03d 5b25 983e
00000300: 6bd0 95be 75e1 cabc 8e49 3abe af63 513e
00000310: edef 233f d3b1 753e aa9c 22be 1580 ef3d
00000320: 46ce 8e3e 9b55 113f d8c3 ffbe 6e0a 813e
00000330: 4979 1abe 8735 dfbe e8c0 e2be 498e 47bc
00000340: 65c5 65be ebd8 793e 9bd3 663f def6 2f3f
00000350: bce1 473e 61e8 5c3d b3b6 5f3e 1a9b a33e
00000360: 6e1f 80bd 6d9e 863e a9d4 22be e688 943e
00000370: a0fa 163f acf7 8d3e 28b9 943d af5d f8be
00000380: 2227 2fbd 603b b2be 356c ccbd a095 1bbe
00000390: e225 503f 3046 af3e c6cc 843e 6446 8ebe
000003a0: b1bb 66bd 342f ccbd 750e 51be 125b 593e
000003b0: d94d ff3d 9d2d 13bf bcc7 4fbf 2cda 863e
000003c0: 417b c73e 61a7 593e 911b e43e ab76 bcbe
000003d0: 5ed1 9abd a424 213e 7f4e f43b c86f 623d
000003e0: bb2e 653e b46d 40be 6ac9 833d ea2d 5abd
000003f0: 7dd4 ebbe f02d 95be af12 823d 4ae9 353e

net.gru.weight_hh_l0 f4 [96, 32]
0.44415942 -0.46105218 0.016894126 -0.4270014 0.05001654 0.3050206 0.027694738 -0.38805312
0.7225905 -0.17060995 -0.07265132 0.3417885 0.14922735 0.6694902 -0.14447458 0.1082055
0.14213435 -0.8027579 -0.26882252 -0.040574044 -0.40293047 -0.48052448 -0.31796193 -0.06682287
1.0742754 -0.5311871 0.20425242 -0.25787494 -0.27596527 -0.33130908 0.4008647 0.19582756
-0.1195761 0.9118755 -0.10158212 1.417522 -0.18770751 0.22114156 0.14206083 -0.6000328
0.4195106 -1.6270025 2.6455774 -0.0046020807 0.36228505 -0.120693296 0.019331278 -0.38491827
-0.008144546 0.14496435 -1.0737685 0.4434306 -0.7983625 0.23376712 -0.35578588 0.18496105
-0.45336136 1.0855037 0.04564733 -0.19561315 0.20653847 0.13612615 -0.22904208 0.08897859
-0.20664178 0.36078078 0.47594652 -0.1403235 -0.09001663 0.12374843 0.10534338 -0.40663275
-0.24011007 -0.082480155 -1.0236008 -0.26925993 -0.046611294 -0.32338467 -0.25507605 0.07747716
-0.34803298 0.257558 -0.057873365 0.41114056 0.06904499 0.066032454 0.11869306 0.022016782
-0.73524725 -0.71578586 -0.06194053 -0.18440077 0.3131057 0.06785122 0.63841254 -0.0052173873
0.42554986 0.12470275 0.37695622 0.19695236 -0.10093155 0.12026965 -0.5055074 -0.14408207
0.13774393 -0.26383173 1.1489012 -0.17278276 0.025562724 -0.65320146 -0.06384685 -0.22083223
0.31466752 0.63814944 -0.12382247 -0.7523289 0.17736469 -0.06385777 -0.09088393 -0.040254615
0.17220546 0.15610826 -0.25313115 0.13277836 0.3423509 0.19241549 -0.52080667 0.45127156
0.19990851 0.5826584 0.6593578 -0.29987717 -0.6052348 -1.3335688 -0.026389379 -0.40258962
-0.27589792 -0.06970213 -0.39875892 1.2102497 0.46355894 1.0430415 -0.11283869 -0.029019607
-0.19322783 1.0519345 0.28017712 -0.8992587 -0.46741813 -0.57888806 0.3925879 0.16676207
-0.70304435 1.0791211 0.49159113 -0.615752 -0.2742561 -0.3702989 -0.42004213 0.18165334
0.73033065 -0.32092014 -0.87786 -0.33929247 0.07194399 0.86393154 -0.3839183 -0.18357933
-0.46106037 1.5612653 0.048448924 0.9568911 -0.4933773 0.06363354 0.552239 -0.54037786
-0.31110254 -0.19444598 -0.81406116 0.83120656 0.3798753 0.23207332 0.5023133 -0.14223877
-0.7330571 -0.2512245 -1.5128754 -0.3182294 -0.32149604 0.7787761 0.6714704 0.46888044
0.18743841 0.46982235 -0.19302939 -0.22391728 -0.31066662 -0.08115728 -0.42331624 0.23253717
0.01879121 0.1694772 -0.55632025 -0.60178727 -0.52895534 -0.64372426 0.36106846 -0.17511548
-0.08903113 0.7953829 0.42500475 -0.29985026 -0.28235856 -0.40854383 0.09561203 -0.16971582
0.14622332 0.5371255 -0.31013465 -0.29164296 0.046986375 0.5678084 -0.32418177 -0.35702974
0.48817956 0.3815403 -0.4789096 0.20005894 -0.9401197 1.0333513 -0.16383041 -1.1813668
0.05385447 0.1971799 -1.1387103 -0.17031412 0.63139164 0.19613984 -0.15304188 -0.16644602
-0.7907611 -0.16326809 0.26884496 -0.853535 -0.16147575 0.719945 0.11323275 -0.28703326
0.12942742 1.2988183 -0.22814593 0.7552328 -0.20806593 -0.3276885 1.0492413 -0.32555848
00000000: dd68 e33e 080f ecbe 8d65 8a3c ed9f dabe
00000010: 25de 4c3d a92b 9c3e 13e0 e23c e6ae c6be
00000020: b1fb 383f 60b4 2ebe 37ca 94bd e7fe ae3e
00000030: 0ecf 183e b663 2b3f 25f1 13be d89a dd3d
00000040: ab8b 113e 8b81 4dbf 1ba3 89be f830 26bd
00000050: e74c cebe 4e07 f6be e8cb a2be 6eda 88bd
00000060: db81 893f e1fb 07bf 8c27 513e 2f08 84be
00000070: 524b 8dbe 58a1 a9be 233e cd3e 0587 483e
00000080: 50e4 f4bd ac70 693f 490a d0bd 5c71 b53f
00000090: 6636 40be ef72 623e 6578 113e c09b 19bf
000000a0: 18ca d63e 9e41 d0bf 2451 2940 0dcd 96bb
000000b0: 6d7d b93e 0c2e f7bd a15c 9e3c 0214 c5be
000000c0: b470 05bc 8971 143e 3f71 89bf 5609 e33e
000000d0: 7c61 4cbf a660 6f3e 9129 b6be 6e66 3d3e
000000e0: fb1e e8be c9f1 8a3f b2f8 3a3d d04e 48be
000000f0: d27e 533e a764 0b3e 028a 6abe 683a b63d
00000100: e799 53be 42b8 b83e 43af f33e f7b0 0fbe
00000110: a45a b8bd d16f fd3d 45be d73d 2b32 d0be
00000120: 6adf 75be 5beb a8bd 5a05 83bf 70dc 89be
00000130: 7ceb 3ebd ad92 a5be 5499 82be 58ac 9e3d
00000140: 6131 b2be a4de 833e 9f0c 6dbd 0481 d23e
00000150: 7667 8d3d 063c 873d 5915 f33d 8a5c b43c
00000160: 2a39 3cbf be3d 37bf 5ab5 7dbd 8ed3 3cbe
00000170: 644f a03e 95f5 8a3d 016f 233f 9ef6 aabb
00000180: ace1 d93e 2864 ff3d 6800 c13e e1ad 493e
00000190: 33b5 cebd ef4f f63d ef68 01bf 408a 13be
000001a0: bf0c 0d3e f414 87be 320f 933f f7ed 30be
000001b0: eb68 d13c 3638 27bf 23c2 82bd d821 62be
000001c0: 1a1c a13e c35d 233f a396 fdbd a098 40bf
000001d0: 179f 353e ddc7 82bd 5b21 babd 06e2 24bd
000001e0: a156 303e d8da 1f3e 689a 81be 0df7 073e
000001f0: 9e48 af3e 9108 453e 9653 05bf 110d e73e
00000200: d1b4 4c3e 1a29 153f accb 283f 8089 99be
00000210: abf0 1abf 62b2 aabf 8a2e d8bc 3a20 cebe
00000220: 7e42 8dbe febf 8ebd 212a ccbe 76e9 9a3f
00000230: 9957 ed3e 6282 853f f917 e7bd 87ba edbc
00000240: 84dd 45be caa5 863f 6073 8f3e d135 66bf
00000250: 6e51 efbe 0232 14bf 4801 c93e adc3 2a3e
00000260: b7fa 33bf a420 8a3f d5b1 fb3e eca1 1dbf
00000270: 4c6b 8cbe d197 bdbe c30f d7be 5503 3a3e
00000280: f3f6 3a3f a54f a4be 6fbb 60bf beb7 adbe
00000290: 5f57 933d 9e2a 5d3f f090 c4be 38fc 3bbe
000002a0: 1b10 ecbe 8bd7 c73f 6172 463d d1f6 743f
000002b0: f39b fcbe 4d52 823d 895f 0d3f 3456 0abf
000002c0: d548 9fbe d91c 47be 5066 50bf f4c9 543f
000002d0: 047f c23e a1a4 6d3e 9b97 003f 0aa7 11be
000002e0: a1a9 3bbf 7fa0 80be e7a5 c1bf f7ee a2be
000002f0: 219b a4be df5d 473f 7ce5 2b3f 1911 f03e
00000300: dbef 3f3e 8e8c f03e 7fa9 45be 924a 65be
00000310: b20f 9fbe ca35 a6bd e8bc d8be 391e 6e3e
00000320: 06f0 993c 6e8b 2d3e 016b 0ebf bb0e 1abf
00000330: 9e69 07bf 1dcb 24bf f7dd b83e 7951 33be
00000340: f455 b6bd 379e 4b3f 399a d93e f985 99be
00000350: 4d91 90be a82c d1be 3dd0 c33d fcc9 2dbe
00000360: 91bb 153e 0f81 093f f8c9 9ebe 3a52 95be
00000370: c974 403d e45b 113f 27fb a5be 9acc b6be
00000380: acf2 f93e 4059 c33e a433 f5be 40dc 4c3e
00000390: afab 70bf db44 843f 29c3 27be 0737 97bf
000003a0: 8196 5c3d 87e9 493e 42c1 91bf d366 2ebe
000003b0: e2a2 213f e2d8 483e 03b7 1cbe d370 2abe
000003c0: 526f 4abf c02f 27be 0ca6 893e 4581 5abf
000003d0: e659 25be 514e 383f 92e6 e73d 06f6 92be
000003e0: 9f88 043e ae3f a63f 169f 69be f056 413f
000003f0: 3c0f 55be c9c6 a7be 8a4d 863f 9aaf a6be

net.gru.bias_ih_l0 f4 [96]
-0.026187737 -0.037124738 0.10368376 -0.20331194 -0.1545878 -0.37963393 -0.29156372 0.11966099
-0.080444776 -0.019366486 -0.2601547 -0.0025142925 0.06000529 0.036812432 0.28156385 0.009890861
0.25164554 -0.08880616 0.20318185 -0.2904132 0.115892194 0.52369565 -0.10287062 0.44504228
0.06401938 0.27703816 0.14757204 0.3037465 0.16764036 -0.38469943 -0.028333973 0.08662005
-0.43801835 0.25808257 -0.31712914 -0.12013779 -0.025923047 -0.29284257 0.2451828 0.42756516
-0.33765152 0.63411045 0.6000154 0.80022854 -0.6088117 0.07786493 -0.20119835 0.17169186
-0.16661006 -0.41189212 0.38810548 -0.5709037 -0.07034584 -0.35962856 -0.0045664054 -0.12739708
-0.15529129 0.51712984 0.60766125 0.034778785 0.019055452 0.07635218 -0.2715146 -0.04058056
-0.21498919 0.05113872 0.2918348 -0.26379028 -0.10849415 0.291612 0.11288 -0.08758852
-0.2899897 -0.06726297 0.044549756 0.15590811 -0.2331921 0.05345747 -0.44387248 0.027113298
0.25755093 -0.3491939 -0.05645241 0.060090892 0.014808336 -0.3130622 -0.08445074 0.17531921
-0.22804166 -0.06321844 0.343449 0.17863315 -0.112591594 0.21543165 0.3340511 -0.25375465
00000000: aa87 d6bc 1c10 18bd 2758 d43d 0131 50be
00000010: 444c 1ebe 615f c2be d747 95be d210 f53d
00000020: 3bc0 a4bd 77a6 9ebc ff32 85be d4c6 24bb
00000030: 1bc8 753d a2c8 163d 2329 903e 470d 223c
00000040: afd7 803e 01e0 b5bd e70e 503e 0ab1 94be
00000050: e358 ed3d eb10 063f d5ad d2bd 95dc e33e
00000060: 981c 833d f2d7 8d3e 201d 173e a984 9b3e
00000070: eaa9 2b3e 53f7 c4be a61c e8bc da65 b13d
00000080: f143 e0be 6623 843e c05e a2be cd0a f6bd
00000090: 925c d4bc 76ef 95be 3311 7b3e d2e9 da3e
000000a0: a9e0 acbe 1055 223f 9c9a 193f c7db 4c3f
000000b0: 15db 1bbf a677 9f3d f106 4ebe fecf 2f3e
000000c0: d49b 2abe 86e3 d2be c3b5 c63e bf26 12bf
000000d0: 7b11 90bd 3c21 b8be c9a1 95bb 6174 02be
000000e0: ae04 1fbe 9f62 043f b08f 1b3f 3374 0e3d
000000f0: 2e1a 9c3c 885e 9c3d f603 8bbe cd37 26bd
00000100: 2026 5cbe d676 513d 5f6b 953e 850f 87be
00000110: 2e32 debd 2b4e 953e a12d e73d 9c61 b3bd
00000120: 8879 94be 2bc1 89bd ce79 363d 60a6 1f3e
00000130: e9c9 6ebe 38f6 5a3d 4143 e3be b51c de3c
00000140: b7dd 833e 8bc9 b2be a43a 67bd de21 763d
00000150: aa9e 723c b049 a0be 82f4 acbd e186 333e
00000160: c183 69be ab78 81bd 8cd8 af3e 9ceb 363e
00000170: 6c96 e6bd 1d9a 5c3e bf08 ab3e 21ec 81be

net.gru.bias_hh_l0 f4 [96]
0.14321673 0.14251748 0.05032259 0.04873622 -0.11885288 -0.31657794 -0.29352894 0.0074019744
0.053001706 -0.009127853 -0.015499097 0.0038192591 0.13702996 0.09603881 0.1348112 0.077591136
0.29384407 -0.114273235 0.25954607 -0.07518761 0.019696927 0.78007895 -0.23070854 0.19136642
0.00601316 0.20766994 0.09145692 0.32482797 0.2596032 -0.39553496 0.012949093 0.046159666
-0.62615097 0.5036823 -0.35530186 -0.16843557 -0.15042083 -0.2077345 0.029413808 0.21480995
-0.015980352 0.6955573 0.49885795 0.8297164 -0.6927154 -0.24040267 -0.1957718 0.008729079
-0.2130703 -0.16931225 0.43989795 -0.37299794 -0.118103206 -0.25731903 0.06335179 0.09149788
0.0989505 0.6304729 0.68319935 0.026445024 -0.066702545 -0.15726241 -0.26596478 -0.13785234
-0.16231063 -0.27322 -0.36919567 0.21498963 -0.028629959 -0.1712037 -0.10027967 -0.33466813
0.16721378 -0.040091794 -0.26871118 0.082785435 0.17980091 -0.022979213 -0.4264325 0.69090205
0.12287426 0.09937195 -0.19245769 0.099012226 -0.1580613 -0.32417667 0.025118416 0.45908934
0.13223091 0.054339327 -0.20686784 -0.040254973 -0.20952496 -0.11378547 -0.2016819 -0.21374005
00000000: 68a7 123e 1af0 113e 0f1f 4e3d a19f 473d
00000010: 2469 f3bd 8116 a2be 6d49 96be 438c f23b
00000020: 5118 593d fe8c 15bc edef 7dbc 894c 7a3b
00000030: 9551 0c3e ffaf c43d f20b 0a3e 1ae8 9e3d
00000040: bb72 963e 1608 eabd 39e3 843e f6fb 99bd
00000050: 735b a13c 41b3 473f dc3e 6cbe 8ff5 433e
00000060: 0b0a c53b 6ea7 543e c44d bb3d da4f a63e
00000070: b6ea 843e 8f83 cabe 6f28 543c eb11 3d3d
00000080: 6e4b 20bf 53f1 003f 20ea b5be 607a 2cbe
00000090: eb07 1abe 5ab8 54be 3af5 f03c 24f7 5b3e
000000a0: 3ae9 82bc 0b10 323f 4f6a ff3e 4b68 543f
000000b0: cc55 31bf 1e2c 76be 6778 48be 6904 0f3c
000000c0: 1a2f 5abe 3160 2dbe 4e3a e13e 96f9 bebe
000000d0: 18e0 f1bd 52bf 83be 95be 813d 3e63 bb3d
000000e0: 8fa6 ca3d ac66 213f 27e6 2e3f 3ca3 d83c
000000f0: 589b 88bd 6609 21be 892c 88be 2a29 0dbe
00000100: c234 26be 7ee3 8bbe 3707 bdbe 3e26 5c3e
00000110: 6089 eabc 0650 2fbe 6d5f cdbd 9f59 abbe
00000120: 173a 2b3e 4b37 24bd 8394 89be 698b a93d
00000130: bb1d 383e e73e bcbc 5c55 dabe f5de 303f
00000140: 80a5 fb3d 8583 cb3d a113 45be ecc6 ca3d
00000150: d2da 21be 7cfa a5be 23c5 cd3c c20d eb3e
00000160: 8a67 073e ea92 5e3d 2ad5 53be 66e2 24bd
00000170: b68d 56be 5b08 e9bd b385 4ebe acde 5abe

net.fc_nn.fc_in.weight f4 [49, 33]
0.77718145 -0.37177306 0.05493889 0.18664998 -0.11193109 -0.32500407 0.36431792 -0.036354776
0.11142732 -0.5884272 -0.1583437 -0.17119041 0.2236559 0.0815688 -0.07717499 0.0767084
0.10803702 0.06436071 0.14067018 0.4375407 0.22860256 0.3753803 0.5476163 0.12843205
-0.5099729 0.08206402 -0.19519475 -0.0943733 -0.050318502 -0.2057082 -0.60831714 0.31811726
-0.3448774 0.04747638 0.017906513 0.013769607 0.21929145 -0.055247083 0.5332069 0.113394715
0.16547884 -0.48168078 0.82827556 -0.04863943 0.09338847 -0.15254912 -0.1526231 -0.07844135
0.009182666 -0.115640596 -0.38044867 -0.5898039 -0.035691217 0.33640406 -0.26283896 0.20132403
0.3069313 -0.027124913 0.14307168 0.65310055 -0.23377627 0.06631491 -0.16195498 -0.3229342
-0.18972157 -0.29508373 -0.03740159 0.26681513 0.15896897 -0.1027053 -0.2333626 -0.32533616
0.1102599 0.1406053 0.05245327 0.5346647 -0.16786265 -0.03482255 0.012828972 -0.12602112
-0.08211948 0.10502334 -0.60520977 -0.14802067 0.019201254 0.84361076 0.18384837 -0.28376487
0.42522934 -0.06432521 -0.3398258 -0.028959004 0.5897704 -0.032758836 -0.37986168 0.5776602
-0.059401434 -0.11101827 0.23322362 0.44340092 0.34063348 0.10332684 -0.8009647 -0.10890034
0.7641947 -0.040228672 -0.052421577 0.009915417 0.46991012 0.073779106 -0.054938767 -0.42936805
-0.3067583 -0.16377346 -0.045378745 -0.39063695 -0.2619364 0.87807846 0.45316455 -0.08333258
0.35593787 -0.049679358 -0.27364448 -0.5883521 -0.18280153 -0.42366284 -0.016903533 -0.08507314
-0.14397927 -0.22829948 0.15495256 1.1917368 -0.03163317 0.14676054 0.08195204 0.090835966
0.12373314 -0.2659039 0.11954591 -0.06138002 -0.16513413 0.13498975 -0.17225792 0.120873004
0.006300585 -0.14733914 -0.13962151 0.01696081 -0.08705917 -0.1696282 0.07931083 0.13183044
-0.011279263 -0.043869622 0.029085308 0.1047344 -0.2572744 0.06838217 -0.022328023 0.09517651
0.0230525 0.004487413 -0.28556243 -0.22545063 0.7295065 -0.21849184 -0.14362887 -0.00014853948
-0.036848605 0.04005944 -0.057401083 0.18706308 0.18177591 -0.017296994 0.30436167 -0.18834355
0.039222497 0.032694045 -0.0007952507 -0.1800041 0.21562524 0.011664801 0.12004777 -0.26099035
-0.29729345 0.09723828 -0.01614253 0.027088258 0.06271901 -0.020467006 -0.09889337 0.287435
0.023241766 -0.0150310425 0.07705623 0.11317313 0.1055087 -0.93139505 -0.078868836 0.024289645
-0.057092763 0.17165764 0.069622874 -0.0863442 -0.011592297 -0.1005188 0.11579357 0.3525157
-0.16344035 0.27941465 -0.030468646 0.054336287 -0.22398241 0.14593393 -0.029073378 -0.13513602
-0.15778895 0.122477606 0.12097434 -0.03390804 -0.016916398 0.20470622 0.16496731 -0.045092892
0.2950619 0.054709766 -0.21486515 -0.09106118 -0.21467201 -0.24135168 -1.0816675 -0.036956873
-0.22368728 -0.19146463 -0.3856602 0.26574814 0.37979177 -0.044676617 -0.12781642 -0.04458838
1.932659 -0.0028688938 0.3725109 0.46728536 -0.2785498 0.22499277 -0.020320075 0.21114333
-0.13275608 -0.77021766 -0.4958535 0.12961559 0.6013633 -0.20135716 0.05825896 -0.39542127
00000000: 5df5 463f 0a59 bebe 9a07 613d 2c21 3f3e
00000010: 213c e5bd ef66 a6be e187 ba3e bfe8 14bd
00000020: 0234 e43d 2aa3 16bf da24 22be 8a4c 2fbe
00000030: 0d06 653e 8b0d a73d ec0d 9ebd 4b19 9d3d
00000040: 8342 dd3d 8ccf 833d d80b 103e 5605 e03e
00000050: ca16 6a3e d931 c03e 9530 0c3f b183 033e
00000060: 958d 02bf 2e11 a83d 22e1 47be ca46 c1bd
00000070: c61a 4ebd 2ca5 52be acba 1bbf 44e0 a23e
00000080: c593 b0be 9876 423d aeb0 923c eb99 613c
00000090: f08d 603e c44a 62bd 3f80 083f 7d3b e83d
000000a0: 4973 293e dd9e f6be de09 543f 243a 47bd
000000b0: 7442 bf3d d635 1cbe 3b49 1cbe dca5 a0bd
000000c0: e572 163c fad4 ecbd 2bca c2be 63fd 16bf
000000d0: f430 12bd 273d ac3e d492 86be e327 4e3e
000000e0: 1926 9d3e 1135 debc 6281 123e 9931 273f
000000f0: 0c63 6fbe 1dd0 873d 87d7 25be a257 a5be
00000100: 5f46 42be 3715 97be 6932 19bd fe9b 883e
00000110: c3c8 223e 2857 d2bd 9bf6 6ebe 7692 a6be
00000120: f1cf e13d d6fa 0f3e 3dd9 563d c9df 083f
00000130: 30e4 2bbe 17a2 0ebd 9c30 523c ae0b 01be
00000140: 422e a8bd 7a16 d73d 07ef 1abf bb92 17be
00000150: f34b 9d3c e0f6 573f bf42 3c3e a149 91be
00000160: a9b7 d93e f0bc 83bd a6fd adbe 6f3b edbc
00000170: 31fb 163f 212e 06bd 3b7d c2be 8ae1 133f
00000180: eb4e 73bd 8c5d e3bd 2cd2 6e3e 7205 e33e
00000190: 8367 ae3e 069d d33d 060c 4dbf 2407 dfbd
000001a0: 44a2 433f d2c6 24bd 02b8 56bd 4674 223c
000001b0: 0f98 f03e 8019 973d 7907 61bd 21d6 dbbe
000001c0: 6d0f 9dbe 3bb4 27be 10df 39bd 9101 c8be
000001d0: 871c 86be c0c9 603f 2f05 e83e 46aa aabd
000001e0: 7d3d b63e 957c 4bbd 211b 8cbe 3e9e 16bf
000001f0: 5330 3bbe 56ea d8be 4779 8abc d43a aebd
00000200: 4d6f 13be 57c7 69be e2ab 1e3e d58a 983f
00000210: c891 01bd 6548 163e 79d6 a73d 3508 ba3d
00000220: cd67 fd3d 8e24 88be 7cd4 f43d 9e69 7bbd
00000230: ec18 29be c13a 0a3e 6164 30be 448c f73d
00000240: 2375 ce3b 12e0 16be f1f8 0ebe 66f1 8a3c
00000250: 144c b2bd 04b3 2dbe b76d a23d 8ffe 063e
00000260: a8cc 38bc a2b0 33bd 5044 ee3c fd7e d63d
00000270: 78b9 83be f30b 8c3d 42e9 b6bc e7eb c23d
00000280: 99d8 bc3c 260b 933b 3d35 92be 88dc 66be
00000290: f0c0 3a3f 53bc 5fbe 7213 13be 43c1 1bb9
000002a0: 90ee 16bd 5e15 243d 661d 6bbd 778d 3f3e
000002b0: 7723 3a3e 6db2 8dbc 4bd5 9b3e 22dd 40be
000002c0: c5a7 203d 31ea 053d 5f78 50ba ff52 38be
000002d0: ddcc 5c3e b91d 3f3c 9bdb f53d 87a0 85be
000002e0: d936 98be dd24 c73d 573d 84bc 32e8 dd3c
000002f0: d372 803d 6caa a7bc 9b88 cabd ae2a 933e
00000300: 8465 be3c c344 76bc a8cf 9d3d 50c7 e73d
00000310: f214 d83d e86f 6ebf fc85 a1bd 14fb c63c
00000320: 1ada 69bd 05c7 2f3e 7096 8e3d 3ad5 b0bd
00000330: 9eed 3dbc cddc cdbd 2e25 ed3d f07c b43e
00000340: e85c 27be 700f 8f3e 6299 f9bc ba8f 5e3d
00000350: a55b 65be b46f 153e 4b2b eebc 1961 0abe
00000360: 6d93 21be 8ad5 fa3d 65c1 f73d 28e3 0abd
00000370: 4294 8abc 829e 513e 31ed 283e 53b3 38bd
00000380: 5a12 973e 5917 603d 9c05 5cbe 497e babd
00000390: fbd2 5bbe e524 77be 1574 8abf 1760 17bd
000003a0: 470e 65be 4e0f 44be 4175 c5be 2410 883e
000003b0: 1174 c23e d4fe 36bd 4fe2 02be 4ea2 36bd
000003c0: 5f61 f73f 0d04 3cbb c0b9 be3e 0740 ef3e
000003d0: 149e 8ebe 8164 663e 4976 a6bc f535 583e
000003e0: 36f1 07be fc2c 45bf 83e0 fdbe f3b9 043e
000003f0: f2f2 193f 9230 4ebe f2a0 6e3d a874 cabe

net.fc_nn.fc_in.bias f4 [49]
0.22437662 0.09110034 -0.0942323 0.051413324 0.056290608 -0.0419463 0.0022546651 -0.1425865
0.058536187 0.10698953 0.20008835 -0.083680995 0.037162263 0.12524535 0.09837184 -0.070165634
0.17648534 0.17908318 0.09590767 0.052349813 -0.16884352 0.03668749 0.0077097053 -0.26899678
0.022961855 0.18571058 0.1633241 0.040717993 -0.14764476 0.004478553 -0.018822221 0.013632895
-0.23226991 0.15681118 0.17189644 -0.36345786 -0.15077354 0.07514985 0.07889725 -0.00983529
-0.09799635 -0.22395273 0.008960211 0.033211503 0.046809815 0.13125996 0.120180875 0.09991788
0.16512984
00000000: fcc2 653e d192 ba3d ddfc c0bd c796 523d
00000010: fb90 663d e2cf 2bbd 01c3 133b 3202 12be
00000020: a4c3 6f3d 541d db3d f6e3 4c3e f160 abbd
00000030: 7537 183d 5140 003e 2d77 c93d 00b3 8fbd
00000040: 93b8 343e 9561 373e 3e6b c43d c26c 563d
00000050: 51e5 2cbe 9f45 163d b2a1 fc3b f2b9 89be
00000060: 801a bc3c ea2a 3e3e 6f3e 273e e9c7 263d
00000070: 3030 17be d3c0 923b 0f31 9abc 825c 5f3c
00000080: 2ad8 6dbe 1c93 203e 9f05 303e 2617 babe
00000090: 6164 1abe 2ae8 993d e294 a13d 3224 21bc
000000a0: 4fb2 c8bd dd53 65be d9cd 123c c908 083d
000000b0: a6bb 3f3d 0369 063e 6421 f63d bfa1 cc3d
000000c0: cc17 293e

net.fc_nn.fc_hidden.0.weight f4 [48, 49]
-0.15131654 -0.41641745 0.26606822 -0.35680664 0.06842665 -0.03388971 0.037084427 0.03943383
0.118672505 -0.3418389 0.10679374 0.036606513 -0.2418414 0.10305377 -0.056599054 0.001988609
0.342373 -0.23391433 0.17479636 0.23515107 0.19991305 -0.041978057 -0.1470034 -0.35779864
-0.05370753 -0.42242718 0.33581492 -0.16053142 -0.42622802 0.2532344 0.19513966 0.29164118
-0.91934305 0.22963533 0.20863903 0.06018814 0.24583267 0.049381338 -0.115708426 0.20762064
0.2289589 0.42164612 0.37117332 0.11077178 -0.13983789 0.3613813 0.3775223 0.057301678
-0.028846754 0.009640731 0.17797048 -0.12935193 -0.25604585 0.025560087 -0.31636983 -0.26338673
0.06596154 -0.40804377 -0.011476712 0.12632227 0.09279087 0.2049577 0.34338742 0.1349708
-0.1359893 0.1608759 -0.11449364 0.16507831 -0.018332731 0.109047025 -0.110694565 -0.4345991
-0.3239213 -0.26346776 -0.099737756 0.20486504 -0.32774734 0.00085404 0.13772732 0.19595952
0.34477282 -0.32042518 0.29235688 0.247923 -0.10768721 0.19031924 0.18181527 0.0016416573
0.1545493 0.1585278 0.15873843 0.31128782 0.18344623 -0.012922396 0.11985327 0.056495544
0.13787545 0.13688591 0.699663 -0.066498734 0.08466838 -0.2003094 -0.23089066 0.1951711
0.115968645 -0.3571477 0.52008325 0.67519665 0.045666534 -0.1546062 0.039524145 0.91034317
-0.6052597 0.15434404 0.35058972 0.24877794 1.3397452 0.87753344 -0.1629644 0.19606012
0.30979353 0.93714195 -0.01624406 -0.5913941 0.06886444 -0.055956237 0.49282384 0.13659191
-0.19869068 -0.04804549 -0.87228036 0.072113216 -0.3437278 0.20602994 -0.20584652 0.70290184
0.27726656 -0.06831584 -0.73473537 -0.33451024 0.6260299 0.5866879 0.0971523 0.59551597
-0.14272769 -0.94970274 -0.7352791 -0.11195267 0.12993608 -0.0050884816 -0.5026567 0.12139168
-0.21079242 -0.029666767 -0.19020195 0.021116532 0.20036425 0.12023587 0.16689119 0.29776597
0.28700843 0.16094701 0.025156358 -0.038787216 -0.09125677 -0.057789423 -0.174823 0.2649031
-0.28638107 -0.21901567 -0.14231491 -0.25966856 0.32498306 0.047057655 -0.027853144 0.104086906
0.10855607 0.088536814 0.12734343 0.13495195 0.00022487888 0.13880783 -0.0055532786 -0.011811801
0.1330984 0.13648522 -0.27993807 0.27830544 -0.21763594 0.33900592 -0.10249495 -0.006351656
0.05948804 0.2726641 -0.07921369 0.08841647 -0.09765128 0.10538203 -0.36233327 0.29479474
0.11669612 0.25500065 0.17503598 0.5003923 -0.19796923 0.52678865 0.4965447 0.104650095
-0.12043435 0.2134341 -0.07188671 0.1028883 0.06771105 0.22893533 -0.107492685 -0.10279743
0.39456496 0.19175567 0.059212405 0.61854774 -0.09436629 -0.19622363 0.07281309 -0.020785945
0.18108225 0.33271047 -0.01648153 0.3480418 0.037546314 0.26408726 0.10254644 -0.9217075
0.33155605 -0.07719455 0.39070767 -0.06472589 0.13811775 -0.45391247 0.09096261 -0.03231203
-0.036130905 0.17515059 0.25857598 -0.050473917 0.1208092 -0.07381112 -0.06475379 1.0960174
-0.45584056 -1.1512091 0.26512527 0.4573567 -2.3631387 0.14320351 0.28733185 -0.8624959
00000000: b9f2 1abe ab34 d5be 183a 883e 5caf b6be
00000010: 4523 8c3d f0cf 0abd d7e5 173d 5e85 213d
00000020: 920a f33d 8205 afbe adb6 da3d b6f0 153d
00000030: 46a5 77be db0d d33d 69d4 67bd 5353 023b
00000040: 844b af3e 3d87 6fbe d1fd 323e 71cb 703e
00000050: 02b6 4c3e 2ff1 2bbd 0f88 16be 6231 b7be
00000060: 6dfc 5bbd 6048 d8be efef ab3e 5962 24be
00000070: 8f3a dabe f0a7 813e b1d2 473e fe51 953e
00000080: 115a 6bbf 8625 6b3e 78a5 553e d787 763d
00000090: 8fbb 7b3e 1644 4a3d 8af8 ecbd 819a 543e
000000a0: 3474 6a3e 00e2 d73e 6e0a be3e 51dc e23d
000000b0: aa31 0fbe f806 b93e 9a4a c13e 2ab5 6a3d
000000c0: 0750 ecbc 28f4 1d3c e53d 363e d574 04be
000000d0: 7118 83be 6363 d13c 3afb a1be a0da 86be
000000e0: d816 873d 1deb d0be d208 3cbc a05a 013e
000000f0: 2409 be3d 6ee0 513e 7ad0 af3e c935 0a3e
00000100: c740 0bbe a7bc 243e a47b eabd 4a0a 293e
00000110: 862e 96bc 0c54 df3d d5b3 e2bd c683 debe
00000120: 03d9 a5be 3fe5 86be 4f43 ccbd 24c8 513e
00000130: 80ce a7be a7e1 5f3a 6408 0d3e 9da9 483e
00000140: 1086 b03e c50e a4be cdaf 953e 87df 7d3e
00000150: 1d8b dcbd 0ce3 423e c82d 3a3e e12c d73a
00000160: 2c42 1e3e 1d55 223e 548c 223e 1e61 9f3e
00000170: 54d9 3b3e 75b8 53bc a275 f53d df67 673d
00000180: 392f 0d3e d22b 0c3e 1d1d 333f 7d30 88bd
00000190: 9e66 ad3d e81d 4dbe 9a6e 6cbe efda 473e
000001a0: f880 ed3d 10dc b6be 2d24 053f b0d9 2c3f
000001b0: d50c 3b3d 1651 1ebe 12e4 213d 400c 693f
000001c0: 4df2 1abf 5d0c 1e3e 7f80 b33e a5bf 7e3e
000001d0: c57c ab3f 08a6 603f 24e0 26be fcc3 483e
000001e0: 429d 9e3e 89e8 6f3f 4312 85bc 9b65 17bf
000001f0: cd08 8d3d 5e32 65bd 6853 fc3e c0de 0b3e
00000200: 9275 4bbe 59cb 44bd c44d 5fbf 18b0 933d
00000210: 17fd afbe 83f9 523e 6ec9 52be 60f1 333f
00000220: e2f5 8d3e 2de9 8bbd 9e17 3cbf ed44 abbe
00000230: 7f43 203f 2e31 163f c9f7 c63d bc73 183f
00000240: 3527 12be b81f 73bf 403b 3cbf 7147 e5bd
00000250: f70d 053e 47bd a6bb 1cae 00bf 339c f83d
00000260: f8d9 57be b807 f3bc 4dc4 42be 94fc ac3c
00000270: 492c 4d3e 393e f63d 86e5 2a3e c874 983e
00000280: c5f2 923e 4bcf 243e b514 ce3c 58df 1ebd
00000290: d4e4 babd 9ab4 6cbd cd04 33be 61a1 873e
000002a0: 8aa0 92be a545 60be 00bb 11be 47f3 84be
000002b0: 2e64 a63e 87bf 403d 472c e4bc 842b d53d
000002c0: a552 de3d ca52 b53d 5166 023e d830 0a3e
000002d0: 77cd 6b39 a423 0e3e 47f8 b5bb 4986 41bc
000002e0: f24a 083e c8c2 0b3e 0b54 8fbe 0d7e 8e3e
000002f0: f5db 5ebe 2f92 ad3e dfe8 d1bd 8d21 d0bb
00000300: bba9 733d a19a 8b3e c93a a2bd b213 b53d
00000310: 65fd c7bd 89d2 d73d bf83 b9be 56ef 963e
00000320: 60fe ee3d 728f 823e a23c 333e b619 003f
00000330: 72b8 4abe 9fdb 063f 1b3b fe3e ca52 d63d
00000340: 49a6 f6bd 788e 5a3e 5739 93bd 1ab7 d23d
00000350: 17ac 8a3d 066e 6a3e 2025 dcbd 7587 d2bd
00000360: 6b04 ca3e 995b 443e b588 723d 2559 1e3f
00000370: 1d43 c1bd d9ee 48be 081f 953d 4947 aabc
00000380: a06d 393e 0759 aa3e 4604 87bc 8932 b23e
00000390: 2aca 193d 7236 873e de03 d23d 06f5 6bbf
000003a0: b7c1 a93e 2d18 9ebd d60a c83e 028f 84bd
000003b0: bd6e 0d3e 3767 e8be 9b4a ba3d 9f59 04bd
000003c0: 00fe 13bd ad5a 333e 1264 843e bdbd 4ebd
000003d0: d06a f73d 492a 97bd a39d 84bd 4c4a 8c3f
000003e0: ef63 e9be d25a 93bf 80be 873e a82a ea3e
000003f0: aa3d 17c0 f1a3 123e 291d 933e 88cc 5cbf

net.fc_nn.fc_hidden.0.bias f4 [48]
0.114235856 0.095093794 0.18973948 -0.09093005 0.060570132 -0.057277862 0.029757358 0.13835812
0.0677184 0.010051738 0.1344351 0.13113682 -0.010499085 0.13741526 -0.010998015 0.03782102
0.066721946 -0.06612742 0.069298714 0.21396498 -0.14853586 0.04195969 -0.044138014 0.040032275
0.0003332976 0.040783525 -0.067794085 0.14587127 0.0066109127 0.061983373 0.01583075 -0.047995828
0.15524322 -0.053391315 0.12220496 0.19068533 -0.08002564 0.11830151 0.10738193 -0.035208307
0.22153383 0.44872466 0.059206456 0.22659174 0.07774769 0.12167678 0.22984858 0.026743727
00000000: 7df4 e93d 89c0 c23d 114b 423e 8939 babd
00000010: 6318 783d 319c 6abd b4c5 f33c c0ad 0d3e
00000020: f2af 8a3d 0bb0 243c 5ba9 093e bb48 063e
00000030: 5b04 2cbc 96b6 0c3e 0531 34bc 37ea 1a3d
00000040: 84a5 883d d06d 87bd 7cec 8d3d a319 5b3e
00000050: c919 18be eddd 2b3d 10ca 34bd e2f8 233d
00000060: 72be ae39 a00c 273d a0d7 8abd 475f 153e
00000070: 5ba0 d83b 47e2 7d3d 7daf 813c 4697 44bd
00000080: 14f8 1e3e dab0 5abd 9846 fa3d 0443 433e
00000090: 7ce4 a3bd 1048 f23d 0feb db3d 9636 10bd
000000a0: c4d9 623e 3dbf e53e 7882 723d aa07 683e
000000b0: 2e3a 9f3d ad31 f93d 6d5d 6b3e a915 db3c

net.fc_nn.fc_hidden.1.weight f4 [40, 48]
0.40091693 0.14788872 -0.2853062 0.00012065587 -0.1404399 -0.7215207 0.24665646 -0.6057586
0.09478761 0.27794114 0.22037649 -0.15841936 -0.06822793 0.35915962 0.18135938 0.32344037
0.15278088 -0.18516214 0.13977239 0.20445466 0.3356225 -0.09134645 -0.4191604 0.05047834
-0.20401074 0.15496592 -0.11546489 0.14343253 0.13732795 0.15517561 -0.3750097 0.17371295
0.18873689 -0.14088267 -0.04155138 -0.28662327 0.097635925 -0.011460293 0.18121946 -0.19895746
0.25761956 0.26938322 -0.49952006 0.24010448 -0.0027742959 0.0046997485 -0.08076478 0.19574149
0.26161227 -0.098190226 0.10860704 0.010525281 0.11924544 -0.55285573 0.22173524 -0.14253004
-0.33070853 -0.08387953 0.39062813 0.2505242 0.09392214 0.20285128 -0.75236166 0.0798661
0.08149058 -0.36015484 0.11032711 0.10363 0.100243405 -0.16312812 -0.3228602 -0.268185
-0.2989866 0.3111214 0.019744221 0.046436176 0.23652849 -0.25863266 -0.49817395 0.0125268195
0.1876204 -0.009190272 0.2069703 0.27334172 -0.7794937 -0.31657675 -0.35801363 0.034214564
0.20889653 0.41273 -0.08450571 0.31944042 -0.20712467 0.43223825 0.35115802 -0.16579005
0.006572964 0.026507776 -0.8290221 0.16375889 0.15507708 0.46996433 0.06837172 0.106424026
0.38330117 0.123116076 -0.12481382 0.101882696 0.20277715 0.4478429 0.15358856 0.3632766
0.007771435 -0.026509916 0.15208864 -0.08504922 0.24725127 0.40890387 1.1578361 -1.6376289
0.017638516 0.04355583 -0.047131293 0.19600599 -0.016356058 0.23491777 0.16896091 0.109308295
0.1626694 0.03807177 0.106000535 -0.18059853 -0.11026277 0.29342985 0.3110789 -0.2521589
0.2886051 -0.7583144 -0.47757787 -0.018393928 0.25121075 0.0006306824 -0.20410633 0.34419736
-0.19334778 -0.10388712 -0.22661674 -0.2670529 -0.17460714 -0.065233104 0.0069455015 0.11166606
-0.1580411 -0.37302217 -0.25638726 0.044523966 -0.120664634 -0.31144083 -0.23153673 -0.023468906
-0.33047518 0.013626347 -0.109064914 0.057008956 0.11873646 -0.32174736 0.2868965 0.21631351
-0.2416867 -0.03999732 -0.13159247 -0.07890219 -0.22072777 0.031503238 0.28622273 -0.40822273
-0.16928054 -0.29039285 0.04502134 -0.14904714 0.05388111 -0.30202055 -0.20088376 -0.108953
-0.08288285 -0.3724958 -0.13668908 -0.08947512 -0.24532367 -0.07750828 -0.041272547 -0.2373718
0.120876595 0.37374407 0.11508962 0.029607857 0.085870996 -0.046572648 -0.14175993 -0.11934265
0.49412054 0.33380327 0.062187016 0.10072786 0.3270164 0.071085736 -0.4055528 0.38776144
0.38503948 0.058657147 -0.07886508 -0.16837262 -0.18858889 0.29745576 0.029719645 0.3946706
0.36275503 -0.14969026 0.52355844 0.15030462 -0.14344311 -0.23578407 0.3697453 0.062813394
-0.008232838 0.40373424 0.1412026 0.23683871 -0.26861584 0.46658576 0.19236687 -0.13613954
0.25072888 -0.24444205 0.54692984 0.10405502 0.29147565 0.010635974 0.09198614 0.1296596
-0.66240555 -0.20001875 0.8885992 -0.23957618 0.20354463 -0.81702995 -0.16487046 1.2430804
-0.048274826 0.48193058 -0.45854357 0.5381102 -0.059513118 0.50575465 -0.99441624 -0.17565216
00000000: fc44 cd3e 2470 173e a713 92be a108 fd38
00000010: 7acf 0fbe 95b5 38bf 8393 7c3e ff12 1bbf
00000020: 0220 c23d 4d4e 8e3e 60aa 613e af38 22be
00000030: 16bb 8bbd c5e3 b73e 46b6 393e fa99 a53e
00000040: 9772 1c3e 259b 3dbe 7e20 0f3e 905c 513e
00000050: b6d6 ab3e d913 bbbd 319c d6be 60c2 4e3d
00000060: 31e8 50be 63af 1e3e db78 ecbd fadf 123e
00000070: b39f 0c3e 5be6 1e3e 4501 c0be cfe1 313e
00000080: 3e44 413e 8c43 10be c831 2abd 49c0 92be
00000090: 58f5 c73d f4c3 3bbc 9891 393e 81bb 4bbe
000000a0: b6e6 833e 99ec 893e 18c1 ffbe f3dd 753e
000000b0: f6d0 35bb 5900 9a3b 0168 a5bd 7570 483e
000000c0: 0bf2 853e f517 c9bd 5e6d de3d 3a72 2c3c
000000d0: f436 f43d f487 0dbf 900e 633e 65f3 11be
000000e0: a152 a9be 08c9 abbd 6900 c83e b544 803e
000000f0: 405a c03d 3fb8 4f3e c69a 40bf d690 a33d
00000100: 89e4 a63d 3766 b8be 2ef3 e13d f73b d43d
00000110: 6a4c cd3d 0f0b 27be ef4d a5be 8b4f 89be
00000120: c614 99be 4e4b 9f3e a2be a13c dc33 3e3d
00000130: 8634 723e 806b 84be a810 ffbe 4a3d 4d3c
00000140: 901f 403e cb92 16bc 06f0 533e 72f3 8b3e
00000150: e68c 47bf 5916 a2be 904d b7be 9224 0c3d
00000160: f9e8 553e 5951 d33e 5411 adbd b28d a33e
00000170: 7d18 54be 554e dd3e fcca b33e dec4 29be
00000180: 0562 d73b d626 d93c cb3a 54bf 69b0 273e
00000190: 87cc 1e3e 2a9f f03e 7906 8c3d d7f4 d93d
000001a0: 0d40 c43e 4824 fc3d 639e ffbd e0a7 d03d
000001b0: d0a4 4f3e aa4b e53e 5246 1d3e 64ff b93e
000001c0: 86a7 fe3b 532b d9bc 20bd 1b3e 492e aebd
000001d0: 702f 7d3e d95b d13e f933 943f d39d d1bf
000001e0: a67e 903c 9967 323d be0c 41bd cbb5 483e
000001f0: 24fd 85bc 498e 703e 1704 2d3e 07dd df3d
00000200: cf92 263e 25f1 1b3d cf16 d93d d2ee 38be
00000210: 72d1 e1bd 703c 963e bc45 9f3e f91a 81be
00000220: 0cc4 933e e420 42bf 1685 f4be ddae 96bc
00000230: b29e 803e 6154 253a 4001 51be a33a b03e
00000240: f6fc 45be c5c2 d4bd 380e 68be 28bb 88be
00000250: 37cc 32be ef98 85bd 1797 e33b 2db1 e43d
00000260: 87d5 21be c3fc bebe 3145 83be c35e 363d
00000270: 051f f7bd 2c75 9fbe f717 6dbe dd41 c0bc
00000280: 0b34 a9be 0b41 5f3c 6d5d dfbd 3982 693d
00000290: 1a2c f33d 12bc a4be 19e4 923e 4a81 5d3e
000002a0: b87c 77be 3bd4 23bd 2dc0 06be 7997 a1bd
000002b0: 7606 62be 8a09 013d c98b 923e 9202 d1be
000002c0: e157 2dbe 5fae 94be 4c68 383d d09f 18be
000002d0: 70b2 5c3d 70a2 9abe 79b4 4dbe c022 dfbd
000002e0: 7cbe a9bd c5b7 bebe 39f8 0bbe bb3e b7bd
000002f0: 2136 7bbe a9bc 9ebd 670d 29bd 9811 73be
00000300: 268e f73d 625b bf3e 1bb4 eb3d 2d8c f23c
00000310: 22dd af3d f6c2 3ebd 8429 11be eb69 f4bd
00000320: 5efd fc3e 43e8 aa3e d0b7 7e3d 694a ce3d
00000330: b26e a73e 6695 913d 9ea4 cfbe ab88 c63e
00000340: e523 c53e 7a42 703d 0484 a1bd df69 2cbe
00000350: 721d 41be 1f4c 983e 9d76 f33c 4412 ca3e
00000360: 07bb b93e 6748 19be ed07 063f 74e9 193e
00000370: c0e2 12be 6171 71be 424f bd3e 4fa4 803d
00000380: 06e3 06bc 41b6 ce3e 6a97 103e d985 723e
00000390: 0488 89be 54e4 ee3e d2fb 443e 2a68 0bbe
000003a0: 895f 803e 044f 7abe 9803 0c3f cc1a d53d
000003b0: 4c3c 953e 8242 2e3c 3b63 bc3d 7cc5 043e
000003c0: 6993 29bf b7d1 4cbe 3d7b 633f 7553 75be
000003d0: 016e 503e e028 51bf cdd3 28be 421d 9f3f
000003e0: d3bb 45bd 9bbf f63e 39c6 eabe 97c1 093f
000003f0: 07c4 73bd 2379 013f 1092 7ebf 29de 33be

net.fc_nn.fc_hidden.1.bias f4 [40]
0.33425817 0.22399351 -0.04677043 -0.2421348 -0.14230484 0.02460972 0.50174767 0.14868453
0.20929483 -0.19221117 0.18531424 0.07951929 0.022807002 0.14965385 0.23871228 -0.035976946
-0.033544257 0.08701018 0.0286675 0.0061980016 0.033297155 0.25925344 0.043101043 -0.007874688
0.40130374 0.049119893 -0.079597175 -0.039443 0.045219608 -0.061328184 -0.19906753 -0.20626879
0.12060094 0.26621732 0.14506492 -0.17766652 0.29838064 0.07077711 0.09515045 -0.06485848
00000000: e323 ab3e 8e5e 653e 5a92 3fbd 2ff2 77be
00000010: 5cb8 11be 539a c93c 8972 003f c240 183e
00000020: 6251 563e 01d3 44be 04c3 3d3e 02db a23d
00000030: c0d5 ba3c dc3e 193e fe70 743e 905c 13bd
00000040: b465 09bd 6532 b23d 1bd8 ea3c 9b18 cb3b
00000050: 9962 083d debc 843e b88a 303d d604 01bc
00000060: af77 cd3e f131 493d d803 a3bd fc8e 21bd
00000070: 3238 393d 4333 7bbd 5cd8 4bbe 2038 53be
00000080: a0fd f63d a34d 883e e68b 143e 36ee 35be
00000090: 59c5 983e 97f3 903d 3dde c23d 86d4 84bd

net.fc_nn.fc_out.weight f4 [8, 40]
-0.07285839 -0.53447187 0.32773224 -0.041094072 0.17885073 -0.4358663 -0.5008137 0.21597755
0.17834705 -0.017765792 0.37751967 -0.10056487 0.4421581 -0.47649202 -0.18774116 0.42443597
-0.40964156 0.22577073 0.23394507 0.7328954 0.13731678 0.17869943 -0.16112104 -0.052874383
-0.5932616 0.0151904095 -0.3787983 0.14701705 0.30971178 0.33692303 0.14360034 0.12719698
-0.1503184 -0.08631352 0.08801855 0.59328204 0.23722251 -0.6162287 0.29639104 0.08418163
-0.25954133 -0.15334679 -0.2195397 -0.210224 0.29730207 -0.30765733 -0.33359408 -0.18349257
0.22648136 -0.22082746 0.2891082 -0.17707412 0.09317563 -0.0822087 0.18473062 0.15892845
-0.4786878 0.23523997 -0.18842104 -0.45580593 0.027995484 0.5448387 -0.5292734 -0.2947744
-0.23841643 -0.49447393 -0.21038783 0.35577646 0.37192708 0.3179779 0.0020206596 -0.00013644435
0.47407937 0.13922684 0.55568707 -0.021857478 0.14505734 0.24751022 0.1621902 0.0024356053
0.5192172 0.14534296 0.18690479 -0.03392731 -0.4060688 0.88900954 0.38756165 0.21383023
-0.28821415 0.20553474 0.19992018 0.82331455 0.14334783 -0.4233488 0.3521695 -0.051919345
0.064349145 -0.20923617 -0.08573542 -0.109610595 -0.036658734 0.16851287 -0.25823838 -0.45774674
0.13590828 0.10421345 -0.080673516 0.20588018 0.20477836 -0.28650138 -0.9119134 -0.3408511
-0.21008015 0.054813825 -0.16380431 0.27862456 0.2971462 0.2531212 -0.109386034 -0.05618478
-0.14619644 -0.13863191 0.24843505 -0.23677786 -0.101598166 -0.7837159 0.46120414 0.2979392
-0.0073742927 -0.923029 -0.2044103 -0.18738328 -0.33791694 0.066585526 0.1714098 0.059594166
0.06358787 0.07894862 -0.06993396 0.2592031 0.16712084 0.046977486 -0.0028328004 0.057854936
0.17671715 -0.15438117 -0.15959369 -0.27439418 -0.2055566 0.015326602 0.83023465 -0.38124537
-0.2267783 0.7089832 -0.16594388 -0.14765063 -0.018086389 -0.10736984 -0.06568319 0.38262486
0.080907375 -0.13444747 -0.14136432 -0.11765402 0.32510838 0.77967435 -0.5578218 -0.01699169
-0.34716868 -0.25493836 0.09037081 -0.9889968 0.18634905 -0.8080355 0.25231248 0.28498936
-0.28079802 0.26586097 -0.3857809 0.24101172 -0.09989029 -0.2920048 0.29353598 -0.3243108
-0.3362512 -0.32225177 0.062297896 -0.32444918 0.020616474 0.2627501 0.10119733 0.022812223
0.7240563 -0.07986638 0.10522606 0.05271548 0.02016144 0.68262935 0.33424684 0.45761895
0.12769856 -0.18422827 -0.054173946 -0.026090238 0.43852895 0.12685588 -0.32569867 -0.11938185
-0.0773898 0.17877579 0.56361353 0.7963512 0.28711239 0.61053133 0.34543443 0.19707553
-0.39823976 0.29131776 -0.44779864 -0.10386826 -0.093019105 -0.0152431065 0.07741548 -0.41525593
-0.31913716 -0.44467366 -0.5074573 0.46663123 -0.5770401 0.29062673 -0.0009965827 0.059329804
-0.47777796 -0.23374997 0.19618084 0.36886805 0.13745491 -0.04152144 0.46203822 0.27618527
0.104782425 0.6361024 -0.19515339 -0.2977741 -0.32385933 -0.28797677 0.0048778364 -0.06201728
-0.19431862 0.068985775 -0.17351063 -0.9441803 -0.2751373 0.095929176 -0.04134685 0.07992348
00000000: c836 95bd 26d3 08bf 85cc a73e 4252 28bd
00000010: a524 373e de29 dfbe 5435 00bf 3829 5d3e
00000020: 9ca0 363e 9189 91bc 424a c13e f4f4 cdbd
00000030: 8c62 e23e c3f6 f3be 383f 40be ac4f d93e
00000040: 8abc d1be 7130 673e 4c8f 6f3e 089f 3b3f
00000050: c59c 0c3e fcfc 363e eafc 24be cf92 58bd
00000060: fedf 17bf 32e1 783c daf1 c1be a38b 163e
00000070: 8b92 9e3e 2d81 ac3e f80b 133e ed3f 023e
00000080: 11ed 19be 25c5 b0bd 1243 b43d 55e1 173f
00000090: 75ea 723e 2ac1 1dbf 91c0 973e 6b67 ac3d
000000a0: 9ae2 84be f106 1dbe 04cf 60be f644 57be
000000b0: fa37 983e 4385 9dbe d8cc aabe 7ae5 3bbe
000000c0: bbea 673e 9820 62be fd05 943e eb52 35be
000000d0: ddd2 be3d 095d a8bd 062a 3d3e 24be 223e
000000e0: 9116 f5be bfe2 703e 72f1 40be 655f e9be
000000f0: c956 e53c 8d7a 0b3f 767e 07bf acec 96be
00000100: 7023 74be b02b fdbe e86f 57be 5528 b63e
00000110: 3a6d be3e 00ce a23e 0b6d 043b 8012 0fb9
00000120: 88ba f23e 7b91 0e3e 8241 0e3f 740e b3bc
00000130: e989 143e 5273 7d3e 3015 263e ad9e 1f3b
00000140: 6beb 043f c9d4 143e f863 3f3e 5df7 0abd
00000150: 40e8 cfbe 2196 633f 7b6e c63e 50f6 5a3e
00000160: ce90 93be b377 523e e0b7 4c3e bec4 523f
00000170: c6c9 123e 2dc1 d8be 904f b43e 61a9 54bd
00000180: 7cc9 833d 0242 56be 0d96 afbd 857b e0bd
00000190: 7827 16bd a38e 2c3e d237 84be c85d eabe
000001a0: 8a2b 0b3e dc6d d53d 2838 a5bd 41d2 523e
000001b0: 6bb1 513e 4fb0 92be 2873 69bf 0984 aebe
000001c0: 401f 57be 7684 603d 51bc 27be e1a7 8e3e
000001d0: 8c23 983e 1a99 813e c905 e0bd 0322 66bd
000001e0: 85b4 15be 86f5 0dbe c265 7e3e e575 72be
000001f0: b312 d0bd 9ba1 48bf f322 ec3e 7d8b 983e
00000200: 0da4 f1bb a14b 6cbf ef50 51be 67e1 3fbe
00000210: 7303 adbe fe5d 883d 0d86 2f3e 0319 743d
00000220: 5b3a 823d d0af a13d 8939 8fbd 45b6 843e
00000230: ba21 2b3e 776b 403d 81a6 39bb 4cf9 6c3d
00000240: 57f5 343e 1916 1ebe 876c 23be 657d 8cbe
00000250: 6e7d 52be 6e1c 7b3c 428a 543f 9832 c3be
00000260: 9238 68be ec7f 353f 31ed 29be ba31 17be
00000270: e829 94bc b8e4 dbbd e984 86bd 68e7 c33e
00000280: c4b2 a53d 99ac 09be cfc1 10be 97f4 f0bd
00000290: 9b74 a63e bd98 473f 69cd 0ebf 2832 8bbc
000002a0: 18c0 b1be 4887 82be 5514 b93d e52e 7dbf
000002b0: 49d2 3e3e 6adb 4ebf 1a2f 813e 20ea 913e
000002c0: c2c4 8fbe ee1e 883e 1385 c5be c7cb 763e
000002d0: 4893 ccbd a781 95be 594a 963e 110c a6be
000002e0: 1e29 acbe 2ffe a4be 142c 7f3d 341e a6be
000002f0: e1e3 a83c 2e87 863e 8c40 cf3d b3e0 ba3c
00000300: c15b 393f fc90 a3bd c380 d73d 30ec 573d
00000310: 9b29 a53c ccc0 2e3f 6722 ab3e 084d ea3e
00000320: 69c3 023e 56a6 3cbe 80e5 5dbd 32bb d5bc
00000330: de86 e03e 82e6 013e fac1 a6be 797e f4bd
00000340: 8b7e 9ebd 0011 373e fa48 103f acdd 4b3f
00000350: 6500 933e c84b 1c3f c8dc b03e 2bce 493e
00000360: 15e6 cbbe 9a27 953e dd45 e5be e2b8 d4bd
00000370: cd80 bebd 39be 79bc 028c 9e3d 6d9c d4be
00000380: f265 a3be 44ac e3be b9e8 01bf 4aea ee3e
00000390: e6b8 13bf 07cd 943e c49f 82ba cf03 733d
000003a0: 509f f4be 275c 6fbe a1e3 483e 46dc bc3e
000003b0: fbc0 0c3e 6312 2abd 4690 ec3e 2868 8d3e
000003c0: 2b98 d63d 9bd7 223f 4ad6 47be d975 98be
000003d0: e4d0 a5be b171 93be 42d6 9f3b d505 7ebd
000003e0: 76fb 46be 6a48 8d3d c5ac 31be cdb5 71bf
000003f0: ccde 8cbe 8476 c43d 515b 29bd ecae a33d

net.fc_nn.fc_out.bias f4 [8]
0.16173163 0.08388737 0.15223143 0.2319565 -0.1565385 0.04038232 0.11512036 0.14916824
00000000: fa9c 253e 24cd ab3d 8ee2 1b3e 0186 6d3e
00000010: a14b 20be ee67 253d 39c4 eb3d 8fbf 183e
